tests/_logs/test_fit/v0/checkpoints/epoch=0-step=6.ckpt (torch, 36713 bytes, 18 tensors)

convnet.module.0.weight f4 [16, 4, 16]
0.031674877 -0.09842231 -0.018477565 -0.071089536 0.04640509 0.047921795 -0.08148205 0.07710164
-0.08768009 0.03125153 -0.08456075 -0.008297326 0.04185039 0.020031568 0.08361901 0.0376007
0.11109009 -0.12056479 -0.03449198 0.0007329722 0.086172126 0.11916162 0.0067590144 -0.097635895
0.039553013 0.041541148 -0.011615245 -0.05462664 -0.12969106 0.09109037 -0.12671018 0.07561704
0.04312225 -0.07798166 0.062284894 -0.07461326 -0.117916934 0.080395766 -0.07345285 -0.040540412
0.024443854 -0.031341936 -0.004774243 -0.12453997 0.104675494 0.08688977 -0.02169877 0.07999009
-0.027679853 -0.121050514 0.049765844 0.024241071 0.05585434 0.057559174 -0.11162335 -0.11407113
-0.06362923 0.08451272 0.11058616 0.032729063 0.06444964 -0.0937832 0.08576285 0.004120787
-0.080131024 -0.017228281 -0.005502425 -0.0045692488 0.09075448 -0.022535436 0.027935876 -0.056802783
-0.04841137 -0.10218734 -0.10381278 -0.014424379 0.117398 0.034217738 -0.06122745 0.06691986
0.041368976 0.09955089 0.100657426 -0.09494396 0.097725645 -0.10547116 -0.01009962 -0.062199477
0.095244475 -0.044681527 0.05426652 -0.0047067264 -0.07186684 0.01113528 -0.010381497 -0.040473115
-0.061394654 0.08799379 0.053876545 0.048580665 0.08703829 -0.09900488 0.08618885 0.043323856
-0.044026144 -0.015694726 0.1004528 -0.02758527 -0.050139967 0.11078866 -0.06357002 0.0014363441
0.103487395 0.0055739274 -0.06439263 -0.09493824 -0.08719173 0.040655732 -0.0004968793 0.11403068
0.096558556 -0.08308942 -0.0044782264 0.043282293 0.05198589 0.11850172 0.035130776 0.02245455
0.061825592 -0.058087513 0.06044062 0.075166985 -0.108851306 0.029624116 0.034557022 -0.087431915
0.053123467 0.039109435 -0.083619334 0.018640853 -0.057708517 0.12817678 -0.035463892 -0.088317946
-0.063710965 -0.07206495 0.070082836 -0.054842222 0.087327406 -0.10638005 -0.10807251 0.05809574
-0.11016999 -0.015132208 -0.09944818 0.0806828 -0.11515061 0.056181815 -0.098430306 0.029834963
-0.069275916 -0.022706728 0.1033756 0.09067691 -0.11582169 -0.024844062 0.122081995 0.05978046
0.0012963123 -0.10011907 -0.03922317 0.097133934 0.0030622832 0.03653017 -0.09602117 0.104506716
0.102210596 0.02641641 0.04159164 0.12775454 0.06580834 -0.1102213 -0.086366884 0.08722107
-0.03935344 -0.11788932 0.10050392 -0.03539295 0.055953953 0.05414122 0.07513402 0.10778416
-0.104125075 -0.0850497 -0.12506503 0.05780916 -0.09257073 0.03547053 -0.07964247 -0.020312052
-0.006360131 -0.12122554 0.008387866 0.08318305 0.08455705 0.07008016 -0.12636605 -0.12754308
-0.11830615 -0.044598147 -0.04483209 -0.0017991888 -0.08234252 0.10650005 -0.028255895 0.0012333195
0.053647082 0.11294222 0.1133547 0.015150944 -0.10544397 0.1090419 -0.08400444 0.09254503
0.09573826 0.1121219 0.054521207 0.09460811 0.013585395 -0.103259325 -0.066311106 0.10513611
-0.08037807 -0.0426884 0.07794272 -0.12764393 0.025888857 0.0856916 0.05640298 -0.013565766
-0.00064072484 0.023225112 -0.027935727 0.0903891 -0.09259344 -0.0927191 -0.007859647 0.060191665
-0.06631463 0.0551307 0.055710115 0.101692855 -0.094075985 -0.011951209 -0.08299926 0.02598169
00000000: 84bd 013d a391 c9bd 435e 97bc 6497 91bd
00000010: 4313 3e3d a549 443d 10e0 a6bd 77e7 9d3d
00000020: 9e91 b3bd 9b01 003d 302e adbd 82f1 07bc
00000030: 516b 2b3d 3e19 a43c 7240 ab3d 3103 1a3d
00000040: 3383 e33d acea f6bd 7647 0dbd ef24 403a
00000050: 037b b03d 020b f43d b97a dd3b 54f5 c7bd
00000060: 5702 223d 0d27 2a3d de4d 3ebc 2fc0 5fbd
00000070: bccd 04be 978d ba3d 50c0 01be 1bdd 9a3d
00000080: f5a0 303d d9b4 9fbd 721e 7f3d d6ce 98bd
00000090: 6f7e f1bd 89a6 a43d 736e 96bd b40d 26bd
000000a0: 7a3e c83c 6760 00bd 4171 9cbb d00e ffbd
000000b0: 1b60 d63d 44f3 b13d 9ec1 b1bc d8d1 a33d
000000c0: dcc0 e2bc 55e9 f7bd 45d7 4b3d 3695 c63c
000000d0: 85c7 643d 2bc3 6b3d c89a e4bd 209e e9bd
000000e0: 0b50 82bd 0115 ad3d ff7a e23d e90e 063d
000000f0: 2cfe 833d 6811 c0bd 6fa4 af3d ab07 873b
00000100: bc1b a4bd 5322 8dbc b04d b4bb a3b9 95bb
00000110: 7cdd b93d 3c9c b8bc c7d9 e43c 09aa 68bd
00000120: 004b 46bd 9947 d1bd cb9b d4bd 3b54 6cbc
00000130: 5d6e f03d e627 0c3d a2c9 7abd 480d 893d
00000140: 8472 293d 56e1 cb3d 7b25 ce3d fb71 c2bd
00000150: 6224 c83d 4301 d8bd e078 25bc e1c4 7ebd
00000160: 890f c33d fa03 37bd 9246 5e3d e23a 9abb
00000170: ec2e 93bd c070 363c 2817 2abc 23c7 25bd
00000180: f678 7bbd 1736 b43d a7ad 5c3d 85fc 463d
00000190: 2241 b23d 12c3 cabd c883 b03d 5b74 313d
000001a0: c254 34bd 3a92 80bc 33ba cd3d 81fa e1bc
000001b0: 915f 4dbd 2ae5 e23d 0031 82bd b643 bc3a
000001c0: 33f1 d33d 7ea5 b63b 48e0 83bd fb6e c2bd
000001d0: 9491 b2bd a086 263d 0141 02ba eb88 e93d
000001e0: 7ec0 c53d c92a aabd 16be 92bb c648 313d
000001f0: 28ef 543d 08b1 f23d 4ae5 0f3d 9bf2 b73c
00000200: d53c 7d3d 2ced 6dbd 9590 773d 26f1 993d
00000210: 6fed debd 46ae f23c aa8b 0d3d 810f b3bd
00000220: fe97 593d 3731 203d 9d40 abbd b4b4 983c
00000230: c45f 6cbd c640 033e 9642 11bd 0ae0 b4bd
00000240: e57a 82bd ca96 93bd 9787 8f3d 3da2 60bd
00000250: b6d8 b23d c9dd d9bd 1f55 ddbd ccf5 6d3d
00000260: cea0 e1bd 15ed 77bc 7dab cbbd 063d a53d
00000270: 15d4 ebbd e71e 663d d495 c9bd 7468 f43c
00000280: 88e0 8dbd 7603 babc 96b6 d33d d1b4 b93d
00000290: ec33 edbd c685 cbbc 2006 fa3d 5bdc 743d
000002a0: 06e9 a93a 3a0b cdbd 7aa8 20bd 28ee c63d
000002b0: 96b0 483b a9a0 153d bfa6 c4bd 9e07 d63d
000002c0: ca53 d13d 3a67 d83c ff5b 2a3d 16d2 023e
000002d0: 86c6 863d b4bb e1bd 1fe1 b0bd f6a0 b23d
000002e0: 1331 21bd f56f f1bd 00d5 cd3d 33f8 10bd
000002f0: f92f 653d 2fc3 5d3d dddf 993d f1bd dc3d
00000300: 873f d5bd 8a2e aebd 0c11 00be 4cc9 6c3d
00000310: b995 bdbd 8c49 113d 971b a3bd 7665 a6bc
00000320: a568 d0bb 1945 f8bd 436d 093c e05b aa3d
00000330: 3f2c ad3d 3086 8f3d 1a66 01be a79a 02be
00000340: 7f4a f2bd 8cac 36bd dba1 37bd c2d2 ebba
00000350: 32a3 a8bd b31c da3d e878 e7bc 56a7 a13a
00000360: 0bbd 5b3d 404e e73d 8226 e83d aa3b 783c
00000370: 02f3 d7bd 5c51 df3d 850a acbd 4088 bd3d
00000380: 6c12 c43d 2ba0 e53d a151 5f3d e6c1 c13d
00000390: 4795 5e3c a079 d3bd 1ece 87bd 9a51 d73d
000003a0: 429d a4bd 08da 2ebd 6fa0 9f3d 17b5 02be
000003b0: de14 d43c 147f af3d d006 673d f242 5ebc
000003c0: 51f6 27ba 9742 be3c 77d9 e4bc ec1d b93d
000003d0: a1a1 bdbd 83e3 bdbd c0c5 00bc 898b 763d
000003e0: f7cf 87bd bbd0 613d 4a30 643d 5844 d03d
000003f0: e9aa c0bd 01cf 43bc 84fb a9bd 8ed7 d43c

convnet.module.0.bias f4 [16]
0.042035304 0.013091237 0.0034626657 0.09580024 0.08680171 0.048466798 0.0539118 0.08961069
0.12168659 -0.12078777 -0.11017756 0.0016354059 0.10649902 -0.10868405 0.02776125 0.040903833
00000000: 362d 2c3d a17c 563c e4ed 623b eb32 c43d
00000010: 18c5 b13d 1f85 463d 9fd2 5c3d cf85 b73d
00000020: d236 f93d 945f f7bd c6a4 e1bd 1e5b d63a
00000030: 281c da3d be95 debd 906b e33c c78a 273d

fcn.module.0.weight f4 [32, 32]
-0.059974372 -0.01418185 0.13504271 0.045790233 -0.0800787 -0.1292312 -0.06070465 0.0027941554
-0.008239293 -0.022618622 0.11368961 0.003860794 -0.01631142 -0.17761187 0.07935185 -0.094779864
-0.010646067 -0.065562166 0.1278609 0.0031026523 -0.025558103 0.13131054 -0.006635856 0.11714554
0.05885454 -0.010187251 0.05093845 -0.008375264 -0.1313906 -0.034955893 -0.1218069 -0.15273024
0.16571605 0.13440333 -0.09311952 0.0028196645 0.07034459 0.11926976 0.08966338 0.06778772
-0.011539311 -0.0040966407 -0.04828343 -0.14796431 0.1503602 0.069992445 0.14457664 -0.051071566
0.008590585 -0.0806291 -0.11063012 0.07120438 0.05544807 0.06368059 0.1380763 0.041149907
0.01862657 0.07319688 -0.04931015 -0.040077236 -0.16469505 0.15705757 -0.03136484 -0.062917024
-0.036717847 -0.041616708 0.15748398 -0.025467932 0.098675534 -0.031417847 0.022740379 -0.12848425
0.08500035 0.09999587 -0.07488951 -0.16426982 0.1478105 -0.14725378 -0.17263052 -0.041375607
-0.16815667 -0.014184982 -0.16425364 -0.09067738 0.1414652 0.11125891 -0.1007752 0.14885904
0.17344867 -0.11542542 -0.1384582 -0.1398442 -0.073281676 0.024031177 0.13491137 -0.027000234
0.17401847 -0.15508546 -0.118351355 0.0069837826 -0.041057527 -0.06520715 0.107552655 0.09778964
0.12936191 0.02193939 -0.13293731 0.07162645 0.17559682 -0.052859377 -0.11651167 -0.098395
0.045138083 -0.13809232 -0.15343443 0.1189069 0.15205608 -0.13860393 0.088998966 0.098201744
0.04010265 0.08566407 0.15719749 -0.032407623 0.0061132777 -0.024751225 0.03357317 -0.11449537
-0.14908671 0.13074996 -0.093890235 0.13647981 0.05255367 -0.034394905 0.0918947 -0.022991672
-0.024955317 -0.053400517 -0.10560605 0.13817088 -0.027588546 0.085313484 -0.10442866 -0.14447564
-0.12129623 0.02762644 -0.059556574 -0.13198248 0.08763166 0.084749416 0.015097216 0.1575415
-0.09512704 -0.13199505 0.13299887 -0.0028234571 -0.055197366 -0.065629914 0.07363035 -0.06258969
-0.16485919 0.08133574 0.065133795 -0.03766127 0.16656448 -0.061464034 -0.14243561 0.046869025
-0.1112995 -0.12339078 0.09999107 -0.043542027 -0.15770149 -0.08845768 -0.016222581 -0.071222186
0.126824 0.05435887 -0.1454393 0.06199515 -0.015735358 0.14543675 0.07905187 -0.033364117
0.0035626888 0.12763567 0.09227954 -0.013635725 -0.17301391 -0.13535875 0.05980219 -0.037021026
-0.11743023 0.009407822 -0.14365074 0.074356794 0.02187791 0.05972136 0.16087116 0.15856706
0.148691 -0.046028696 0.1465279 -0.1524147 0.005393512 0.10699867 0.019576976 0.15788476
-0.18038484 0.118939966 -0.07107642 0.08951784 -0.13195764 -0.004603198 0.11154736 -0.023594849
-0.038664244 -0.046372294 0.03361876 -0.095788926 -0.063531324 -0.07856779 0.08962217 0.1604593
-0.1549809 -0.07175897 -0.16562559 -0.07010165 -0.08927885 -0.06921457 -0.081313744 0.0035419613
-0.14500101 -0.03586963 0.0738544 0.11554311 0.09396152 -0.13402809 0.11577357 -0.13963021
0.17127658 -0.13801959 0.02604875 0.017926365 0.12676014 -0.10745782 -0.02287151 -0.1310832
0.08663531 -0.14147732 0.100017056 -0.11824806 0.13633062 -0.03763397 -0.12583713 0.16698451
00000000: b0a7 75bd fd5a 68bc a348 0a3e 8a8e 3b3d
00000010: 4d00 a4bd 2f55 04be 70a5 78bd 261e 373b
00000020: 19fe 06bc b04a b9bc 19d6 e83d 6005 7d3b
00000030: 879f 85bc e3df 35be 3983 a23d f21b c2bd
00000040: d76c 2ebc 7545 86bd f8ed 023e de55 4b3b
00000050: 3a5f d1bc 4576 063e 9871 d9bb 00ea ef3d
00000060: 7511 713d 6de8 26bc d6a4 503d 6738 09bc
00000070: 428b 06be e92d 0fbd e575 f9bd 5165 1cbe
00000080: 78b1 293e 07a1 093e 72b5 bebd 1fca 383b
00000090: d310 903d b443 f43d 6fa1 b73d 4ad4 8a3d
000000a0: 610f 3dbc 1d3d 86bb d9c4 45bd f583 17be
000000b0: 06f8 193e 3358 8f3d e60b 143e 6b30 51bd
000000c0: 86bf 0c3c df20 a5bd 0b92 e2bd 9ad3 913d
000000d0: 841d 633d f86a 823d e063 0d3e ce8c 283d
000000e0: c096 983c 3fe8 953d 71f9 49bd 0728 24bd
000000f0: d2a5 28be b3d3 203e 6b78 00bd a4da 80bd
00000100: 7465 16bd 4876 2abd 7b43 213e 20a2 d0bc
00000110: 6616 ca3d 00b0 00bd 084a ba3c 6091 03be
00000120: aa14 ae3d a2ca cc3d ac5f 99bd 5936 28be
00000130: a35b 173e b2c9 16be 0ec6 30be 7879 29bd
00000140: 4331 2cbe 2068 68bc 1b32 28be 10b5 b9bd
00000150: 41dc 103e b6db e33d 3a63 cebd 816e 183e
00000160: 879c 313e 2a64 ecbd fdc7 0dbe 5133 0fbe
00000170: b414 96bd 08dd c43c 3526 0a3e 982f ddbc
00000180: e631 323e b9ce 1ebe 3262 f2bd 37d8 e43b
00000190: f02b 28bd 548b 85bd 9144 dc3d ef45 c83d
000001a0: 7377 043e 3cba b33c b820 08be e3b0 923d
000001b0: a7cf 333e 1383 58bd ac9d eebd 5183 c9bd
000001c0: b6e2 383d 1368 0dbe ea1d 1dbe 7685 f33d
000001d0: 97b4 1b3e 30ee 0dbe 1745 b63d ff1d c93d
000001e0: ad42 243d a570 af3d 61f8 203e dbbd 04bd
000001f0: e451 c83b 15c3 cabc 0584 093d 8c7c eabd
00000200: 30aa 18be 51e3 053e 8649 c0bd 5dc1 0b3e
00000210: 8442 573d ace1 0cbd 4a33 bc3d 0859 bcbc
00000220: 186f ccbc 80ba 5abd fc47 d8bd ab7c 0d3e
00000230: 6001 e2bc d6b8 ae3d b1de d5bd 6cf1 13be
00000240: 286a f8bd d850 e23c 98f1 73bd 6a26 07be
00000250: 3a78 b33d 1a91 ad3d 505a 773c 8f52 213e
00000260: f7d1 c2bd b629 07be db30 083e c009 39bb
00000270: a216 62bd fa68 86bd 82cb 963d 062f 80bd
00000280: d9d0 28be 5a93 a63d de64 853d b442 1abd
00000290: e18f 2a3e b6c1 7bbd a4da 11be bcf9 3f3d
000002a0: fef0 e3bd 4eb4 fcbd 1ec8 cc3d 2059 32bd
000002b0: 807c 21be 4d29 b5bd 38e5 84bc f0dc 91bd
000002c0: 27de 013e 68a7 5e3d 0aee 14be a0ee 7d3d
000002d0: 70e7 80bc 5fed 143e f2e5 a13d d0a8 08bd
000002e0: 007c 693b edb2 023e 0efd bc3d 6068 5fbc
000002f0: 8f2a 31be 7c9b 0abe 24f3 743d 5ca3 17bd
00000300: 437f f0bd 4423 1a3c 2e19 13be 6048 983d
00000310: 4d39 b33c 639e 743d 69bb 243e 675f 223e
00000320: 7442 183e 9688 3cbd 690b 163e 9912 1cbe
00000330: 0fbc b03b 1e22 db3d e55f a03c 8bac 213e
00000340: ceb6 38be cc96 f33d 8490 91bd 2155 b73d
00000350: e71f 07be 6cd6 96bb f172 e43d fc49 c1bc
00000360: 665e 1ebd e0f0 3dbd d3b3 093d fc2c c4bd
00000370: b61c 82bd 26e8 a0bd d48b b73d 714f 243e
00000380: 50b3 1ebe 5ef6 92bd c199 29be 7491 8fbd
00000390: d4d7 b6bd 5ec0 8dbd d287 a6bd 4020 683b
000003a0: 257b 14be 08ec 12bd fa40 973d dea1 ec3d
000003b0: e66e c03d a93e 09be b21a ed3d 39fb 0ebe
000003c0: 2163 2f3e 0255 0dbe 3064 d53c 50da 923c
000003d0: 69cd 013e d812 dcbd 085d bbbc ad3a 06be
000003e0: da6d b13d 6edf 10be bed5 cc3d 0a2c f2bd
000003f0: 419a 0b3e 1426 1abd 73db 00be fdfd 2a3e

fcn.module.0.bias f4 [32]
-0.077018574 0.065322794 -0.14333144 0.09803811 -0.072354846 0.002673626 0.124568075 0.07575889
0.028762449 0.038469873 0.082460724 0.16004224 -0.13751927 -0.11406241 -0.07657273 -0.078612775
0.0006491244 0.08036707 -0.018602198 -0.03360836 -0.13078952 0.15232553 -0.013521037 0.021894261
-0.12401301 0.078551576 -0.047306985 -0.15151313 0.15462689 -0.009202247 -0.11755884 -0.027696323
00000000: eabb 9dbd f5c7 853d 7ac5 12be 34c8 c83d
00000010: c72e 94bd 0038 2f3b 8c1d ff3d 7a27 9b3d
00000020: 3a9f eb3c 9692 1d3d 2be1 a83d 1de2 233e
00000030: dad1 0cbe 8e99 e9bd 2ad2 9cbd bcff a0bd
00000040: 002a 2a3a 7e97 a43d a363 98bc eba8 09bd
00000050: b0ed 05be 39fb 1b3e 5787 5dbc 985b b33c
00000060: 88fa fdbd a6df a03d f8c4 41bd 4226 1bbe
00000070: 8356 1e3e 05c5 16bc b0c2 f0bd 66e3 e2bc

fcn.module.3.weight f4 [10, 32]
-0.017567981 -0.13366193 0.05985084 0.020442095 0.0056837797 -0.17560716 -0.16081999 -0.11347238
0.17852588 0.017422868 0.12145351 0.061010025 0.029230565 0.06502664 0.09338971 0.09456872
-0.15286148 -0.14988296 -0.06429141 -0.14415613 0.0003848573 0.12995303 0.100618616 0.1318744
-0.045146435 -0.12994057 -0.035924926 -0.16741866 -0.065584645 -0.1415002 0.15406768 -0.09463566
-0.14435962 -0.14808789 0.023135886 -0.14925916 0.14847408 0.15151797 -0.1434997 0.08738439
0.022889877 -0.15414496 0.046311352 -0.08094208 0.08577578 -0.13929872 -0.08666488 -0.0798521
0.124522194 -0.0394682 0.015570259 -0.010749742 -0.16864844 -0.17064084 -0.0064471457 -0.1574025
-0.0515756 0.039090127 0.08489521 0.031943306 -0.13531223 -0.15308769 -0.16949578 -0.07536152
-0.16169803 -0.114798024 0.12992488 -0.083219975 0.16708477 -0.051572442 -0.07459319 0.010886431
0.14064844 -0.12970968 -0.112170205 -0.028684396 -0.14396457 -0.11921404 -0.12573949 -0.1586098
0.12937994 0.04547085 0.018596767 0.166943 0.15703134 0.008003042 0.17349732 -0.09142138
0.12630008 0.115354195 0.038340986 -0.104748785 0.15587895 0.075626664 0.08378998 0.011720909
0.105571665 0.03904114 0.096789256 0.14377128 -0.16608956 0.077497706 0.17762369 -0.02536656
-0.043739624 -0.031104304 0.010534658 0.064023644 -0.05273205 0.08099507 -0.04922645 0.024209918
0.00017790496 0.11203976 -0.10828571 0.11336852 0.18100755 -0.033227835 0.055687275 0.110650316
-0.046448946 0.063840225 -0.022272184 0.045720622 0.11660753 0.001517588 0.17982638 0.1492058
-0.15992141 -0.057427768 -0.074161634 -0.03857709 -0.015876383 0.063571855 0.16410723 -0.027425066
-0.03729578 -0.1702778 -0.14898853 -0.11268373 0.09331031 0.13339491 -0.13610047 -0.0991831
-0.030247733 -0.0030702055 -0.04234643 -0.11586793 -0.06283772 -0.16232644 -0.15721034 -0.10868327
0.13909318 -0.04231468 -0.016869798 0.03980863 0.1461537 0.032727517 0.0061771013 -0.11796279
0.09551806 0.1737687 -0.034682155 0.15401548 0.10188614 -0.09058158 0.10776054 -0.10321095
0.11690661 -0.13326213 -0.103103936 0.038024172 0.14836033 0.10561304 -0.089396685 -0.057088155
-0.02026549 0.09945156 0.05908782 -0.09958197 0.08600152 -0.063244745 -0.15940109 -0.11997471
-0.11803897 -0.040002063 0.17015122 0.022656754 0.11399697 0.03156257 -0.15283959 -0.052722573
0.009009963 -0.11978857 0.12238924 0.05803188 -0.04066804 0.10580079 0.176207 -0.023259535
0.07817674 -0.1061984 -0.16220614 -0.069809906 -0.0918603 0.023341939 -0.11886183 -0.16449063
-0.10578521 0.034844562 -0.14193177 0.14285523 0.171133 0.01016461 -0.07398219 0.06893954
0.14548464 -0.0042416006 -0.019130692 0.12949012 -0.15379474 0.038204547 0.17615543 0.026911506
0.14704876 -0.036379915 0.1116261 0.17230593 0.078411 0.120147124 -0.005324752 0.015357748
-0.15017761 0.015834263 -0.09358573 0.16213332 -0.13263199 0.10245006 0.040233813 -0.023054354
-0.013166428 0.15152048 -0.09429972 0.04704626 -0.13130659 0.13386354 -0.12225247 -0.053416535
-0.13837561 -0.1006519 -0.09825783 -0.021797672 0.17443593 0.008873482 0.09296724 0.13483936
00000000: baea 8fbc acde 08be 2826 753d 2e76 a73c
00000010: 003f ba3b 5dd2 33be ffad 24be 3564 e8bd
00000020: 7dcf 363e 67ba 8e3c 9ebc f83d a6e5 793d
00000030: f074 ef3c b02c 853d 1b43 bf3d 3fad c13d
00000040: b887 1cbe eb7a 19be 37ab 83bd aa9d 13be
00000050: acc6 c939 6812 053e 2211 ce3d 150a 073e
00000060: 78eb 38bd 240f 05be 0426 13bd cc6f 2bbe
00000070: 3e51 86bd 6ee5 10be ebc3 1d3e 57d0 c1bd
00000080: 02d3 13be 5aa4 17be 7887 bd3c 65d7 18be
00000090: 9709 183e 8727 1b3e 96f1 12be 96f6 b23d
000000a0: 8d83 bb3c 2dd8 1dbe f9b0 3d3d f6c4 a5bd
000000b0: 36ab af3d 53a4 0ebe 5b7d b1bd 7f89 a3bd
000000c0: 7e05 ff3d 68a9 21bd 661a 7f3c b01f 30bc
000000d0: 2db2 2cbe 79bc 2ebe 9442 d3bb 1f2e 21be
000000e0: f040 53bd f81c 203d 8add ad3d fcd6 023d
000000f0: 4a8f 0abe 05c3 1cbe 4d90 2dbe 2457 9abd
00000100: 2b94 25be 3a1b ebbd 070b 053e 3c6f aabd
00000110: 4518 2b3e a03d 53bd 50c4 98bd 005d 323c
00000120: 2506 103e 9dd2 04be 7eb9 e5bd 8afb eabc
00000130: 736b 13be 7e26 f4bd dac1 00be 9b6a 22be
00000140: 2d7c 043e a43f 3a3d 3f58 983c 1bf3 2a3e
00000150: d3cc 203e 311f 033c 48a9 313e 223b bbbd
00000160: cf54 013e d23e ec3d 700b 1d3d 8886 d6bd
00000170: bb9e 1f3e 27e2 9a3d 159a ab3d 0e09 403c
00000180: f535 d83d 9ae9 1f3d 7239 c63d c738 133e
00000190: 6213 2abe 1eb7 9e3d fce2 353e 88cd cfbc
000001a0: 5228 33bd 74ce febc 8f99 2c3c d41e 833d
000001b0: 90fd 57bd bee0 a53d ada1 49bd e153 c63c
000001c0: 008c 3a39 1a75 e53d e6c4 ddbd c12d e83d
000001d0: 0b5a 393e e919 08bd 5718 643d a29c e23d
000001e0: 4041 3ebd aabe 823d 2874 b6bc 8c45 3b3d
000001f0: eecf ee3d cee9 c63a 6824 383e 68c9 183e
00000200: 70c2 23be 6139 6bbd 0ee2 97bd 0303 1ebd
00000210: 300f 82bc f631 823d ba0b 283e 88aa e0bc
00000220: 76c3 18bd 4e5d 2ebe 7390 18be bac6 e6bd
00000230: 7a19 bf3d ad98 083e ec5d 0bbe 8220 cbbd
00000240: 18ca f7bc 8035 49bb 7373 2dbd 2a4c edbd
00000250: 10b1 80bd e738 26be bffb 20be 5695 debd
00000260: 716e 0e3e 2852 2dbd 8832 8abc 600e 233d
00000270: 51a9 153e 4a0d 063d 4869 ca3b 7a96 f1bd
00000280: f99e c33d 6cf0 313e e00e 0ebd 3cb6 1d3e
00000290: aea9 d03d d682 b9bd 8fb1 dc3d 4360 d3bd
000002a0: bc6c ef3d de75 08be 2828 d3bd 3cbf 1b3d
000002b0: c5eb 173e a64b d83d 9c15 b7bd 45d5 69bd
000002c0: d003 a6bc 42ad cb3d 1206 723d a2f1 cbbd
000002d0: 9121 b03d 7686 81bd 0a3a 23be 4db5 f5bd
000002e0: 6abe f1bd 34d9 23bd 1f3c 2e3e a89a b93c
000002f0: 3e77 e93d c147 013d fb81 1cbe a0f3 57bd
00000300: 869e 133c b653 f5bd 36a7 fa3d d6b2 6d3d
00000310: 8893 26bd 16ae d83d 9c6f 343e c88a bebc
00000320: 201b a03d 8c7e d9bd 5e19 26be 7ff8 8ebd
00000330: 4121 bcbd 9837 bf3c d56d f3bd 3b70 28be
00000340: eba5 d8bd 2cb9 0e3d 9056 11be a448 123e
00000350: 7d3d 2f3e 7789 263c f983 97bd 2c30 8d3d
00000360: edf9 143e 20fd 8abb f8b7 9cbc 0f99 043e
00000370: 5e7c 1dbe 5f7c 1c3d 1762 343e 8575 dc3c
00000380: f393 163e 1b03 15bd 3a9c e43d f770 303e
00000390: f295 a03d b20f f63d 427b aebb 109f 7b3c
000003a0: 29c8 19be dbb6 813c e0a9 bfbd 4706 263e
000003b0: aed0 07be 56d1 d13d 36cc 243d 7cdc bcbc
000003c0: 00b8 57bc 2f28 1b3e 3620 c1bd 94b3 403d
000003d0: 3c75 06be 8613 093e 815f fabd 4ccb 5abd
000003e0: 56b2 0dbe 9522 cebd 673b c9bd 0891 b2bc
000003f0: 559f 323e 1562 113c 9c65 be3d 5413 0a3e

fcn.module.3.bias f4 [10]
-0.0152580645 0.06727899 0.006197348 0.09932271 -0.05759555 -0.091223136 0.035048205 -0.11098537
0.016040709 -0.04805814
00000000: f6fc 79bc 91c9 893d 1f13 cb3b b469 cb3d
00000010: 50e9 6bbd 32d3 babd b58e 0f3d 4c4c e3bd
00000020: ce67 833c 9dd8 44bd

exp_avg f4 [16, 4, 16]
-5.3501204e-05 1.1324324e-05 0.00014762887 0.00015055826 0.0004949088 6.582223e-05 0.00023146608 0.00058685086
0.00010684997 4.9523926e-05 0.00013790242 -2.7994618e-05 0.00021794734 0.00010368386 0.00021836633 -0.00024647766
0.0004817787 -5.1939805e-05 5.237286e-05 5.3981126e-05 2.0429226e-05 0.00031840254 0.00011552984 -6.8701804e-05
-4.963014e-05 9.1921596e-05 -1.6435812e-05 0.000265774 3.5981255e-05 0.00024565207 5.365482e-05 0.0003504532
0.00025308714 0.00029540277 -0.00025880677 3.6340505e-06 -9.300015e-06 -1.7725231e-05 -3.7029628e-07 -0.0001220015
0.00030232663 1.4796832e-05 4.473465e-05 0.00020543333 0.0005672972 0.00018828397 0.00026041613 0.00032830416
-0.00018456452 0.00024201274 0.00055560505 0.00028862662 -9.237946e-06 0.00013030063 0.00015017438 0.000100652396
0.00013725375 0.00034055786 0.00033059862 5.3587308e-05 -0.0003244258 -4.0819825e-05 -3.563716e-05 6.4520485e-05
-0.00029394036 -3.800533e-05 0.00012543624 0.0004275985 0.0011364582 0.0007657708 0.00070944073 -0.00017141424
-0.00013719605 0.0003098509 -0.00023753336 8.04508e-05 0.0019306325 -0.000100261044 0.00022984385 0.0011398238
0.00067235675 0.0012564827 0.0013183135 -5.064897e-05 0.00062561815 4.9591777e-05 2.2554063e-05 -0.00025768383
0.0012180343 0.00046270824 0.00045237434 0.00050459063 -0.0002735969 -0.00012945618 0.00037314655 -0.0001179627
-6.4645865e-05 0.0007863687 0.0005785391 0.001602079 0.0004512196 -0.00027676942 0.001122565 0.00034197097
-0.00013634124 0.0008942323 0.0015170934 0.0003251364 4.523821e-05 0.0010569534 -1.0408686e-05 0.00029474747
0.0015398939 -0.00015118138 -0.00016862401 -0.00012536373 -0.00035963155 0.0013150717 -8.954134e-07 0.0019407921
0.0009091675 0.0001868734 0.00012173002 0.0009434869 0.00015139094 0.0010264283 0.0012610831 0.00053705607
-0.0034745566 -0.0026945865 -0.002946397 -0.0033243387 -0.0011358242 -0.005402868 -0.0033685064 -0.0010195298
-0.0053691487 -0.004921425 -0.0015872197 -0.00250527 -0.002131697 -0.004253932 -0.0025353185 -0.00089670374
-0.0016307947 -0.0019053749 -0.0033752483 -0.0010087217 -0.0058036176 -0.0018156392 -0.0011379255 -0.0036938945
-0.0016685725 -0.0039265887 -0.0018313378 -0.0042536813 -0.0015152905 -0.0033221391 -0.001715136 -0.0024908204
-0.0012993143 -0.0031906457 -0.0038882962 -0.0037026452 -0.001084806 -0.0036280837 -0.0068726563 -0.003643707
-0.0029506988 -0.0019971959 -0.0025100356 -0.004408001 -0.0034346692 -0.002482396 -0.0017037117 -0.004696435
-0.0060784235 -0.004692482 -0.0022731468 -0.0044473824 -0.0044588405 -0.0016364974 -0.0011040001 -0.004125957
-0.0024946686 -0.0016378782 -0.006554496 -0.001316136 -0.0054014316 -0.0024246217 -0.006528922 -0.004399129
0.00057859917 0.00069999933 0.00091182196 0.0016313128 0.0011255462 0.0021986724 0.0011098239 0.0011365161
0.0018257515 0.0006050391 0.0008621503 0.0026193713 0.0035344954 0.0019815362 0.0009486338 0.0005784838
0.0006291587 0.0009027336 0.0015014963 0.0012319476 0.0013873252 0.0034262335 0.0015884392 0.0011484375
0.0029150608 0.0032190878 0.002523067 0.0011969641 0.0006753502 0.0022793189 0.0011792455 0.0025843873
0.004136988 0.00348017 0.0030485468 0.0018032198 0.0032916523 0.0007067725 0.0012239129 0.0026252002
0.0009487728 0.0010596167 0.0020359922 0.00030641278 0.0018966356 0.0017924894 0.0033783657 0.001484706
0.0015723032 0.001834147 0.001455185 0.0022505696 0.0011125254 0.00058537134 0.0029948736 0.0020068963
0.001227465 0.002033306 0.0014958403 0.0027943016 0.0008105685 0.0008637052 0.0014108047 0.002269473
00000000: 7b66 60b8 9afd 3d37 d3cc 1a39 2ddf 1d39
00000010: c4bc 013a 0a0a 8a38 b4b5 7239 e5d6 193a
00000020: a414 e038 e9b7 4f38 e699 1039 fcd5 eab7
00000030: cb88 6439 d970 d938 44f9 6439 ac39 81b9
00000040: 3e97 fc39 f1d9 59b8 eeaa 5b38 cb69 6238
00000050: 6e5f ab37 44ef a639 9c48 f238 0014 90b8
00000060: f529 50b8 08c6 c038 a3df 89b7 9557 8b39
00000070: 94ea 1638 ddca 8039 6d0b 6138 08bd b739
00000080: c8b0 8439 4ae0 9a39 75b0 87b9 83e0 7336
00000090: 4307 1cb7 a5b0 94b7 22cd c6b4 0edb ffb8
000000a0: 9881 9e39 e93f 7837 77a1 3b38 9769 5739
000000b0: acb6 143a 186e 4539 7688 8839 3d20 ac39
000000c0: a987 41b9 cdc4 7d39 06a6 113a cf52 9739
000000d0: adfc 1ab7 4fa1 0839 2178 1d39 5815 d338
000000e0: c6eb 0f39 e78c b239 3254 ad39 efc2 6038
000000f0: b217 aab9 f435 2bb8 1c79 15b8 2c4f 8738
00000100: 021c 9ab9 ea67 1fb8 8987 0339 4d2f e039
00000110: 36f5 943a 02be 483a c3f9 393a a9bd 33b9
00000120: 49dc 0fb9 7c73 a239 6012 79b9 b2b7 a838
00000130: 470d fd3a 3d43 d2b8 3d02 7139 2466 953a
00000140: 1941 303a 90b0 a43a 43cb ac3a eb6f 54b8
00000150: 8600 243a c400 5038 7b32 bd37 bd19 87b9
00000160: 73a6 9f3a a697 f239 a82c ed39 8146 043a
00000170: 8e71 8fb9 a1be 07b9 e2a2 c339 be62 f7b8
00000180: 7c92 87b8 4f24 4e3a 1aa9 173a dafc d13a
00000190: ab91 ec39 5d1b 91b9 0823 933a 914a b339
000001a0: d3f6 0eb9 ea6a 6a3a 35d9 c63a 1277 aa39
000001b0: 28be 3d38 7989 8a3a f7a0 2eb7 5688 9a39
000001c0: 44d6 c93a 7186 1eb9 aad0 30b9 1274 03b9
000001d0: ee8c bcb9 7c5e ac3a 575c 70b5 2d62 fe3a
000001e0: 3355 6e3a 72f3 4339 4f49 ff38 5654 773a
000001f0: b2be 1e39 3889 863a ed4a a53a 39c9 0c3a
00000200: 63b5 63bb a997 30bb 5718 41bb 26dd 59bb
00000210: f0df 94ba 8b0a b1bb 29c2 5cbb bea1 85ba
00000220: afef afbb e843 a1bb 410a d0ba 752f 24bb
00000230: f1b3 0bbb 9164 8bbb 9627 26bb c510 6bba
00000240: 64c0 d5ba c6bd f9ba 4533 5dbb 1537 84ba
00000250: 462c bebb befa edba 7226 95ba 4415 72bb
00000260: 01b4 daba 9daa 80bb 8009 f0ba 7762 8bbb
00000270: b69c c6ba 3fb8 59bb 6ace e0ba 083d 23bb
00000280: c14d aaba 271a 51bb c9d2 7ebb 14a8 72bb
00000290: 0d30 8eba 25c5 6dbb 0534 e1bb 42cb 6ebb
000002a0: 8360 41bb 63e3 02bb 697f 24bb fe70 90bb
000002b0: 3018 61bb b2af 22bb 144f dfba 8de4 99bb
000002c0: 832d c7bb 64c3 99bb 13f9 14bb 59bb 91bb
000002d0: 771b 92bb be7f d6ba 19b4 90ba 0933 87bb
000002e0: 987d 23bb 13ae d6ba 19c7 d6bb 3282 acba
000002f0: 7efe b0bb 67e6 1ebb 91f0 d5bb 9226 90bb
00000300: 22ad 173a 2980 373a 5607 6f3a c6d1 d53a
00000310: 1087 933a 9a17 103b 8377 913a 27f7 943a
00000320: 0e4e ef3a 7d9b 1e3a ed01 623a c2a9 2b3b
00000330: fea2 673b a9dc 013b bdad 783a 64a5 173a
00000340: 20ee 243a 6da5 6c3a dbcd c43a 4d79 a13a
00000350: e9d6 b53a a98a 603b 2d33 d03a 2b87 963a
00000360: 9b0a 3f3b 55f7 523b 0a5a 253b 73e3 9c3a
00000370: fc09 313a a060 153b ea90 9a3a d35e 293b
00000380: 928f 873b 9013 643b 21ca 473b 045a ec3a
00000390: c3b8 573b b346 393a b46b a03a 8d0b 2c3b
000003a0: 11b7 783a d6e2 8a3a 486e 053b 07a6 a039
000003b0: 8898 f83a f7f1 ea3a 9267 5d3b 779a c23a
000003c0: be15 ce3a c367 f03a e8bb be3a 4b7e 133b
000003d0: 28d2 913a 9b73 193a a445 443b 2286 033b
000003e0: e4e2 a03a 3741 053b 1210 c43a 9a20 373b
000003f0: 557c 543a 466a 623a c0ea b83a 70bb 143b

exp_avg_sq f4 [16, 4, 16]
1.4704443e-08 3.6644792e-08 1.7815179e-08 9.1548245e-09 3.4921523e-08 1.7903284e-08 2.2973655e-08 9.589832e-08
9.180585e-09 2.0347347e-08 6.4455468e-09 3.5475917e-08 1.4867749e-08 8.780706e-09 4.2595737e-08 2.5673138e-08
7.239007e-08 1.2610765e-08 7.227114e-09 3.2411442e-08 4.999898e-08 4.880163e-08 4.9665633e-08 1.12196465e-08
5.1746394e-08 2.7803466e-08 7.438235e-09 1.1572717e-08 2.2650737e-09 5.8901847e-08 1.9453081e-09 2.801244e-08
1.9370724e-08 2.9303818e-08 3.7466663e-08 1.2257381e-08 1.7458042e-09 2.065199e-08 9.101627e-09 1.4183158e-08
4.3542695e-08 2.780383e-09 2.1047882e-08 8.9166186e-09 6.043237e-08 4.5006534e-08 1.9334916e-08 3.0849424e-08
4.6984026e-09 1.2359021e-08 3.6240476e-08 5.8623797e-08 1.909646e-08 5.0443845e-09 1.183786e-08 6.707203e-09
9.557162e-09 4.9234554e-08 7.1280226e-08 4.9193943e-08 4.7020734e-08 1.7131633e-09 4.0583792e-08 9.140631e-09
2.6670126e-09 5.131844e-09 8.794677e-09 2.2195557e-08 6.9792684e-08 5.039314e-08 3.286116e-08 2.1486357e-09
2.7041833e-09 1.1180853e-08 2.3822748e-09 1.3660902e-08 1.8111585e-07 7.3366415e-09 2.8970852e-08 1.0104111e-07
3.9750965e-08 8.085359e-08 1.4465633e-07 5.5290066e-09 4.510666e-08 2.6588896e-09 4.788997e-09 2.0485378e-09
9.20665e-08 3.108964e-08 3.1256103e-08 2.4517956e-08 3.1777119e-09 8.246143e-09 1.950413e-08 4.0019246e-09
1.4360962e-09 6.007709e-08 2.638956e-08 1.5748053e-07 4.717917e-08 5.850671e-09 9.969935e-08 2.8404646e-08
7.26956e-09 7.150247e-08 1.2156328e-07 1.9410097e-08 2.8681164e-09 7.728625e-08 3.872516e-09 1.9199547e-08
1.8118179e-07 5.5103726e-09 1.2245921e-09 3.9990726e-09 3.6072414e-09 1.3895543e-07 7.778638e-09 2.1080083e-07
6.935899e-08 9.338485e-09 1.762154e-08 6.433183e-08 3.4819248e-08 6.504129e-08 9.133932e-08 2.02826e-08
3.5853583e-07 2.0682253e-07 2.446758e-07 2.9611314e-07 3.8353388e-08 8.3507587e-07 3.2902793e-07 3.263167e-08
8.3044443e-07 7.410662e-07 7.9256914e-08 1.8763227e-07 1.2206304e-07 5.032398e-07 1.8003357e-07 2.175419e-08
7.311017e-08 9.7468515e-08 3.1962014e-07 3.017146e-08 9.818265e-07 1.0327176e-07 3.579251e-08 3.8374108e-07
7.4766504e-08 4.4368704e-07 8.700523e-08 5.0526756e-07 6.287778e-08 3.054251e-07 8.699614e-08 1.8340472e-07
4.5431968e-08 2.984393e-07 4.3609123e-07 4.0665955e-07 3.8549086e-08 3.5432222e-07 1.3180537e-06 3.643895e-07
2.5223858e-07 1.08639554e-07 1.925793e-07 5.452384e-07 3.6950675e-07 1.8925263e-07 8.942897e-08 6.459718e-07
1.0412568e-06 6.183154e-07 1.529626e-07 5.776181e-07 5.367663e-07 7.852263e-08 3.7227178e-08 5.076489e-07
1.8234816e-07 6.987385e-08 1.2294477e-06 4.8700578e-08 8.085241e-07 1.7737561e-07 1.1915448e-06 5.34087e-07
1.0768947e-08 1.4535408e-08 2.5016362e-08 8.5944585e-08 4.085953e-08 1.4642367e-07 3.5574e-08 3.69021e-08
1.1385639e-07 1.151945e-08 2.0948834e-08 2.0672752e-07 3.8147246e-07 1.1270458e-07 2.3772543e-08 8.949426e-09
1.0533391e-08 2.4768026e-08 7.967038e-08 4.2700613e-08 6.130949e-08 4.0090708e-07 8.008062e-08 4.4129532e-08
2.5487708e-07 3.5138288e-07 2.034217e-07 5.839458e-08 1.45533585e-08 2.0305072e-07 3.7470414e-08 2.478829e-07
5.669782e-07 4.0093965e-07 2.853111e-07 1.1376465e-07 3.4832374e-07 1.6107007e-08 6.5558595e-08 2.6014158e-07
2.8131312e-08 3.6836106e-08 1.3939362e-07 3.016403e-09 1.2264165e-07 1.0287589e-07 4.0734858e-07 7.601351e-08
8.0929986e-08 1.055588e-07 6.990275e-08 1.6343107e-07 3.655464e-08 9.917072e-09 2.7695205e-07 1.1592761e-07
5.4766506e-08 1.2205258e-07 7.17936e-08 2.441628e-07 2.1459842e-08 2.072345e-08 6.761277e-08 1.4337522e-07
00000000: d39e 7c32 6063 1d33 fe07 9932 5847 1d32
00000010: 9ffc 1533 bdc9 9932 9a57 c532 a9f0 cd33
00000020: a4b8 1d32 4ac8 ae32 a177 dd31 2f5e 1833
00000030: 0d6d 7f32 f4d9 1632 82f2 3633 d487 dc32
00000040: dd74 9b33 bba6 5832 5e52 f831 c234 0b33
00000050: 76be 5633 f699 5133 f14f 5533 87c0 4032
00000060: c33f 5e33 78d4 ee32 6893 ff31 59d1 4632
00000070: 99a7 1b31 44fb 7c33 39ae 0531 02a0 f032
00000080: ac64 a632 c7b7 fb32 08eb 2033 8894 5232
00000090: 06f1 ef30 3566 b132 615d 1c32 30aa 7332
000000a0: b303 3b33 0411 3f31 c8cc b432 b42f 1932
000000b0: 0cc7 8133 354d 4133 ee15 a632 4d7f 0433
000000c0: 966f a131 8d53 5432 d3a6 1b33 8cc9 7b33
000000d0: 8f09 a432 e052 ad31 755f 4b32 2e75 e631
000000e0: d830 2432 f775 5333 b812 9933 5049 5333
000000f0: d8f3 4933 9374 eb30 5a4e 2e33 ec08 1d32
00000100: 9546 3731 2d54 b031 6617 1732 8ca8 be32
00000110: efe0 9533 d86f 5833 3a23 0d33 33a7 1331
00000120: 7fd4 3931 e915 4032 6cb5 2331 48b1 6a32
00000130: bf78 4234 c815 fc31 94db f832 f0fb d833
00000140: a6ba 2a33 bba1 ad33 d452 1b34 a8f9 bd31
00000150: 4cbb 4133 aeb7 3631 778c a431 42c6 0c31
00000160: 18b6 c533 6c87 0533 733e 0633 8e9b d232
00000170: e65e 5a31 ecaa 0d32 098a a732 4d81 8931
00000180: 2560 c530 bb03 8133 42af e232 eb17 2934
00000190: 0ca2 4a33 0c07 c931 4c1a d633 7afe f332
000001a0: bac7 f931 e68c 9933 0f87 0234 41bb a632
000001b0: 7018 4531 91f8 a533 030f 8531 40ec a432
000001c0: df8a 4234 c055 bd31 814e a830 3768 8931
000001d0: 43e3 7731 c733 1534 d0a2 0532 7e58 6234
000001e0: 82f2 9433 176f 2032 2d5e 9732 cc26 8a33
000001f0: 2b8c 1533 d4ac 8b33 5226 c433 e939 ae32
00000200: ca7c c034 f212 5e34 fc5b 8334 7bf9 9e34
00000210: ffb9 2433 fa29 6035 41a5 b034 e726 0c33
00000220: b5eb 5e35 aeed 4635 f333 aa33 f777 4934
00000230: 6f10 0334 6016 0735 404f 4134 f8dd ba32
00000240: be00 9d33 e24f d133 4298 ab34 df95 0133
00000250: 4dc7 8335 40c6 dd33 48ba 1933 f904 ce34
00000260: 528f a033 e233 ee34 a2d7 ba33 b9a1 0735
00000270: 6d07 8733 4ef9 a334 a2d2 ba33 e8ed 4434
00000280: fa20 4333 2f39 a034 ec1f ea34 dd52 da34
00000290: 2b91 2533 ad39 be34 fbe7 b035 50a1 c334
000002a0: 686b 8734 3a4d e933 cbc7 4e34 7f5c 1235
000002b0: 9f60 c634 5e35 4b34 190c c033 d866 2d35
000002c0: 50c1 8b35 50fa 2535 0a3e 2434 9d0d 1b35
000002d0: 4d16 1035 46a0 a833 b7e3 1f33 5e45 0835
000002e0: 7bcb 4334 8e0d 9633 8003 a535 da2a 5133
000002f0: 5a09 5935 a374 3e34 2bed 9f35 2e5e 0f35
00000300: 5402 3932 67b7 7932 90e3 d632 8990 b833
00000310: 877d 2f33 a238 1d34 07ca 1833 4a7e 1e33
00000320: 3681 f433 14e7 4532 f9f2 b332 d4f8 5d34
00000330: 2dcd cc34 0008 f233 6034 cc32 febf 1932
00000340: 58f6 3432 77c1 d432 4117 ab33 d265 3733
00000350: 40a9 8333 403c d734 c9f8 ab33 ef88 3d33
00000360: 0ad6 8834 b2a5 bc34 226c 5a34 85cd 7a33
00000370: 5906 7a32 2806 5a34 28ef 2033 c414 8534
00000380: 7232 1835 ba40 d734 dc2c 9934 c74e f433
00000390: 4001 bb34 af5b 8a32 38c9 8c33 96a9 8b34
000003a0: 69a5 f132 ba35 1e33 3aac 1534 1f49 4f31
000003b0: 7baf 0334 9eec dc33 90b1 da34 de3c a333
000003c0: bbcb ad33 90af e233 711d 9633 977b 2f34
000003d0: 4000 1d33 be5f 2a32 00b0 9434 e1f3 f833
000003e0: 6938 6b33 8f0d 0334 f32c 9a33 7b15 8334
000003f0: b156 b832 5903 b232 8332 9133 aef2 1934

exp_avg f4 [16]
0.0004968118 0.0018536691 -0.012483087 0.006917047 0.00660432 0.006179918 0.0035171646 0.011471169
-0.0020956662 0.0016021612 0.0011585038 -0.0103400955 0.008561057 0.0047083395 0.0026448884 0.0028032658
00000000: 7a3c 023a d0f6 f23a dd85 4cbc 65a8 e23b
00000010: 0d69 d83b e980 ca3b 3b80 663b 92f1 3b3c
00000020: 7257 09bb 9cff d13a f0d8 973a 8169 29bc
00000030: ad43 0c3c 6a48 9a3b dd55 2d3b ffb6 373b

exp_avg_sq f4 [16]
3.0519624e-07 3.7263726e-07 4.3731743e-06 1.4840408e-06 1.3493207e-06 1.0512117e-06 7.9721997e-07 4.266554e-06
1.1293107e-07 2.3914654e-07 4.3467512e-08 3.2631856e-06 2.4820865e-06 6.0790813e-07 1.8155468e-07 2.4820784e-07
00000000: dad9 a334 e00e c834 48bd 9236 412f c735
00000010: 4e1a b535 5c17 8d35 8a00 5635 6b29 8f36
00000020: 8384 f233 0d64 8034 09b1 3a33 1afd 5a36
00000030: ec91 2636 212f 2335 5ff1 4234 6d41 8534

exp_avg f4 [32, 32]
0.00012943993 0.00017218073 0.00018669393 0.0002263182 0.00013188671 7.000488e-05 9.666117e-05 0.00013974698
0.00023568589 0.00014962001 0.00019955367 0.00016425688 0.00012524887 4.3683875e-05 0.00025485083 0.00010111447
2.2122438e-05 3.6378737e-05 2.0003394e-05 3.179665e-05 1.6943759e-05 3.053877e-06 9.889362e-06 1.5796555e-05
6.320665e-05 1.6025973e-05 1.7645283e-05 2.7457438e-05 1.7838833e-05 1.3513221e-06 5.9621714e-05 7.9283245e-06
0.021009589 0.025917627 0.02155594 0.02601937 0.018831462 0.011615127 0.016967114 0.018811569
0.03145656 0.021338409 0.022130802 0.021493798 0.019048216 0.010920539 0.030220406 0.01682913
0.0033238998 0.005235911 0.0026110166 0.004505587 0.0025101833 0.00061687577 0.0015386144 0.0024198748
0.0076590255 0.0025148145 0.0025112198 0.0031554515 0.0025983225 0.0003815059 0.00818702 0.0013832717
0.0 0.0 0.0 0.0 0.0 0.0 0.0 0.0
0.0 0.0 0.0 0.0 0.0 0.0 0.0 0.0
0.0 0.0 0.0 0.0 0.0 0.0 0.0 0.0
0.0 0.0 0.0 0.0 0.0 0.0 0.0 0.0
-0.003263859 -0.004027557 -0.0035575586 -0.0040363716 -0.0029203938 -0.0017728204 -0.002566326 -0.0028945731
-0.004939343 -0.0035736365 -0.0036433684 -0.0036200145 -0.003025382 -0.001657027 -0.00488764 -0.0025811323
-0.00050406763 -0.00079731643 -0.000423785 -0.00068396685 -0.0003644861 -8.3488434e-05 -0.00022857531 -0.0003524172
-0.0012070019 -0.0003969521 -0.0003714137 -0.00054932846 -0.00039537987 -5.1697305e-05 -0.0012997012 -0.00019546214
0.0 0.0 0.0 0.0 0.0 0.0 0.0 0.0
0.0 0.0 0.0 0.0 0.0 0.0 0.0 0.0
0.0 0.0 0.0 0.0 0.0 0.0 0.0 0.0
0.0 0.0 0.0 0.0 0.0 0.0 0.0 0.0
0.0 0.0 0.0 0.0 0.0 0.0 0.0 0.0
0.0 0.0 0.0 0.0 0.0 0.0 0.0 0.0
0.0 0.0 0.0 0.0 0.0 0.0 0.0 0.0
0.0 0.0 0.0 0.0 0.0 0.0 0.0 0.0
0.0011665344 0.0013882385 0.001097752 0.0016559944 0.0012104048 0.00058067474 0.0011206348 0.0011710479
0.0018179207 0.0012590403 0.0014611945 0.00084175647 0.001044541 0.0007260209 0.0016220991 0.0011595584
0.00020579886 0.0003218196 0.000110376845 0.00030584596 0.00015607798 3.854208e-05 0.0001034071 0.00016132998
0.0003971891 0.00015843348 0.00016969872 0.00012345525 0.00014003311 3.20646e-05 0.00045037916 9.981206e-05
0.0 0.0 0.0 0.0 0.0 0.0 0.0 0.0
0.0 0.0 0.0 0.0 0.0 0.0 0.0 0.0
0.0 0.0 0.0 0.0 0.0 0.0 0.0 0.0
0.0 0.0 0.0 0.0 0.0 0.0 0.0 0.0
00000000: 44ba 0739 6a8b 3439 45c3 4339 d44f 6d39
00000010: 124b 0a39 95cf 9238 92b6 ca38 0b89 1239
00000020: 7322 7739 51e3 1c39 483f 5139 5f3c 2c39
00000030: 3d55 0339 3439 3738 809d 8539 6b0d d438
00000040: 9393 b937 5f95 1838 f6cc a737 655d 0538
00000050: 7222 8e37 35f1 4c36 7dea 2537 d882 8437
00000060: d08d 8438 846f 8637 f504 9437 6654 e637
00000070: 9aa4 9537 135f b535 5412 7a38 e503 0537
00000080: 4d1c ac3c 3451 d43c 1596 b03c 9326 d53c
00000090: 7044 9a3c 604d 3e3c 9efe 8a3c b81a 9a3c
000000a0: 98d8 003d e3cd ae3c a84b b53c c313 b03c
000000b0: 010b 9c3c 0fec 323c c990 f73c 3edd 893c
000000c0: c9d5 593b 0192 ab3b 971d 2b3b 9aa3 933b
000000d0: e381 243b d5b5 213a 55ab c93a c396 1e3b
000000e0: 90f8 fa3b 96cf 243b 4793 243b b1cb 4e3b
000000f0: 9e48 2a3b db04 c839 da22 063c e54e b53a
00000100: 0000 0000 0000 0000 0000 0000 0000 0000
00000110: 0000 0000 0000 0000 0000 0000 0000 0000
00000120: 0000 0000 0000 0000 0000 0000 0000 0000
00000130: 0000 0000 0000 0000 0000 0000 0000 0000
00000140: 0000 0000 0000 0000 0000 0000 0000 0000
00000150: 0000 0000 0000 0000 0000 0000 0000 0000
00000160: 0000 0000 0000 0000 0000 0000 0000 0000
00000170: 0000 0000 0000 0000 0000 0000 0000 0000
00000180: 78e6 55bb 99f9 83bb ee25 69bb 8a43 84bb
00000190: 1464 3fbb fb5d e8ba ce2f 28bb e1b2 3dbb
000001a0: 36da a1bb ac33 6abb 94c5 6ebb c43d 6dbb
000001b0: 7d45 46bb 9a30 d9ba 7f28 a0bb 3728 29bb
000001c0: 6823 04ba 0003 51ba 762f deb9 3d4c 33ba
000001d0: 7f18 bfb9 8316 afb8 b8ad 6fb9 a3c4 b8b9
000001e0: 4334 9eba 021e d0b9 4eba c2b9 cf00 10ba
000001f0: fd4a cfb9 8fd5 58b8 bc5a aaba f8f4 4cb9
00000200: 0000 0000 0000 0000 0000 0000 0000 0000
00000210: 0000 0000 0000 0000 0000 0000 0000 0000
00000220: 0000 0000 0000 0000 0000 0000 0000 0000
00000230: 0000 0000 0000 0000 0000 0000 0000 0000
00000240: 0000 0000 0000 0000 0000 0000 0000 0000
00000250: 0000 0000 0000 0000 0000 0000 0000 0000
00000260: 0000 0000 0000 0000 0000 0000 0000 0000
00000270: 0000 0000 0000 0000 0000 0000 0000 0000
00000280: 0000 0000 0000 0000 0000 0000 0000 0000
00000290: 0000 0000 0000 0000 0000 0000 0000 0000
000002a0: 0000 0000 0000 0000 0000 0000 0000 0000
000002b0: 0000 0000 0000 0000 0000 0000 0000 0000
000002c0: 0000 0000 0000 0000 0000 0000 0000 0000
000002d0: 0000 0000 0000 0000 0000 0000 0000 0000
000002e0: 0000 0000 0000 0000 0000 0000 0000 0000
000002f0: 0000 0000 0000 0000 0000 0000 0000 0000
00000300: 66e6 983a 8ef5 b53a 72e2 8f3a f40d d93a
00000310: 72a6 9e3a 6c38 183a 44e2 923a d97d 993a
00000320: 4c47 ee3a 6206 a53a 8d85 bf3a 52a9 5c3a
00000330: fbe8 883a 7052 3e3a 9d9c d43a 53fc 973a
00000340: b6cb 5739 e5b9 a839 1e7a e738 f359 a039
00000350: dda8 2339 3ea8 2138 44dc d838 b02a 2939
00000360: d23d d039 2a21 2639 27f1 3139 c473 0139
00000370: dad5 1239 1a7d 0638 de20 ec39 3152 d138
00000380: 0000 0000 0000 0000 0000 0000 0000 0000
00000390: 0000 0000 0000 0000 0000 0000 0000 0000
000003a0: 0000 0000 0000 0000 0000 0000 0000 0000
000003b0: 0000 0000 0000 0000 0000 0000 0000 0000
000003c0: 0000 0000 0000 0000 0000 0000 0000 0000
000003d0: 0000 0000 0000 0000 0000 0000 0000 0000
000003e0: 0000 0000 0000 0000 0000 0000 0000 0000
000003f0: 0000 0000 0000 0000 0000 0000 0000 0000

exp_avg_sq f4 [32, 32]
1.0078821e-09 1.7850551e-09 2.1103612e-09 3.1555338e-09 1.0814472e-09 3.0327538e-10 5.5350535e-10 1.2299795e-09
3.356647e-09 1.3444745e-09 2.4068059e-09 1.6181837e-09 9.062015e-10 1.3358384e-10 4.015886e-09 6.2138567e-10
2.8836057e-11 8.107094e-11 2.391394e-11 6.238869e-11 1.7287187e-11 5.298756e-13 5.9305837e-12 1.5388364e-11
2.4217897e-10 1.5319288e-11 1.958006e-11 4.5918262e-11 1.8564263e-11 1.384861e-13 2.188052e-10 3.902412e-12
1.2686512e-05 1.9280475e-05 1.2456355e-05 1.9484823e-05 1.0527174e-05 4.0597574e-06 8.45431e-06 1.0340747e-05
2.7100206e-05 1.3101018e-05 1.4087173e-05 1.2435932e-05 1.0643999e-05 3.603479e-06 2.5914454e-05 8.27122e-06
3.4143278e-07 8.156101e-07 1.7298161e-07 6.273337e-07 2.0283483e-07 1.3548917e-08 7.782886e-08 1.9035062e-07
1.5906088e-06 1.976023e-07 1.9682554e-07 2.5492474e-07 2.169827e-07 5.1242486e-09 1.8862037e-06 6.331543e-08
0.0 0.0 0.0 0.0 0.0 0.0 0.0 0.0
0.0 0.0 0.0 0.0 0.0 0.0 0.0 0.0
0.0 0.0 0.0 0.0 0.0 0.0 0.0 0.0
0.0 0.0 0.0 0.0 0.0 0.0 0.0 0.0
3.4718406e-07 5.489991e-07 4.0005835e-07 5.6615124e-07 2.9931772e-07 1.1184461e-07 2.2824494e-07 2.8782077e-07
8.138586e-07 4.082402e-07 4.2486437e-07 4.115264e-07 3.0164856e-07 9.102371e-08 8.059439e-07 2.288088e-07
8.811336e-09 2.1841057e-08 5.615643e-09 1.6791736e-08 4.941456e-09 2.7282654e-10 1.9219906e-09 4.50554e-09
4.893821e-08 5.405545e-09 4.9645177e-09 9.346732e-09 5.4298916e-09 9.73929e-11 5.7001177e-08 1.484214e-09
0.0 0.0 0.0 0.0 0.0 0.0 0.0 0.0
0.0 0.0 0.0 0.0 0.0 0.0 0.0 0.0
0.0 0.0 0.0 0.0 0.0 0.0 0.0 0.0
0.0 0.0 0.0 0.0 0.0 0.0 0.0 0.0
0.0 0.0 0.0 0.0 0.0 0.0 0.0 0.0
0.0 0.0 0.0 0.0 0.0 0.0 0.0 0.0
0.0 0.0 0.0 0.0 0.0 0.0 0.0 0.0
0.0 0.0 0.0 0.0 0.0 0.0 0.0 0.0
1.4672872e-07 2.3799554e-07 1.2129968e-07 2.5202982e-07 1.4265551e-07 4.7032618e-08 1.1426921e-07 1.3595636e-07
3.1452905e-07 1.6711726e-07 1.7670517e-07 1.2415381e-07 1.3550982e-07 4.978878e-08 3.0659726e-07 1.1034619e-07
4.6429562e-09 1.0564511e-08 1.4264857e-09 9.499548e-09 2.8471323e-09 2.0291237e-10 1.1251102e-09 2.887422e-09
1.7437454e-08 2.7351539e-09 2.73435e-09 2.0144602e-09 2.7598517e-09 9.589088e-11 2.3092863e-08 1.0453473e-09
0.0 0.0 0.0 0.0 0.0 0.0 0.0 0.0
0.0 0.0 0.0 0.0 0.0 0.0 0.0 0.0
0.0 0.0 0.0 0.0 0.0 0.0 0.0 0.0
0.0 0.0 0.0 0.0 0.0 0.0 0.0 0.0
00000000: b385 8a30 0b56 f530 de05 1131 bdd8 5831
00000010: 0aa2 9430 37ba a62f 7a25 1830 0e0c a930
00000020: c2aa 6631 7ec8 b830 fa64 2531 c766 de30
00000030: 4318 7930 82e0 122f 1bfc 8931 21ce 2a30
00000040: 07a5 fd2d e246 b22e 6859 d22d b631 892e
00000050: 490f 982d 9025 152b f3a9 d02c 845b 872d
00000060: a923 852f f8bf 862d 603a ac2d 5ef3 492e
00000070: 014b a32d e7eb 1b2a 3094 702f cd4d 892c
00000080: 27d8 5437 81bc a137 a3fb 5037 5773 a337
00000090: de9d 3037 0d39 8836 fcd6 0d37 2c7d 2d37
000000a0: 4055 e337 72cc 5b37 f357 6c37 eca3 5037
000000b0: a193 3237 4cd3 7136 de62 d937 9fc4 0a37
000000c0: 2a4e b734 4df0 5a35 d3bc 3934 0b66 2835
000000d0: d0ca 5934 c4c4 6832 de22 a733 2e63 4c34
000000e0: e77c d535 822c 5434 fe56 5334 97dc 8834
000000f0: c0fb 6834 5e11 b031 7729 fd35 07f8 8733
00000100: 0000 0000 0000 0000 0000 0000 0000 0000
00000110: 0000 0000 0000 0000 0000 0000 0000 0000
00000120: 0000 0000 0000 0000 0000 0000 0000 0000
00000130: 0000 0000 0000 0000 0000 0000 0000 0000
00000140: 0000 0000 0000 0000 0000 0000 0000 0000
00000150: 0000 0000 0000 0000 0000 0000 0000 0000
00000160: 0000 0000 0000 0000 0000 0000 0000 0000
00000170: 0000 0000 0000 0000 0000 0000 0000 0000
00000180: 9d64 ba34 ee5e 1335 9ac7 d634 9ef9 1735
00000190: eab1 a034 392f f033 7e13 7534 c985 9a34
000001a0: f077 5a35 1b2c db34 ea18 e434 c2ef dc34
000001b0: 43f2 a134 d078 c333 0b58 5835 7cae 7534
000001c0: aa60 1732 fe9c bb32 b8f3 c031 6b3d 9032
000001d0: 82c9 a931 ecfc 952f 0414 0431 26cf 9a31
000001e0: 2230 5233 adbb b931 5c94 aa31 5d93 2032
000001f0: d591 ba31 542b d62e 75d1 7433 23fd cb30
00000200: 0000 0000 0000 0000 0000 0000 0000 0000
00000210: 0000 0000 0000 0000 0000 0000 0000 0000
00000220: 0000 0000 0000 0000 0000 0000 0000 0000
00000230: 0000 0000 0000 0000 0000 0000 0000 0000
00000240: 0000 0000 0000 0000 0000 0000 0000 0000
00000250: 0000 0000 0000 0000 0000 0000 0000 0000
00000260: 0000 0000 0000 0000 0000 0000 0000 0000
00000270: 0000 0000 0000 0000 0000 0000 0000 0000
00000280: 0000 0000 0000 0000 0000 0000 0000 0000
00000290: 0000 0000 0000 0000 0000 0000 0000 0000
000002a0: 0000 0000 0000 0000 0000 0000 0000 0000
000002b0: 0000 0000 0000 0000 0000 0000 0000 0000
000002c0: 0000 0000 0000 0000 0000 0000 0000 0000
000002d0: 0000 0000 0000 0000 0000 0000 0000 0000
000002e0: 0000 0000 0000 0000 0000 0000 0000 0000
000002f0: 0000 0000 0000 0000 0000 0000 0000 0000
00000300: 7c8c 1d34 b78b 7f34 9a3e 0234 b74e 8734
00000310: d92c 1934 e900 4a33 2a64 f533 66fb 1134
00000320: 8bdc a834 d870 3334 59bc 3d34 244f 0534
00000330: a880 1134 58d7 5533 689a a434 76f7 ec33
00000340: e087 9f31 367f 3532 010e c430 7433 2332
00000350: 48a7 4331 c11a 5f2f 4ca2 9a30 116c 4631
00000360: 5ec9 9532 56f5 3b31 32e7 3b31 c26e 0a31
00000370: d3a7 3d31 c4dd d22e be5d c632 e3ab 8f30
00000380: 0000 0000 0000 0000 0000 0000 0000 0000
00000390: 0000 0000 0000 0000 0000 0000 0000 0000
000003a0: 0000 0000 0000 0000 0000 0000 0000 0000
000003b0: 0000 0000 0000 0000 0000 0000 0000 0000
000003c0: 0000 0000 0000 0000 0000 0000 0000 0000
000003d0: 0000 0000 0000 0000 0000 0000 0000 0000
000003e0: 0000 0000 0000 0000 0000 0000 0000 0000
000003f0: 0000 0000 0000 0000 0000 0000 0000 0000

exp_avg f4 [32]
0.000200339 0.027098294 0.0 -0.0043642847 0.0 0.0 0.0014690112 0.0
-0.020774562 0.00021892655 0.02084137 -0.0027099692 0.0 0.0 0.021454247 0.006166069
0.0 0.0 0.00526975 4.9362343e-06 -0.0007803219 0.004411679 0.012699003 0.0
0.0 0.0 0.0 0.0 0.0 0.003884146 -0.014475169 0.006233621
00000000: 1712 5239 3efd dd3c 0000 0000 4602 8fbb
00000010: 0000 0000 0000 0000 d68b c03a 0000 0000
00000020: 6a2f aabc a68f 6539 85bb aa3c bd99 31bb
00000030: 0000 0000 0000 0000 d1c0 af3c bc0c ca3b
00000040: 0000 0000 0000 0000 dead ac3b eea1 a536
00000050: 848e 4cba d98f 903b 7b0f 503c 0000 0000
00000060: 0000 0000 0000 0000 0000 0000 0000 0000
00000070: 0000 0000 288d 7e3b 4229 6dbc 6743 cc3b

exp_avg_sq f4 [32]
2.4259659e-09 2.0452186e-05 0.0 6.2547537e-07 0.0 0.0 2.3303112e-07 0.0
1.1384094e-05 8.213788e-09 1.3689352e-05 3.2644775e-07 0.0 0.0 1.2930429e-05 1.8247994e-06
0.0 0.0 1.3154207e-06 1.0448349e-10 5.09681e-08 8.354744e-07 4.4930207e-06 0.0
0.0 0.0 0.0 0.0 0.0 6.83741e-07 5.2034297e-06 1.3158398e-06
00000000: 0bb6 2631 bc90 ab37 0000 0000 57e6 2735
00000010: 0000 0000 0000 0000 1b37 7a34 0000 0000
00000020: 50fe 3e37 9f1c 0d32 52ab 6537 a342 af34
00000030: 0000 0000 0000 0000 c5ef 5837 a1eb f435
00000040: 0000 0000 0000 0000 838d b035 fac2 e52e
00000050: 05e8 5a33 5d45 6035 c1c2 9636 0000 0000
00000060: 0000 0000 0000 0000 0000 0000 0000 0000
00000070: 0000 0000 538a 3735 1f99 ae36 e99b b035
