tests/_logs/test_fit/v0/checkpoints/epoch=0-step=6-v1.ckpt (torch, 36777 bytes, 18 tensors)

convnet.module.0.weight f4 [16, 4, 16]
000000 46 56 1e 3d da 88 bb bd 06 0f 3d bc 40 70 83 bd
       0.038656496 -0.09156962 -0.011539226 -0.06417894
000010 ac c5 5a 3d 5a 4d 5f 3d 6a bc 99 bd a4 16 ac 3d
       0.05341117 0.054517128 -0.0750664 0.08402756
000020 51 54 a5 bd 7e 3e 1c 3d 95 a9 9f bd 4e 59 de ba
       -0.08072723 0.038145535 -0.07796017 -0.0016963871
000030 2e 30 47 3d 0a 47 dc 3c cc 84 b9 3d 90 cc 36 3d
       0.048629932 0.026889343 0.09058532 0.04462868
000040 ef 6a f1 3d 93 03 e9 bd 3b 64 e4 bc a0 cb fa 3b
       0.11787974 -0.11377635 -0.027879825 0.0076536685
000050 28 a7 be 3d 63 2b 01 3e 10 42 5f 3c bc 57 ba bd
       0.09309226 0.12614207 0.01362659 -0.09098765
000060 97 03 3e 3d 48 10 45 3d e4 2d 99 bb 8b 7f 43 bd
       0.046390142 0.04811123 -0.00467466 -0.047729056
000070 05 61 fb bd c2 89 c8 3d c6 52 f5 bd 85 ab a8 3d
       -0.122743644 0.097919 -0.119786784 0.0823584
000080 6b e6 4c 3d de 88 91 bd 36 df 8d 3d 9c ae 8a bd
       0.05002443 -0.071061835 0.0692734 -0.06771585
000090 bb 87 e3 bd 0c d2 b2 3d 9a 1f 88 bd 87 b4 0a bd
       -0.11109873 0.087314695 -0.066466525 -0.03386357
0000a0 6c 2c 00 3d 88 7b c7 bc 6a 69 0f 3b 50 a0 f1 bd
       0.031292364 -0.024350896 0.00218829 -0.11798155
0000b0 6c 1a e4 3d 4f 2c c0 3d 70 b6 73 bc 5a 0a b2 3d
       0.11137852 0.09383451 -0.014875039 0.08693381
0000c0 11 6a aa bc d1 38 ea bd 05 94 67 3d 07 82 fe 3c
       -0.02080253 -0.11436618 0.056537647 0.031067861
0000d0 75 4a 80 3d 96 13 84 3d 5e 96 d6 bd 11 4e dc bd
       0.062642016 0.06449048 -0.10477899 -0.107570775
0000e0 fc e9 67 bd f7 56 bb 3d 86 aa f0 3d 47 9e 22 3d
       -0.05661963 0.091474466 0.11751275 0.039701726
0000f0 87 42 92 3d 59 0e b2 bd 5f a9 bd 3d 7b d0 34 3c
       0.07141595 -0.08694143 0.092608206 0.011036034
000100 22 14 96 bd f7 1f 29 bc eb 15 c8 3a 2c ae 1b 3b
       -0.07328059 -0.010322562 0.0015265321 0.0023754938
000110 e5 f5 c7 3d 79 07 80 bc 9b 17 0f 3d d2 02 4d bd
       0.097636975 -0.015628563 0.03493462 -0.050051518
000120 8d ba 29 bd 44 fb c2 bd 23 57 c6 bd 8d 5f f6 bb
       -0.041437674 -0.09520581 -0.09684589 -0.0075187148
000130 0e c4 fe 3d 47 b9 28 3d 6a 3f 5e bd 3f 6b 97 3d
       0.12439738 0.04119232 -0.054259695 0.073935024
000140 b8 89 45 3d 30 11 da 3d db 69 dc 3d b8 88 b4 bd
       0.048227042 0.106478095 0.10762378 -0.088151395
000150 e7 73 d6 3d 8f c4 c9 bd 19 77 4d bb 42 7b 62 bd
       0.10471325 -0.09851944 -0.0031351505 -0.05529333
000160 bc 71 d1 3d bb aa 1a bd ac 08 7b 3d 1a e7 0e 3b
       0.10226771 -0.037760478 0.061287567 0.0021805228
000170 d1 20 85 bd 6b 2e 94 3c 02 20 65 bb a3 3b 09 bd
       -0.065004 0.01808854 -0.0034961705 -0.03350414
000180 34 1f 5f bd f4 99 c2 3d b5 4e 79 3d 0e 84 63 3d
       -0.054473117 0.095020205 0.060866076 0.05554586
000190 dc 67 c0 3d b8 c8 bc bd 99 aa be 3d 21 db 4d 3d
       0.093948096 -0.092179716 0.09309883 0.050257806
0001a0 6c 61 1a bd 28 6c 10 bc 73 0b dc 3d 63 56 a8 bc
       -0.037690565 -0.008814849 0.10744371 -0.020549005
0001b0 51 e4 30 bd b2 5d f0 3d fe 38 68 bd 20 40 07 3c
       -0.04318649 0.11736621 -0.056694977 0.008255035
0001c0 2a 29 e2 3d bc dc 4d 3c 3c 1f 6b bd be 6f b4 bd
       0.11043008 0.012564834 -0.057402834 -0.08810376
0001d0 9c f1 a4 bd 86 0d 43 3d 74 c6 ce 3b 8e e4 f7 3d
       -0.08053896 0.04762032 0.0063102785 0.1210414
0001e0 29 11 d4 3d 00 c9 9b bd a8 ad 24 3b b0 e6 4c 3d
       0.103548355 -0.07606697 0.0025127921 0.05002469
0001f0 07 70 71 3d c6 85 00 3e ad de 2b 3d ef 12 f1 3c
       0.05894473 0.1255103 0.041960407 0.029427974
000200 40 43 8c 3d 13 42 52 bd 75 2f 89 3d 6f da a7 3d
       0.068487644 -0.051332545 0.06698505 0.0819596
000210 69 10 d1 bd 90 f8 14 3d f3 68 29 3d cc 2a a5 bd
       -0.10208208 0.03636986 0.041359853 -0.080648035
000220 94 7c 75 3d d9 6a 3b 3d 1e 77 9d bd 37 ba cf 3c
       0.05993326 0.045756195 -0.076887354 0.025357349
000230 9a 26 50 bd 83 1e 0a 3e e8 46 ed bc f1 02 a7 bd
       -0.050818063 0.13488202 -0.028964475 -0.08154858
000240 8d fb 68 bd 1d a8 85 bd 1d 56 9d 3d a9 a5 45 bd
       -0.056880523 -0.06526206 0.076824404 -0.04825369
000250 f9 7a c0 3d 57 27 cc bd a2 9c cf bd 0a f7 84 3d
       0.09398455 -0.09968441 -0.10137297 0.064924315
000260 ee 1a d4 bd 7a 7a 09 bc 00 d7 bd bd 9f 35 b3 3d
       -0.10356699 -0.008391017 -0.092695236 0.08750462
000270 14 55 de bd d6 e5 80 3d db f5 bb bd 6b e3 15 3d
       -0.10856071 0.06293838 -0.091777526 0.036593836
000280 4d 61 7f bd 5c 74 83 bc 23 6b e1 3d e7 82 c7 3d
       -0.062348653 -0.016046695 0.11006763 0.097417645
000290 26 99 df bd 90 89 93 bc 9b ee 03 3e 0b 4d 88 3d
       -0.109178826 -0.01800993 0.1288399 0.0665532
0002a0 da 60 03 3c c5 09 bf bd 26 ff 05 bd 32 d3 d4 3d
       0.008018697 -0.09328035 -0.03271403 0.10391845
0002b0 0f 92 1f 3c d7 c6 30 3d d7 10 b7 bd 38 c9 e3 3d
       0.009739413 0.04315838 -0.08938759 0.11122364
0002c0 72 1d df 3d c6 e8 07 3d 11 2d 46 3d 60 b9 09 3e
       0.10894288 0.033180974 0.048382822 0.13449621
0002d0 05 d6 94 3d 19 2b d4 bd 23 26 a3 bd f5 34 c0 3d
       0.072673835 -0.10359783 -0.079662584 0.09385101
0002e0 2e f1 05 bd 9a 43 e3 bd 85 bf db 3d ff 21 ec bc
       -0.03270071 -0.11096878 0.10729889 -0.028824804
0002f0 d2 62 80 3d cb 95 79 3d f6 e6 a7 3d eb 88 ea 3d
       0.062688485 0.06093387 0.08198349 0.11451896
000300 76 65 e1 bd 0c d2 b7 bd 88 8d 03 be d5 95 60 3d
       -0.1100568 -0.0897561 -0.12846959 0.05483039
000310 81 eb c3 bd 10 37 09 3d e5 d5 a9 bd 42 60 c5 bc
       -0.09566403 0.033499777 -0.0829275 -0.02409375
000320 bd c7 f7 bb 01 4a 02 be 31 62 c3 3b 5e bd a5 3d
       -0.0075616525 -0.12723543 0.005962633 0.080927595
000330 29 07 ae 3d d9 8f 88 3d cf cc 06 be 47 69 07 be
       0.084974594 0.06668062 -0.13164066 -0.13223754
000340 d2 cd fd bd 89 cc 48 bd df 3c 4b bd 42 bf e4 bb
       -0.12392773 -0.049023185 -0.049618598 -0.0069808075
000350 d5 85 af bd cb 16 d8 3d 35 21 f9 bc 61 64 67 bb
       -0.08570448 0.105512224 -0.030411342 -0.0035307633
000360 0e 6b 5e 3d ad 58 e6 3d 36 45 e3 3d 37 39 2b 3c
       0.054301314 0.11247382 0.11097185 0.010450653
000370 4c b2 e3 bd 94 f2 da 3d 51 49 b4 bd 7e 17 bd 3d
       -0.11117992 0.10690799 -0.088030465 0.092329964
000380 d9 79 c6 3d 17 bd e4 3d 22 67 59 3d 27 b9 c2 3d
       0.09691209 0.111688785 0.05307687 0.09507971
000390 0b 76 46 3c 76 04 df bd e5 c5 8f bd dc 5b d3 3d
       0.012113105 -0.10889523 -0.07020167 0.10320255
0003a0 2b 0a ad bd 07 d7 43 bd 3c 8c 9a 3d 92 04 09 be
       -0.08449205 -0.047812488 0.07546279 -0.1338065
0003b0 09 7d b5 3c 93 19 ab 3d d8 3b 6b 3d d3 17 9d bc
       0.022154348 0.08354487 0.05743012 -0.0191764
0003c0 5f c7 7c bb 25 69 98 3c 71 5c ec bc 34 46 b3 3d
       -0.0038570983 0.018604824 -0.028852673 0.087536246
0003d0 17 f1 c5 bd 70 09 c8 bd b8 7e 20 bc 19 a7 70 3d
       -0.09665125 -0.09767425 -0.009795837 0.058753107
0003e0 55 8a 92 bd 3f 22 5c 3d 0b 4e 57 3d 07 67 d4 3d
       -0.07155291 0.053743597 0.052564662 0.103712134
0003f0 d1 53 cc bd 6f 9b 75 bc da 8e b0 bd 5c 88 b4 3c
       -0.09976924 -0.014990672 -0.08620997 0.022037677

convnet.module.0.bias f4 [16]
000000 f7 c5 48 3d 49 c2 a4 3c f4 d0 27 3c 59 5c be 3d
       0.04901692 0.020112174 0.010242689 0.09294958
000010 91 26 a4 3d f5 37 2a 3d ca a1 68 3d e6 63 ab 3d
       0.080151685 0.04155727 0.05679492 0.083686635
000020 b7 cf 03 3e d5 15 e9 bd 30 f1 ec bd a4 78 f2 3b
       0.12872206 -0.11381117 -0.1156944 0.0073996354
000030 e6 f0 cd 3d e7 4e e8 bd 31 fe aa 3c 59 c6 0c 3d
       0.10055713 -0.113431744 0.020873161 0.034368847

fcn.module.0.weight f4 [32, 32]
000000 96 f6 85 bd 0c d3 a0 bc ef cf 04 3e bf b9 25 3d
       -0.06541173 -0.019631885 0.12969945 0.040460344
000010 df b5 ae bd bb 95 09 be 06 16 87 bd 4b e8 24 bb
       -0.08530783 -0.13436024 -0.065959975 -0.0025162871
000020 4d 4a 62 bc d2 af e5 bc 54 cd dd 3d 48 fa cb ba
       -0.01381166 -0.02803794 0.10830179 -0.001556226
000030 e6 4d af bc da 78 3b be 41 f5 96 3d 2c c6 cc bd
       -0.02139945 -0.1830782 0.07370997 -0.09998736
000040 aa 96 85 bc 1b e9 91 bd f9 9e fa 3d 3a 84 0a bb
       -0.016307194 -0.071245395 0.12237353 -0.0021135942
000050 fb 66 fb bc 8b 61 01 3e 9d 5f 41 bc 46 79 e5 3d
       -0.030688753 0.12634866 -0.011802581 0.11204772
000060 c5 56 5a 3d fe 79 81 bc c4 2b 3a 3d ad 4a 65 bc
       0.053305406 -0.01580524 0.045451894 -0.013994855
000070 05 bc 0b be c1 a7 26 bd 22 3b 02 be de a6 21 be
       -0.13645943 -0.040687326 -0.1271787 -0.15786311
000080 ae 9e 22 3e 80 93 02 3e 13 d3 cc bd 0e e6 82 bb
       0.15880844 0.1275158 -0.10001197 -0.00399471
000090 4a 42 82 3d 01 9e e6 3d 96 a3 a9 3d 34 08 7a 3d
       0.063603 0.112606056 0.08283155 0.06104298
0000a0 3e f1 96 bc 16 11 34 bc c7 a7 61 bd bf 92 1e be
       -0.01842558 -0.010990402 -0.055091646 -0.15485667
0000b0 00 0a 13 3e 53 86 81 3d 50 12 0d 3e 58 d3 6c bd
       0.14359283 0.063244484 0.13776517 -0.05781874
0000c0 8f 5e d2 3a 0c 66 b3 bd 2e d9 f0 bd 7b 0b 84 3d
       0.0016049909 -0.08759698 -0.11760174 0.06447502
0000d0 4c 14 48 3d 16 54 6a 3d fe 61 06 3e c5 93 0d 3d
       0.04884748 0.057209097 0.13123319 0.034564752
0000e0 46 a6 3f 3c 00 9f 87 3d 56 9f 65 bd cb 96 40 bd
       0.0116973575 0.06622124 -0.056060158 -0.047018807
0000f0 4d 71 2f be e9 0e 1a 3e 98 45 1c bd f1 4c 8e bd
       -0.17133065 0.1504475 -0.038152307 -0.06948269
000100 74 65 16 bd 48 76 2a bd 7b 43 21 3e 20 a2 d0 bc
       -0.036717847 -0.041616708 0.15748398 -0.025467932
000110 66 16 ca 3d 00 b0 00 bd 08 4a ba 3c 60 91 03 be
       0.098675534 -0.031417847 0.022740379 -0.12848425
000120 aa 14 ae 3d a2 ca cc 3d ac 5f 99 bd 59 36 28 be
       0.08500035 0.09999587 -0.07488951 -0.16426982
000130 a3 5b 17 3e b2 c9 16 be 0e c6 30 be 78 79 29 bd
       0.1478105 -0.14725378 -0.17263052 -0.041375607
000140 43 31 2c be 20 68 68 bc 1b 32 28 be 10 b5 b9 bd
       -0.16815667 -0.014184982 -0.16425364 -0.09067738
000150 41 dc 10 3e b6 db e3 3d 3a 63 ce bd 81 6e 18 3e
       0.1414652 0.11125891 -0.1007752 0.14885904
000160 87 9c 31 3e 2a 64 ec bd fd c7 0d be 51 33 0f be
       0.17344867 -0.11542542 -0.1384582 -0.1398442
000170 b4 14 96 bd 08 dd c4 3c 35 26 0a 3e 98 2f dd bc
       -0.073281676 0.024031177 0.13491137 -0.027000234
000180 f9 13 39 3e f9 f4 17 be dd 9b e4 bd 1f 4e 5f 3c
       0.18074025 -0.14839543 -0.11162541 0.013629465
000190 8d f2 0c bd 40 d7 6f bd ed f2 e9 3d 85 f4 d5 3d
       -0.034411002 -0.058554888 0.114232875 0.10447029
0001a0 a5 53 0b 3e ce f6 ea 3c ae 33 01 be 0a 81 a0 3d
       0.13606127 0.028682139 -0.1261737 0.07837112
0001b0 da a6 3a 3e 21 4f 3d bd 64 fa e0 bd 81 e4 bb bd
       0.18227711 -0.04621804 -0.10985258 -0.09174443
0001c0 53 5c 54 3d ff 84 06 be 0a 40 16 be d8 93 00 3e
       0.05184586 -0.13136671 -0.14672866 0.12556398
0001d0 08 76 22 3e dd 2c 07 be 4d fe c3 3d 6a d2 d6 3d
       0.15865338 -0.13200708 0.095699884 0.10489352
0001e0 d6 b3 3f 3d af 34 bd 3d 82 e1 27 3e 96 ad d2 bc
       0.046802364 0.09238564 0.16394618 -0.025717538
0001f0 67 b5 51 3c 35 cb 93 bc 9d d7 24 3d 1f 26 dd bd
       0.012799597 -0.018041233 0.040244687 -0.10798287
000200 30 aa 18 be 51 e3 05 3e 86 49 c0 bd 5d c1 0b 3e
       -0.14908671 0.13074996 -0.093890235 0.13647981
000210 84 42 57 3d ac e1 0c bd 4a 33 bc 3d 08 59 bc bc
       0.05255367 -0.034394905 0.0918947 -0.022991672
000220 18 6f cc bc 80 ba 5a bd fc 47 d8 bd ab 7c 0d 3e
       -0.024955317 -0.053400517 -0.10560605 0.13817088
000230 60 01 e2 bc d6 b8 ae 3d b1 de d5 bd 6c f1 13 be
       -0.027588546 0.085313484 -0.10442866 -0.14447564
000240 28 6a f8 bd d8 50 e2 3c 98 f1 73 bd 6a 26 07 be
       -0.12129623 0.02762644 -0.059556574 -0.13198248
000250 3a 78 b3 3d 1a 91 ad 3d 50 5a 77 3c 8f 52 21 3e
       0.08763166 0.084749416 0.015097216 0.1575415
000260 f7 d1 c2 bd b6 29 07 be db 30 08 3e c0 09 39 bb
       -0.09512704 -0.13199505 0.13299887 -0.0028234571
000270 a2 16 62 bd fa 68 86 bd 82 cb 96 3d 06 2f 80 bd
       -0.055197366 -0.065629914 0.07363035 -0.06258969
000280 d9 d0 28 be 5a 93 a6 3d de 64 85 3d b4 42 1a bd
       -0.16485919 0.08133574 0.065133795 -0.03766127
000290 e1 8f 2a 3e b6 c1 7b bd a4 da 11 be bc f9 3f 3d
       0.16656448 -0.061464034 -0.14243561 0.046869025
0002a0 fe f0 e3 bd 4e b4 fc bd 1e c8 cc 3d 20 59 32 bd
       -0.1112995 -0.12339078 0.09999107 -0.043542027
0002b0 80 7c 21 be 4d 29 b5 bd 38 e5 84 bc f0 dc 91 bd
       -0.15770149 -0.08845768 -0.016222581 -0.071222186
0002c0 27 de 01 3e 68 a7 5e 3d 0a ee 14 be a0 ee 7d 3d
       0.126824 0.05435887 -0.1454393 0.06199515
0002d0 70 e7 80 bc 5f ed 14 3e f2 e5 a1 3d d0 a8 08 bd
       -0.015735358 0.14543675 0.07905187 -0.033364117
0002e0 00 7c 69 3b ed b2 02 3e 0e fd bc 3d 60 68 5f bc
       0.0035626888 0.12763567 0.09227954 -0.013635725
0002f0 8f 2a 31 be 7c 9b 0a be 24 f3 74 3d 5c a3 17 bd
       -0.17301391 -0.13535875 0.05980219 -0.037021026
000300 b3 80 e2 bd f7 e5 84 3c 13 14 0c be ac 5c a6 3d
       -0.11059704 0.016222937 -0.13679533 0.081231445
000310 71 15 eb 3c 5d 81 88 3d aa be 2b 3e 4b 5e 29 3e
       0.028696747 0.06665299 0.16771951 0.16539876
000320 0a 46 1f 3e 7f 96 20 bd a2 1c 1d 3e 35 09 15 be
       0.15554062 -0.039206024 0.15342954 -0.14554293
000330 f1 ae 48 3c dc 1d e9 3d 74 b2 d8 3c 44 a4 28 3e
       0.0122487405 0.11382648 0.02645228 0.16468912
000340 5a c2 31 be 1e c8 00 3e 4e ac 83 bd 41 5a c5 3d
       -0.17359295 0.12576339 -0.06429349 0.09636355
000350 12 09 00 be 4d 65 0d 3b 2b 8c f2 3d 55 71 89 bc
       -0.1250346 0.0021575273 0.11843141 -0.016777674
000360 13 9a 02 bd 00 40 22 bd 46 d4 25 3d 22 25 b6 bd
       -0.031885218 -0.039611816 0.040485643 -0.08893801
000370 c6 ca 67 bd 59 67 93 bd 9a 95 c5 3d 30 30 2b 3e
       -0.056589864 -0.071974464 0.09647675 0.16717601
000380 50 b3 1e be 5e f6 92 bd c1 99 29 be 74 91 8f bd
       -0.1549809 -0.07175897 -0.16562559 -0.07010165
000390 d4 d7 b6 bd 5e c0 8d bd d2 87 a6 bd 40 20 68 3b
       -0.08927885 -0.06921457 -0.081313744 0.0035419613
0003a0 25 7b 14 be 08 ec 12 bd fa 40 97 3d de a1 ec 3d
       -0.14500101 -0.03586963 0.0738544 0.11554311
0003b0 e6 6e c0 3d a9 3e 09 be b2 1a ed 3d 39 fb 0e be
       0.09396152 -0.13402809 0.11577357 -0.13963021
0003c0 21 63 2f 3e 02 55 0d be 30 64 d5 3c 50 da 92 3c
       0.17127658 -0.13801959 0.02604875 0.017926365
0003d0 69 cd 01 3e d8 12 dc bd 08 5d bb bc ad 3a 06 be
       0.12676014 -0.10745782 -0.02287151 -0.1310832
0003e0 da 6d b1 3d 6e df 10 be be d5 cc 3d 0a 2c f2 bd
       0.08663531 -0.14147732 0.100017056 -0.11824806
0003f0 41 9a 0b 3e 14 26 1a bd 73 db 00 be fd fd 2a 3e
       0.13633062 -0.03763397 -0.12583713 0.16698451

fcn.module.0.bias f4 [32]
000000 6e ed a8 bd 92 7f 6f 3d 7a c5 12 be 06 7b d6 3d
       -0.08248411 0.05847127 -0.14333144 0.104726836
000010 c7 2e 94 bd 00 38 2f 3b a6 99 06 3e 7a 27 9b 3d
       -0.072354846 0.002673626 0.1314455 0.07575889
000020 06 46 12 3d 96 92 1d 3d 3f 15 9c 3d 9f 13 2b 3e
       0.03571131 0.038469873 0.0762124 0.16706704
000030 da d1 0c be 8e 99 e9 bd 65 c7 aa bd 95 ec ac bd
       -0.13751927 -0.11406241 -0.08338813 -0.08443562
000040 00 2a 2a 3a 7e 97 a4 3d f5 62 cc bc 39 8b f9 bc
       0.0006491244 0.08036707 -0.02494953 -0.030461894
000050 df 0f ff bd 10 46 16 3e 77 03 a7 bc 98 5b b3 3c
       -0.12454199 0.14675164 -0.020387394 0.021894261
000060 88 fa fd bd a0 2b 9f 3d f8 c4 41 bd 42 26 1b be
       -0.12401301 0.07771993 -0.047306985 -0.15151313
000070 83 56 1e 3e 79 dc 57 bc 5f 72 e2 bd 6b 6f 09 bd
       0.15462689 -0.013175123 -0.11056971 -0.033553522

fcn.module.3.weight f4 [10, 32]
000000 fe 69 4c bc 32 df 01 be 28 26 75 3d 73 20 e1 3c
       -0.012476442 -0.12682799 0.05985084 0.027481293
000010 00 3f ba 3b 5d d2 33 be 66 9b 1d be 35 64 e8 bd
       0.0056837797 -0.17560716 -0.15391311 -0.11347238
000020 ac ee 3d 3e 67 ba 8e 3c 4f 13 02 3e c3 5b 8b 3d
       0.18548077 0.017422868 0.12702678 0.068046115
000030 f0 74 ef 3c b0 2c 85 3d cd 49 cc 3d b2 de cc 3d
       0.029230565 0.06502664 0.09975014 0.10003413
000040 b8 87 1c be eb 7a 19 be 1c e6 6e bd 9c e5 10 be
       -0.15286148 -0.14988296 -0.05832492 -0.14150089
000050 4c 76 ee 3b d7 56 0a 3e 9c 44 db 3d 15 0a 07 3e
       0.0072772857 0.1350969 0.107064456 0.1318744
000060 78 eb 38 bd 91 71 01 be 04 26 13 bd cc 6f 2b be
       -0.045146435 -0.12640978 -0.035924926 -0.16741866
000070 3e 51 86 bd 3c 2d 0c be 25 f7 24 3e 85 3b b4 bd
       -0.065584645 -0.1368913 0.16109903 -0.08800415
000080 a8 53 0e be 91 a5 10 be 78 87 bd 3c 37 a0 11 be
       -0.138991 -0.14125659 0.023135886 -0.14221273
000090 97 09 18 3e 87 27 1b 3e fe d9 0b be 96 f6 b2 3d
       0.14847408 0.15151797 -0.13657376 0.08738439
0000a0 12 c9 f4 3c 2d d8 1d be ff 52 56 3d 6c 5c 97 bd
       0.029881034 -0.15414496 0.052325245 -0.07390675
0000b0 36 ab af 3d 53 a4 0e be 31 61 a4 bd 02 2d 98 bd
       0.08577578 -0.13929872 -0.0802635 -0.074304596
0000c0 7e 05 ff 3d 68 a9 21 bd 43 f0 a9 3c 25 d3 fe bb
       0.124522194 -0.0394682 0.020744449 -0.0077766352
0000d0 9b a6 25 be 7a 85 29 be 80 4c 3d 37 1f 2e 21 be
       -0.16176836 -0.16554824 1.1283089e-05 -0.1574025
0000e0 f0 40 53 bd 0e c4 2c 3d 8a dd ad 3d fc d6 02 3d
       -0.0515756 0.04217916 0.08489521 0.031943306
0000f0 4a 8f 0a be 4e 14 18 be 23 5b 26 be fe d0 8c bd
       -0.13531223 -0.14851496 -0.16245703 -0.068757996
000100 be 75 1f be de 20 dd bd 07 0b 05 3e 34 11 9c bd
       -0.15572259 -0.107972845 0.12992488 -0.07620469
000110 45 18 2b 3e a0 3d 53 bd 09 9c 8a bd 00 5d 32 3c
       0.16708477 -0.051572442 -0.067680426 0.010886431
000120 3e 2e 17 3e 9d d2 04 be fa 8f d9 bd 3e 94 b1 bc
       0.14763734 -0.12970968 -0.106231645 -0.021677133
000130 73 6b 13 be 7e 26 f4 bd f6 71 f4 bd 84 d0 1c be
       -0.14396457 -0.11921404 -0.11935799 -0.15313917
000140 2d 7c 04 3e a4 3f 3a 3d 41 8a c4 3c 77 a9 2d 3e
       0.12937994 0.04547085 0.023991706 0.16959177
000150 d2 d0 27 3e 14 f0 4f 3c 80 2a 38 3e 22 3b bb bd
       0.16388252 0.012691516 0.17984962 -0.09142138
000160 cf 54 01 3e 96 e6 f2 3d 70 0b 1d 3d 88 86 d6 bd
       0.12630008 0.11860387 0.038340986 -0.104748785
000170 bb 9e 1f 3e 5d 97 a4 3d b1 04 ba 3d c0 1e 97 3c
       0.15587895 0.08036683 0.09082926 0.01844728
000180 5a 87 e5 3d 1f c2 3b 3d 72 39 c6 3d e6 62 1a 3e
       0.11207457 0.045839425 0.096789256 0.1507679
000190 62 13 2a be 1e b7 9e 3d 3c 04 3d 3e 88 cd cf bc
       -0.16608956 0.077497706 0.18458647 -0.02536656
0001a0 5a 6f 16 bd 74 ce fe bc df 8f 85 3c 9d 81 91 3d
       -0.036727287 -0.031104304 0.016303955 0.071048
0001b0 90 fd 57 bd be e0 a5 3d c2 a0 2f bd 10 a7 f2 3c
       -0.05273205 0.08099507 -0.04287792 0.029620677
0001c0 00 8c 3a 39 1a 75 e5 3d d1 33 d2 bd f9 ed ed 3d
       0.00017790496 0.11203976 -0.102637894 0.11617655
0001d0 f4 35 40 3e 16 48 e0 bc 52 c0 7e 3d a2 9c e2 3d
       0.18770581 -0.027378123 0.06219513 0.110650316
0001e0 40 41 3e bd 91 b8 89 3d 28 74 b6 bc 8c 45 3b 3d
       -0.046448946 0.067246564 -0.022272184 0.045720622
0001f0 ee cf ee 3d 37 58 d8 3b 1c 58 3f 3e d4 ab 1f 3e
       0.11660753 0.006602313 0.18685955 0.15592891
000200 3d b6 1d be 62 38 4f bd 0e e2 97 bd 11 26 01 bd
       -0.1540155 -0.05059088 -0.074161634 -0.031530444
000210 30 0f 82 bc f6 31 82 3d c9 21 2f 3e 88 aa e0 bc
       -0.015876383 0.063571855 0.17102732 -0.027425066
000220 68 49 f8 bc 4e 5d 2e be 23 6b 12 be da 62 d8 bd
       -0.03030844 -0.1702778 -0.14298682 -0.105657294
000230 7a 19 bf 3d ad 98 08 3e a3 d5 04 be e7 5e bf bd
       0.09331031 0.13339491 -0.12972121 -0.09344273
000240 18 ca f7 bc 80 35 49 bb f0 ef 14 bd 05 de e6 bd
       -0.030247733 -0.0030702055 -0.036361635 -0.112728156
000250 d1 14 65 bd 85 94 20 be ff 58 1a be 56 95 de bd
       -0.055928055 -0.15681656 -0.15073012 -0.10868327
000260 71 6e 0e 3e eb 11 1f bd 88 32 8a bc 60 0e 23 3d
       0.13909318 -0.038835447 -0.016869798 0.03980863
000270 51 a9 15 3e 07 2b 19 3d df 98 58 3c a2 3f e4 bd
       0.1461537 0.03739455 0.013220041 -0.111449495
000280 9c fb cf 3d c4 06 39 3e e0 0e 0e bd 09 e7 24 3e
       0.101554126 0.18068987 -0.034682155 0.16103758
000290 ae a9 d0 3d d6 82 b9 bd ae 05 eb 3d 43 60 d3 bd
       0.10188614 -0.09058158 0.11475693 -0.10321095
0002a0 17 d3 fd 3d de 75 08 be bb 9b c6 bd 5a 89 38 3d
       0.12393778 -0.13326213 -0.09697672 0.045052864
0002b0 c5 eb 17 3e a6 4b d8 3d 0b c8 a9 bd 8c fb 55 bd
       0.14836033 0.10561304 -0.08290108 -0.052241847
0002c0 d0 03 a6 bc 42 ad cb 3d e8 0c 85 3d b3 ae c6 bd
       -0.02026549 0.09945156 0.06496602 -0.0970129
0002d0 ee 2e be 3d 04 0b 6d bd d4 94 1c be 4d b5 f5 bd
       0.09286295 -0.057871833 -0.15291148 -0.11997471
0002e0 6a be f1 bd 7d bb 14 bd 1f 3c 2e 3e a8 9a b9 3c
       -0.11803897 -0.036311615 0.17015122 0.022656754
0002f0 3e 77 e9 3d 19 67 15 3d 7f 55 15 be 2b 11 3c bd
       0.11399697 0.036475275 -0.14583395 -0.04591481
000300 13 f0 75 3c 4d 4d e7 bd 36 a7 fa 3d 6b 3f 85 3d
       0.015010851 -0.11294041 0.12238924 0.06506237
000310 88 93 26 bd 16 ae d8 3d d2 84 3b 3e c8 8a be bc
       -0.04066804 0.10580079 0.18312386 -0.023259535
000320 0c 61 ae 3d 8c 7e d9 bd 50 31 20 be c6 9b 80 bd
       0.08514604 -0.1061984 -0.15643811 -0.062797114
000330 41 21 bc bd 98 37 bf 3c d3 67 e6 bd d0 7c 23 be
       -0.0918603 0.023341939 -0.11250272 -0.15965581
000340 eb a5 d8 bd 2c b9 0e 3d ca ac 0b be fe 5b 15 3e
       -0.10578521 0.034844562 -0.13640133 0.14585873
000350 ad 44 36 3e 64 a7 7a 3c d4 69 8a bd 2c 30 8d 3d
       0.17799635 0.015298698 -0.06758466 0.06893954
000360 ed f9 14 3e 14 09 e4 ba f8 b7 9c bc 0f 99 04 3e
       0.14548464 -0.0017397725 -0.019130692 0.12949012
000370 5e 7c 1d be 1f 2a 2f 3d 7a 9b 3b 3e b8 da 08 3d
       -0.15379474 0.04276478 0.18321028 0.03341171
000380 4f 7a 1c 3e ba da f1 bc 3a 9c e4 3d 7e a4 37 3e
       0.15281032 -0.029523242 0.1116261 0.17933843
000390 f2 95 a0 3d b2 0f f6 3d 78 7c d1 3a 10 9f 7b 3c
       0.078411 0.120147124 0.0015982529 0.015357748
0003a0 9c 9b 12 be db b6 81 3c 85 55 b3 bd f2 3b 2d 3e
       -0.14317173 0.015834263 -0.08756546 0.16917399
0003b0 ae d0 07 be 56 d1 d1 3d 18 1c 3f 3d 0a e9 91 bc
       -0.13263199 0.10245006 0.04665765 -0.017811317
0003c0 00 b8 57 bc 2f 28 1b 3e 89 1f b4 bd d1 cd 4b 3d
       -0.013166428 0.15152048 -0.08795077 0.04975683
0003d0 bc d0 fe bd d4 07 0f 3e ee 10 ed bd 4c cb 5a bd
       -0.12442157 0.1396783 -0.11575495 -0.053416535
0003e0 56 b2 0d be d1 04 c7 bd 67 3b c9 bd 08 91 b2 bc
       -0.13837561 -0.097177155 -0.09825783 -0.021797672
0003f0 55 9f 32 3e e7 3c 5d 3c 17 d2 cc 3d 2c c5 10 3e
       0.17443593 0.01350329 0.10001009 0.14137715

fcn.module.3.bias f4 [10]
000000 65 13 08 bc 57 12 98 3d 20 6d 57 3c 62 a8 d9 3d
       -0.008305405 0.07425373 0.013148576 0.106278196
000010 b8 54 4f bd 9d 7b ac bd a6 09 2c 3d b1 01 d5 bd
       -0.050617903 -0.08422015 0.04200139 -0.10400713
000020 6d 07 bd 3c d3 52 28 bd
       0.02307483 -0.041094612

exp_avg f4 [16, 4, 16]
000000 be 1c c9 ba cc 24 f1 ba 59 b5 85 ba 10 ca 92 ba
       -0.0015343649 -0.0018397807 -0.001020114 -0.0011199135
000010 4f d8 c8 ba 33 eb 99 ba bf 00 94 ba 91 4b 56 bb
       -0.0015323254 -0.0011743068 -0.0011291726 -0.003269885
000020 35 86 7f ba 1e 68 cd ba 89 4e 1f ba 2d e6 fb ba
       -0.00097474764 -0.0015671288 -0.00060770713 -0.0019218378
000030 a5 a3 b5 ba 7a a1 9a ba f1 d1 1f bb cf e1 df ba
       -0.0013857974 -0.0011797391 -0.002438661 -0.0017080846
000040 50 1e 0a bb 5a 02 cb ba 5f 08 6d ba 56 b9 0a bb
       -0.0021075197 -0.0015488372 -0.000904208 -0.0021167598
000050 9d cf 1f bb a1 ce 13 bb 4b 8c 30 bb e1 1e 62 ba
       -0.0024385222 -0.002255358 -0.002693909 -0.0008625817
000060 67 bd 17 bb 8e d9 d9 ba a2 c7 99 ba 14 0b 91 ba
       -0.0023153664 -0.0016620622 -0.0011732469 -0.0011065924
000070 fe 2b fe b9 20 ca 04 bb a6 a0 f0 b9 95 85 ce ba
       -0.00048479432 -0.0020262077 -0.0004589606 -0.0015756363
000080 06 2f ce ba 8a a1 e4 ba 9a 88 28 bb 7b 31 7e ba
       -0.0015730567 -0.0017443162 -0.0025716187 -0.0009696704
000090 ad 70 e8 b9 b1 f3 c7 ba 3c 69 b6 ba f6 e1 9b ba
       -0.00044334438 -0.0015255121 -0.001391686 -0.0011892903
0000a0 f1 76 f7 ba ea 52 4f ba ae c2 a0 ba 51 b9 30 ba
       -0.0018880052 -0.00079087785 -0.001226505 -0.00067414815
0000b0 14 a5 0b bb c4 c1 18 bb 5f f6 80 ba 9b 8f eb ba
       -0.002130811 -0.0023308853 -0.0009839049 -0.0017971875
0000c0 0f 7c 7d ba b9 7d 89 ba af fb dc ba 79 78 01 bb
       -0.000966967 -0.0010489739 -0.0016859676 -0.0019755645
0000d0 b7 b2 e7 ba 44 ca a0 ba aa 87 7d ba c5 7b 61 ba
       -0.0017677163 -0.0012267311 -0.00096713996 -0.0008601512
0000e0 90 91 83 ba a5 ad 0d bb 6c 0a 50 bb 3f 7c 22 bb
       -0.0010037888 -0.0021618393 -0.0031744493 -0.0024793295
0000f0 d0 e6 0e bb 4a 1a 29 ba 01 c2 16 bb 6c 4f 90 ba
       -0.0021805055 -0.0006450756 -0.002300382 -0.0011009998
000100 b8 9c 2e ba 07 78 54 ba 76 52 82 ba f3 b2 c8 ba
       -0.0006660926 -0.00081050437 -0.0009942788 -0.001531212
000110 b5 c6 d5 ba 03 2c 9f ba 01 fc a3 ba d1 07 26 ba
       -0.001630983 -0.0012143854 -0.0012511016 -0.0006333562
000120 78 b7 30 ba 15 bc 78 ba 9d 4c 13 ba f8 7d 81 ba
       -0.0006741206 -0.00094884756 -0.0005619021 -0.000987946
000130 12 82 0d bb ee 02 92 ba ab 93 9f ba 5c c4 0e bb
       -0.002159242 -0.0011139789 -0.0012174746 -0.002178452
000140 83 7e b9 ba e9 7f fa ba 06 72 19 bb dd 10 5a ba
       -0.0014152083 -0.0019111607 -0.002341391 -0.0008318553
000150 82 83 d6 ba ef 5d 42 ba 52 cb a0 ba 0d 70 3f ba
       -0.0016366097 -0.000741451 -0.0012267625 -0.00073027686
000160 4e 65 0e bb a2 39 c1 ba 67 54 cb ba ae eb 96 ba
       -0.0021727863 -0.0014741907 -0.0015512825 -0.001151433
000170 e3 11 26 ba a9 c8 79 ba 92 2f a6 ba 63 e6 55 ba
       -0.0006335063 -0.0009528497 -0.0012678972 -0.00081596355
000180 a5 1c 48 ba 49 97 cf ba 29 ed bd ba 05 c2 15 bb
       -0.0007633663 -0.0015837933 -0.0014490235 -0.002285124
000190 06 0f d5 ba d7 1b 9b ba 95 19 fa ba 30 6d cd ba
       -0.0016255088 -0.0011833858 -0.001908111 -0.0015672799
0001a0 55 30 32 ba 61 a2 d8 ba f4 e9 0b bb ba 80 8e ba
       -0.0006797363 -0.0016527885 -0.0021349164 -0.0010872104
0001b0 12 3d 6f ba 1d 4a e3 ba 16 a9 51 ba c3 3e 8f ba
       -0.00091262267 -0.0017340813 -0.0007997913 -0.0010928739
0001c0 8b e6 27 bb 13 55 90 ba 3c 09 23 ba b9 d1 46 ba
       -0.0025619592 -0.0011011682 -0.00062193326 -0.00075843517
0001d0 18 9e 06 ba bd 98 14 bb 5f c7 85 ba 95 3f 22 bb
       -0.0005135252 -0.0022674047 -0.0010206512 -0.0024757136
0001e0 c8 69 f6 ba 3a 6e ae ba ac d9 97 ba f5 de 0e bb
       -0.0018799836 -0.0013307997 -0.0011585257 -0.0021800373
0001f0 aa fc de ba ea 76 d2 ba 41 08 0b bb 9c ed ac ba
       -0.0017012556 -0.0016057168 -0.0021214637 -0.0013193372
000200 da f1 c9 ba c5 f2 b6 ba 96 4c c4 ba 69 ad ed ba
       -0.001540716 -0.0013957849 -0.0014976438 -0.0018133345
000210 74 90 37 ba e2 eb 1f bb d7 86 ea ba c7 39 2f ba
       -0.0007002421 -0.0024402072 -0.0017892969 -0.000668433
000220 69 42 2b bb c8 57 19 bb 96 71 6b ba 02 fa af ba
       -0.0026132113 -0.002339827 -0.0008981464 -0.0013425949
000230 ed 9d a2 ba 67 d4 06 bb a8 fe b9 ba 42 b7 1b ba
       -0.0012406685 -0.002057338 -0.0014190273 -0.00059400883
000240 e3 c5 82 ba 60 08 9d ba ce fe e9 ba be 37 21 ba
       -0.0009977188 -0.0011980645 -0.0017852427 -0.0006149969
000250 4a 22 3c bb 7c 69 8d ba f5 66 3b ba 85 e6 01 bb
       -0.0028706961 -0.0010788883 -0.00071488257 -0.0019821238
000260 40 11 89 ba 3a 42 05 bb 72 49 91 ba 02 f4 15 bb
       -0.0010457411 -0.0020333664 -0.001108451 -0.0022881036
000270 fb 98 77 ba 58 bc e7 ba ea 50 8a ba a2 53 b3 ba
       -0.0009445098 -0.0017680032 -0.0010552679 -0.0013681541
000280 7c 10 65 ba 46 07 ea ba cf b3 03 bb f0 75 f6 ba
       -0.0008738113 -0.0017854951 -0.0020096188 -0.0018803459
000290 7d 0d 39 ba 45 51 01 bb 82 f1 58 bb db 85 f2 ba
       -0.00070592 -0.0019732278 -0.0033102934 -0.0018503027
0002a0 ba 16 c8 ba 3b ca 93 ba a0 c8 c2 ba 00 ae 0c bb
       -0.0015265562 -0.0011275479 -0.0014860816 -0.0021466017
0002b0 56 d1 de ba 84 91 b2 ba a4 e1 88 ba 56 79 25 bb
       -0.0016999643 -0.0013623689 -0.0010443223 -0.0025249324
0002c0 e1 e5 4f bb a8 84 10 bb b9 58 a9 ba 41 26 15 bb
       -0.0031722712 -0.0022051726 -0.0012920118 -0.0022758397
0002d0 19 3c 17 bb f1 27 8f ba c9 dc 49 ba fa 8d 08 bb
       -0.0023076592 -0.0010921938 -0.0007700441 -0.0020836578
0002e0 f0 5e b7 ba 7c 0d 8e ba 6f a0 4a bb 6b 9b 53 ba
       -0.0013990086 -0.0010837759 -0.003091838 -0.00080721703
0002f0 00 e8 30 bb 10 15 b7 ba 43 ed 48 bb e5 74 09 bb
       -0.0026993752 -0.0013968069 -0.0030658997 -0.0020974216
000300 2d 1d 15 39 c3 6f 14 39 e8 92 0e 39 72 e8 7b b9
       0.00014220616 0.00014156014 0.00013596902 -0.00024023818
000310 0e b3 56 b9 02 c1 29 b9 fe a4 36 38 55 e9 91 38
       -0.00020475333 -0.00016188997 4.3545842e-05 6.9576e-05
000320 d0 0e ef b9 d9 94 a2 39 a4 91 2d b9 9d 9c 83 b9
       -0.00045596668 0.00031009948 -0.00016552821 -0.00025102953
000330 ee 37 3f ba fb 13 c2 b8 1e e5 1e 39 d3 78 87 38
       -0.0007294406 -9.2543625e-05 0.00015153407 6.459807e-05
000340 4f 53 52 39 56 a6 47 39 d0 01 a8 38 c8 6d 67 39
       0.00020058196 0.00019040084 8.011202e-05 0.00022070773
000350 3c d8 8c 38 83 9f 39 ba 4e b5 d6 b9 58 0c e6 38
       6.715997e-05 -0.0007080959 -0.00040952343 0.00010969554
000360 24 bc 9a b9 66 2d 33 ba 7e 01 1d b9 68 b3 9f 38
       -0.00029513345 -0.0006835073 -0.00014973243 7.615128e-05
000370 4c 34 6b 39 f1 e0 09 b9 2f 93 e8 38 f6 c1 4d ba
       0.00022430829 -0.00013149135 0.00011090037 -0.0007849032
000380 7f a0 40 ba f4 88 62 ba 2c 09 bc b9 2c b8 c3 b9
       -0.00073481345 -0.00086416234 -0.00035864988 -0.00037330517
000390 25 21 81 b9 c8 c8 7d 39 64 6e ad b8 5e 5a f5 b9
       -0.00024629492 0.00024202757 -8.269845e-05 -0.0004679737
0003a0 a8 d4 1b 38 d3 cb d2 38 9d c4 74 37 b6 a1 42 39
       3.715293e-05 0.000100515455 1.4589311e-05 0.00018561524
0003b0 b4 20 bc b8 a9 b6 ac b8 5d f4 1c ba 5b 9f f8 38
       -8.97063e-05 -8.235622e-05 -0.00059873407 0.00011855244
0003c0 66 d7 8f b8 16 21 96 38 4e bf a6 b9 5c 24 8e b8
       -6.8588924e-05 7.15872e-05 -0.0003180452 -6.77786e-05
0003d0 ff e7 a0 b8 17 79 2f 39 d7 49 48 b7 46 43 34 b9
       -7.672607e-05 0.0001673441 -1.1938121e-05 -0.00017191199
0003e0 c6 d1 84 39 37 d7 44 b9 59 b6 27 b9 b7 1f f7 b9
       0.00025333295 -0.0001877219 -0.00015994291 -0.0004713514
0003f0 92 be 0c 39 ec b6 21 b9 71 5a 02 b9 91 fe 13 39
       0.00013422433 -0.000154223 -0.00012431458 0.00014113846

exp_avg_sq f4 [16, 4, 16]
000000 1a 46 80 33 7e 25 b8 33 64 89 e9 32 b7 0a 0c 33
       5.973216e-08 8.5749875e-08 2.7187248e-08 3.2606035e-08
000010 42 de 82 33 98 10 1b 33 4c 21 15 33 18 f0 92 34
       6.094025e-08 3.610384e-08 3.472205e-08 2.736931e-07
000020 f2 14 d6 32 90 6a 87 33 86 8f 3b 32 76 0a da 33
       2.4922404e-08 6.305811e-08 1.0917466e-08 1.0153319e-07
000030 91 a2 6b 33 fa 8b 24 33 a8 1b 21 34 1a e9 9b 33
       5.4863055e-08 3.8311534e-08 1.5004355e-07 7.260151e-08
000040 0c e1 07 34 46 1f 85 33 e1 7c cf 32 f9 38 02 34
       1.2654726e-07 6.198984e-08 2.415476e-08 1.212792e-07
000050 c1 ba 23 34 4f fa 09 34 f4 49 52 34 2a 8f b5 32
       1.5248499e-07 1.2850181e-07 1.9584678e-07 2.1136277e-08
000060 08 5d 13 34 f7 cf a0 33 dc f9 1b 33 ba f3 06 33
       1.3724286e-07 7.488409e-08 3.6315996e-08 3.1420974e-08
000070 c4 ae d4 31 59 65 e3 33 4c 4c c0 31 ee bd a7 33
       6.1898806e-09 1.0588946e-07 5.5966094e-09 7.8110915e-08
000080 90 20 8a 33 df 4f b2 33 c5 77 3b 34 ed 11 cd 32
       6.432049e-08 8.3032994e-08 1.7459304e-07 2.3873293e-08
000090 16 1c b7 31 43 95 8b 33 3d ed 5a 33 74 50 36 33
       5.329194e-09 6.4998424e-08 5.0972847e-08 4.244835e-08
0000a0 c9 f3 f0 33 ed 27 8e 32 0a d5 25 33 d6 52 87 32
       1.1220215e-07 1.6549132e-08 3.8610814e-08 1.5753738e-08
0000b0 da be 14 34 c4 c7 18 34 c4 97 df 32 26 38 b5 33
       1.3853005e-07 1.4228777e-07 2.6029632e-08 8.4386826e-08
0000c0 97 17 d1 32 64 9c 14 33 fa e3 a9 33 0a ff db 33
       2.434153e-08 3.460117e-08 7.9111445e-08 1.02443735e-07
0000d0 1c fe c1 33 6f 55 31 33 98 81 d2 32 ce e6 b1 32
       9.033485e-08 4.1288725e-08 2.450615e-08 2.071047e-08
0000e0 7f c6 d7 32 ac 7f 03 34 ab a0 8b 34 87 cd 2a 34
       2.511956e-08 1.2246772e-07 2.600767e-07 1.5907254e-07
0000f0 19 81 00 34 84 39 3e 32 2b 71 1e 34 11 aa 05 33
       1.1967894e-07 1.1072533e-08 1.4756067e-07 3.112115e-08
000100 fa 91 4a 32 08 95 93 32 44 f1 d3 32 32 fa 83 33
       1.1791139e-08 1.7180824e-08 2.4673348e-08 6.145673e-08
000110 0a 3c 96 33 8e 60 2c 33 87 b6 27 33 82 69 43 32
       6.99584e-08 4.0134687e-08 3.9048725e-08 1.1374484e-08
000120 24 89 52 32 d2 ff c5 32 28 76 09 32 28 bc d8 32
       1.2254791e-08 2.3050152e-08 8.001315e-09 2.5231273e-08
000130 b8 e3 00 34 74 25 09 33 5b 06 26 33 09 f5 04 34
       1.2003773e-07 3.193186e-08 3.8655667e-08 1.2382601e-07
000140 2a e9 60 33 01 fd c4 33 d6 3c 14 34 b4 3d a8 32
       5.2366126e-08 9.1729824e-08 1.3805706e-07 1.9585833e-08
000150 66 8b 91 33 66 b0 73 32 39 4b 27 33 c4 92 6f 32
       6.777445e-08 1.418457e-08 3.8951132e-08 1.3945002e-08
000160 9e cb fe 33 ba 37 6c 33 fb 12 80 33 3d 7c 16 33
       1.18648344e-07 5.4998715e-08 5.963917e-08 3.503759e-08
000170 2c d4 34 32 5b 41 c8 32 6d 84 35 33 62 f5 90 32
       1.0525621e-08 2.3312785e-08 4.2262787e-08 1.6875394e-08
000180 c7 24 86 32 90 73 89 33 b0 58 65 33 33 85 0e 34
       1.5616378e-08 6.40058e-08 5.3398878e-08 1.3273238e-07
000190 8a 85 91 33 d3 9c 1f 33 14 bd c8 33 45 9a 85 33
       6.776379e-08 3.7162703e-08 9.347619e-08 6.2213566e-08
0001a0 22 68 63 32 ee 7e 9d 33 e9 da f9 33 40 f2 fe 32
       1.3236816e-08 7.3339706e-08 1.16347856e-07 2.9679654e-08
0001b0 81 57 b6 32 e5 f0 ab 33 f2 e2 a2 32 1e d3 02 33
       2.122738e-08 8.0066265e-08 1.8962485e-08 3.0459994e-08
0001c0 0e 03 31 34 a6 87 05 33 09 6f 2c 32 76 95 80 32
       1.6485521e-07 3.1089847e-08 1.0036964e-08 1.4969128e-08
0001d0 e6 79 00 32 95 11 0b 34 d4 a1 e9 32 54 35 24 34
       7.478297e-09 1.295178e-07 2.7198361e-08 1.5293091e-07
0001e0 62 07 c2 33 db e2 40 33 8c b9 12 33 4b d9 03 34
       9.035172e-08 4.4909807e-08 3.4162028e-08 1.2279376e-07
0001f0 c8 71 9e 33 3b 7c 8c 33 00 f4 f7 33 f0 72 3e 33
       7.378145e-08 6.5418554e-08 1.1546217e-07 4.4342357e-08
000200 a4 95 a5 33 ff 04 82 33 e8 b9 95 33 83 d3 c0 33
       7.710631e-08 6.0545055e-08 6.972169e-08 8.9791705e-08
000210 ec 85 81 32 b8 21 3e 34 05 da c6 33 36 02 68 32
       1.5078477e-08 1.7707396e-07 9.259751e-08 1.350468e-08
000220 ba 55 53 34 6c 84 3c 34 0e 6e e1 32 af f4 70 33
       1.9682093e-07 1.7557039e-07 2.6243494e-08 5.6101893e-08
000230 98 a1 2f 33 c1 5a 08 34 a5 48 80 33 89 ad 25 32
       4.089233e-08 1.2699003e-07 5.9736784e-08 9.643721e-09
000240 aa 16 f0 32 a9 79 26 33 f4 c5 c4 33 f9 3f 5e 32
       2.7949984e-08 3.8760536e-08 9.162969e-08 1.2936646e-08
000250 bb 94 81 34 68 40 1c 33 dc 01 82 32 fa 6e eb 33
       2.4136338e-07 3.6380158e-08 1.5134837e-08 1.0963227e-07
000260 f5 43 09 33 b0 69 04 34 ce b1 0e 33 00 04 1b 34
       3.1959605e-08 1.2331907e-07 3.3223664e-08 1.4436955e-07
000270 74 69 d7 32 33 60 bc 33 04 93 15 33 9e 29 6c 33
       2.5077249e-08 8.771931e-08 3.4825476e-08 5.4985883e-08
000280 17 11 b0 32 05 5f c6 33 ed 55 00 34 fb d1 e5 33
       2.0496868e-08 9.2373774e-08 1.1952189e-07 1.0701839e-07
000290 88 d8 90 32 08 83 e5 33 52 91 a7 34 89 6a c9 33
       1.6862273e-08 1.0687478e-07 3.1211908e-07 9.3791705e-08
0002a0 ef 36 95 33 0c 4f 15 33 be 4e 95 33 16 75 11 34
       6.9483455e-08 3.476366e-08 6.952676e-08 1.3546773e-07
0002b0 1c 4d d1 33 cb d3 6f 33 e7 2c 17 33 7a 4d 4b 34
       9.746347e-08 5.583915e-08 3.5198266e-08 1.8934034e-07
0002c0 2c 1f 9b 34 3a ac 19 34 85 6d 4f 33 49 17 22 34
       2.889368e-07 1.4311891e-07 4.829555e-08 1.5095897e-07
0002d0 98 17 1d 34 4d b5 15 33 56 85 9f 32 98 a6 14 34
       1.4630348e-07 3.4856658e-08 1.857067e-08 1.384418e-07
0002e0 50 95 79 33 0a 5a 07 33 78 fb 96 34 f3 f7 a5 32
       5.811063e-08 3.1514027e-08 2.8122645e-07 1.9321282e-08
0002f0 95 5c 60 34 61 77 7c 33 3d 31 8d 34 bd 0d 0b 34
       2.0895307e-07 5.8781897e-08 2.6299122e-07 1.2950382e-07
000300 92 4b 16 31 0e db a4 30 1e f8 79 31 15 c9 0c 32
       2.187083e-09 1.199483e-09 3.6375307e-09 8.194793e-09
000310 8a b5 e6 31 ae 31 b2 31 c1 b4 13 31 c8 7b c0 30
       6.7145196e-09 5.1861297e-09 2.1494062e-09 1.4005019e-09
000320 aa 3a 66 32 53 bd 86 31 9c 73 5f 31 6b cd 2a 32
       1.3401101e-08 3.921437e-09 3.2516487e-09 9.942009e-09
000330 65 bc fc 32 1c 97 17 32 ac 46 8a 31 a2 c6 9b 30
       2.9422333e-08 8.823715e-09 4.024363e-09 1.1334189e-09
000340 43 58 4c 31 36 5d 47 31 98 08 a8 31 a5 a4 ba 31
       2.9736078e-09 2.9011296e-09 4.8904205e-09 5.4320304e-09
000350 26 5d 8b 31 10 d6 ec 32 57 fe 68 32 f3 8d 58 31
       4.056022e-09 2.757136e-08 1.35620075e-08 3.1512826e-09
000360 5c ce ad 31 99 3f 05 33 82 3f 02 32 eb d7 14 32
       5.058423e-09 3.1024317e-08 7.581436e-09 8.663828e-09
000370 91 50 0c 31 65 66 f3 31 e3 b1 82 31 44 d2 0b 33
       2.0418478e-09 7.0838717e-09 3.8037213e-09 3.2554695e-08
000380 a5 59 b6 32 20 f1 23 33 5f bb 55 32 32 70 f2 31
       2.1228354e-08 3.8170697e-08 1.2440835e-08 7.055882e-09
000390 4f 47 32 32 5f bf 45 31 7c 94 f0 31 f4 03 d9 32
       1.0377177e-08 2.8776055e-09 7.0018e-09 2.5263923e-08
0003a0 62 55 61 31 2f c7 10 31 f5 14 cb 31 3e 5f bc 30
       3.2790344e-09 2.106798e-09 5.91046e-09 1.370587e-09
0003b0 cc ea 12 32 15 ea 8f 31 2f e5 8d 32 15 c4 4f 31
       8.551705e-09 4.18846e-09 1.6518781e-08 3.0233924e-09
0003c0 86 d6 0b 32 f1 f4 9c 31 ec 51 16 32 e6 10 a6 31
       8.139642e-09 4.568044e-09 8.749776e-09 4.833157e-09
0003d0 16 a2 6f 31 6f c1 0e 31 70 70 60 31 08 ac eb 31
       3.4871213e-09 2.0773674e-09 3.2660203e-09 6.858958e-09
0003e0 17 04 d5 31 77 0e 81 31 ac 0d c6 31 f7 16 1f 32
       6.199581e-09 3.7560386e-09 5.7641127e-09 9.26024e-09
0003f0 37 e3 d2 30 c9 3c b5 31 a7 d0 c2 31 9a 34 98 31
       1.5344089e-09 5.274704e-09 5.669864e-09 4.4297623e-09

exp_avg f4 [16]
000000 c0 91 ca bb 08 2a b1 bb e3 c2 d7 bb 1e 7e f1 b9
       -0.0061819255 -0.005406622 -0.0065845116 -0.00046061067
000010 a2 65 40 3b c4 0f b3 3b 62 9b 03 bb b5 43 02 3b
       0.0029357453 0.005464526 -0.002008163 0.0019876782
000020 ce 51 bd bb 46 ca e2 ba ef ce 46 39 50 ac bb ba
       -0.005777574 -0.0017302714 0.0001895984 -0.0014318321
000030 05 fd 03 3b 80 a9 31 39 58 78 8a 3b f8 54 c7 3a
       0.0020139825 0.00016943179 0.004225772 0.0015207818

exp_avg_sq f4 [16]
000000 90 f5 82 35 4f 82 42 35 50 ac a6 35 68 14 82 33
       9.757223e-07 7.2460256e-07 1.2418113e-06 6.0573086e-08
000010 e7 9e 8a 34 02 ba 59 35 00 f9 12 34 1c 88 4f 34
       2.582012e-07 8.1109476e-07 1.3687895e-07 1.9327894e-07
000020 24 ef 5e 35 1f df a2 33 b1 6c 06 32 cb d6 13 34
       8.304944e-07 7.584298e-08 7.82454e-09 1.3768583e-07
000030 a1 54 79 34 a5 99 9b 32 bf 0e 07 35 92 98 c1 33
       2.322072e-07 1.8114244e-08 5.031288e-07 9.015015e-08

exp_avg f4 [32, 32]
000000 f4 4d 47 39 53 85 72 39 cd 39 97 39 d8 b2 87 39
       0.00019007159 0.00023128586 0.0002884403 0.00025882456
000010 ad 29 20 39 ab 5b 75 38 46 d1 06 39 ee 84 32 39
       0.00015274315 5.8497924e-05 0.00012857196 0.00017024923
000020 a1 9c b1 39 ab 5d 4a 39 b5 2c 82 39 72 1a 86 39
       0.00033876768 0.00019299115 0.00024828842 0.00025578175
000030 d0 f6 1a 39 42 33 0b 38 e8 bb 99 39 0d d1 e7 38
       0.0001477853 3.318792e-05 0.00029322435 0.00011053877
000040 28 d0 11 38 f8 19 5f 38 9a ea 2c 38 3e a5 0d 38
       3.4764555e-05 5.319153e-05 4.1226485e-05 3.3770913e-05
000050 09 c6 63 37 fd 05 e6 35 93 e9 33 37 db b5 6d 37
       1.3576363e-05 1.7138078e-06 1.0723615e-05 1.4168642e-05
000060 fe 95 c5 38 be f8 b8 37 7c 46 a7 37 01 1a 4d 38
       9.42163e-05 2.2050339e-05 1.9940773e-05 4.8900027e-05
000070 80 5c 70 37 1b 9f 52 35 72 4d 95 38 17 3d c6 36
       1.4326652e-05 7.8462625e-07 7.119299e-05 5.9079716e-06
000080 e0 12 70 3c dc 61 90 3c b3 5e 8d 3c 83 51 7a 3c
       0.014652938 0.017624788 0.01725707 0.015278223
000090 a4 4b 21 3c 2e db a2 3b 8e 4c 2a 3c 62 97 23 3c
       0.009844694 0.004969976 0.010394229 0.009984823
0000a0 48 bd c0 3c b8 5a 6b 3c 25 4b 53 3c 54 c4 8a 3c
       0.023527756 0.014364891 0.012896334 0.01693932
0000b0 b7 cd 27 3c 74 24 a4 3b e4 e4 94 3c 9a 27 0c 3c
       0.010241917 0.0050092284 0.01817555 0.008554364
0000c0 1c a9 23 3b 14 87 7a 3b 62 f5 3d 3b ed 24 04 3b
       0.0024972623 0.0038227485 0.002898537 0.002016361
0000d0 6c b7 61 3a ba d9 1a 39 a2 19 4c 3a 24 70 5a 3a
       0.0008610401 0.00014767694 0.0007785802 0.00083327503
0000e0 c1 bf d0 3b 56 39 e6 3a 21 67 9c 3a 3e fe 51 3b
       0.006370515 0.0017564695 0.001193259 0.003204241
0000f0 8a 79 79 3a 79 6e f8 38 bd 27 9a 3b ec 68 e9 39
       0.0009516707 0.00011846139 0.004704444 0.00044519396
000100 00 00 00 00 00 00 00 00 00 00 00 00 00 00 00 00
       0.0 0.0 0.0 0.0
000110 00 00 00 00 00 00 00 00 00 00 00 00 00 00 00 00
       0.0 0.0 0.0 0.0
000120 00 00 00 00 00 00 00 00 00 00 00 00 00 00 00 00
       0.0 0.0 0.0 0.0
000130 00 00 00 00 00 00 00 00 00 00 00 00 00 00 00 00
       0.0 0.0 0.0 0.0
000140 00 00 00 00 00 00 00 00 00 00 00 00 00 00 00 00
       0.0 0.0 0.0 0.0
000150 00 00 00 00 00 00 00 00 00 00 00 00 00 00 00 00
       0.0 0.0 0.0 0.0
000160 00 00 00 00 00 00 00 00 00 00 00 00 00 00 00 00
       0.0 0.0 0.0 0.0
000170 00 00 00 00 00 00 00 00 00 00 00 00 00 00 00 00
       0.0 0.0 0.0 0.0
000180 b1 08 a2 bb eb 0c c3 bb ce c5 c2 bb 71 9c a6 bb
       -0.0049448838 -0.0059524677 -0.0059439903 -0.0050845672
000190 46 bd 5d bb 34 35 db ba c8 dd 60 bb 3e 5e 5a bb
       -0.003383474 -0.001672423 -0.003431188 -0.0033320333
0001a0 73 52 01 bc 2e 3b a7 bb 3e 5e 95 bb b4 28 c1 bb
       -0.007893193 -0.0051034903 -0.0045583537 -0.005894745
0001b0 b6 be 66 bb 4f bd d5 ba e5 2a ce bb 6a 52 39 bb
       -0.0035208887 -0.0016307029 -0.0062917345 -0.0028277882
0001c0 07 53 61 ba 79 87 aa ba db 54 7e ba bf 93 32 ba
       -0.0008595441 -0.0013010345 -0.00097019755 -0.0006812177
0001d0 8b 5a 98 b9 78 f5 4c b8 d1 9c 89 b9 58 af 8f b9
       -0.0002905916 -4.8866e-05 -0.00026247514 -0.00027405727
0001e0 03 5d 0c bb 64 45 22 ba ee ad d3 b9 d8 c6 92 ba
       -0.0021417744 -0.00061901496 -0.00040374644 -0.0011198176
0001f0 d6 af aa b9 36 25 1d b8 e8 1d d1 ba 03 28 14 b9
       -0.00032555935 -3.7466372e-05 -0.0015954347 -0.00014129285
000200 00 00 00 00 00 00 00 00 00 00 00 00 00 00 00 00
       0.0 0.0 0.0 0.0
000210 00 00 00 00 00 00 00 00 00 00 00 00 00 00 00 00
       0.0 0.0 0.0 0.0
000220 00 00 00 00 00 00 00 00 00 00 00 00 00 00 00 00
       0.0 0.0 0.0 0.0
000230 00 00 00 00 00 00 00 00 00 00 00 00 00 00 00 00
       0.0 0.0 0.0 0.0
000240 00 00 00 00 00 00 00 00 00 00 00 00 00 00 00 00
       0.0 0.0 0.0 0.0
000250 00 00 00 00 00 00 00 00 00 00 00 00 00 00 00 00
       0.0 0.0 0.0 0.0
000260 00 00 00 00 00 00 00 00 00 00 00 00 00 00 00 00
       0.0 0.0 0.0 0.0
000270 00 00 00 00 00 00 00 00 00 00 00 00 00 00 00 00
       0.0 0.0 0.0 0.0
000280 00 00 00 00 00 00 00 00 00 00 00 00 00 00 00 00
       0.0 0.0 0.0 0.0
000290 00 00 00 00 00 00 00 00 00 00 00 00 00 00 00 00
       0.0 0.0 0.0 0.0
0002a0 00 00 00 00 00 00 00 00 00 00 00 00 00 00 00 00
       0.0 0.0 0.0 0.0
0002b0 00 00 00 00 00 00 00 00 00 00 00 00 00 00 00 00
       0.0 0.0 0.0 0.0
0002c0 00 00 00 00 00 00 00 00 00 00 00 00 00 00 00 00
       0.0 0.0 0.0 0.0
0002d0 00 00 00 00 00 00 00 00 00 00 00 00 00 00 00 00
       0.0 0.0 0.0 0.0
0002e0 00 00 00 00 00 00 00 00 00 00 00 00 00 00 00 00
       0.0 0.0 0.0 0.0
0002f0 00 00 00 00 00 00 00 00 00 00 00 00 00 00 00 00
       0.0 0.0 0.0 0.0
000300 04 e1 0d bb 11 c5 2f bb 84 2a 29 bb 73 62 04 bb
       -0.0021649012 -0.0026820342 -0.0025812695 -0.0020200282
000310 dc 1e b5 ba 98 6f 5a ba aa b9 b4 ba be 58 ad ba
       -0.0013818401 -0.0008332669 -0.0013788242 -0.00132253
000320 df 75 5b bb d9 eb 08 bb bd 35 e1 ba 07 34 37 bb
       -0.0033487005 -0.002089253 -0.0017182153 -0.0027954595
000330 e4 15 c7 ba 6f cb 28 ba 1c 77 33 bb 59 ce 85 ba
       -0.0015189019 -0.00064390054 -0.0027384227 -0.0010208591
000340 16 01 c3 b9 4c bb 10 ba 6f 72 e9 b9 bf c7 8c b9
       -0.00037194107 -0.00055210735 -0.00044526483 -0.00026851703
000350 f1 c9 09 b9 dd 95 bb b7 d4 82 e8 b8 23 41 ed b8
       -0.00013140567 -2.2361923e-05 -0.00011086991 -0.00011313173
000360 19 ba 75 ba 24 59 85 b9 60 13 2a b9 71 75 06 ba
       -0.0009373739 -0.00025434152 -0.00016219681 -0.00051291945
000370 87 17 1f b9 67 8e 51 b7 aa 17 35 ba 3e 7f 62 b8
       -0.00015172186 -1.2490526e-05 -0.0006908128 -5.4001102e-05
000380 00 00 00 00 00 00 00 00 00 00 00 00 00 00 00 00
       0.0 0.0 0.0 0.0
000390 00 00 00 00 00 00 00 00 00 00 00 00 00 00 00 00
       0.0 0.0 0.0 0.0
0003a0 00 00 00 00 00 00 00 00 00 00 00 00 00 00 00 00
       0.0 0.0 0.0 0.0
0003b0 00 00 00 00 00 00 00 00 00 00 00 00 00 00 00 00
       0.0 0.0 0.0 0.0
0003c0 00 00 00 00 00 00 00 00 00 00 00 00 00 00 00 00
       0.0 0.0 0.0 0.0
0003d0 00 00 00 00 00 00 00 00 00 00 00 00 00 00 00 00
       0.0 0.0 0.0 0.0
0003e0 00 00 00 00 00 00 00 00 00 00 00 00 00 00 00 00
       0.0 0.0 0.0 0.0
0003f0 00 00 00 00 00 00 00 00 00 00 00 00 00 00 00 00
       0.0 0.0 0.0 0.0
