tests/_logs/test_fit/singletask/checkpoints/epoch=0-step=6-v6.ckpt (torch, 33321 bytes, 15 tensors)

convnet.module.0.weight f4 [16, 4, 16]
000000 d6 26 12 bd b2 46 ef bc 81 54 cc bd 2f 62 10 bd
       -0.035681568 -0.029208515 -0.09977055 -0.035249885
000010 26 7a ef 3b ea 6b ba 3d 8b e1 60 3d a4 84 aa bd
       0.0073082624 0.09102614 0.054902595 -0.083260804
000020 b7 dd 81 bd 97 64 7c bc e0 c2 ec bd c0 16 3c 3d
       -0.06341117 -0.015404842 -0.11560607 0.045920134
000030 6e 0e 5e 3c b1 69 3c 3d d8 f0 61 bd d4 82 82 3d
       0.013553245 0.045999233 -0.055161327 0.0637261
000040 96 fd 1c bd 30 7a ff 3d 97 0d f2 3d b9 fb 48 bd
       -0.038327776 0.12474477 0.11818998 -0.049068186
000050 53 0d b9 bd 76 9b b6 3b 55 fc 50 3d d5 d2 94 bd
       -0.090357445 0.0055727316 0.051021893 -0.072667755
000060 0f e2 8a bd ff 80 26 bd 91 6e ae bd 95 c7 f1 3d
       -0.067813985 -0.040650364 -0.085171826 0.118056454
000070 64 83 e3 bd ce 41 17 bb 83 20 06 3e 62 dd 42 bb
       -0.11109045 -0.0023079994 0.1309834 -0.0029734005
000080 0e e3 88 3d d2 38 09 3d 11 f2 e9 3d 20 de e0 bd
       0.06683932 0.033501454 0.11423124 -0.10979867
000090 11 c0 89 bd 51 75 53 bd 44 70 92 3c 15 8d e9 bd
       -0.06726087 -0.051625554 0.017875798 -0.114038624
0000a0 4d f0 aa 3d c9 ef c3 bd c3 d8 a6 3d c3 f2 bf bd
       0.08346615 -0.0956722 0.08146813 -0.09372475
0000b0 68 64 9d bc 4f db a2 bd 98 5b 51 bd 80 69 91 3d
       -0.019212916 -0.07951986 -0.05111274 0.07100201
0000c0 39 3b 94 bd 3a 84 b0 3c 40 1e 02 3d a8 be 53 bd
       -0.07237858 0.021547426 0.03176713 -0.051695496
0000d0 9a 22 94 bd a9 d0 8f bd 9e 80 02 3e c7 8b e9 bc
       -0.07233162 -0.07022221 0.12744376 -0.028509034
0000e0 cb d5 e8 3d 8b cf 83 bd cb d9 cc bd ce eb 92 3a
       0.11368903 -0.0643607 -0.10002478 0.0011209191
0000f0 fe 83 57 bd 99 4f 8a 3d 3c 2e 16 3d 8e 89 99 bd
       -0.052616112 0.06753463 0.036665186 -0.074969396
000100 8e 5a 22 bd 2d 6c 0a 3d 03 22 03 3c f6 73 bf 3d
       -0.03963714 0.03379457 0.0080037145 0.0934829
000110 28 47 95 bd df 56 05 3d 3b fc 97 3c 0e e2 c3 3d
       -0.072889626 0.03255355 0.01855289 0.09564601
000120 b7 d4 b6 3d c4 9c c2 3d d4 b1 e6 3d a7 3a c3 3d
       0.08927291 0.09502557 0.11264387 0.095326714
000130 88 5a 00 be b6 a3 a2 3d 01 87 e4 3d c3 3f 87 bd
       -0.12534535 0.07941382 0.111585625 -0.066039585
000140 52 87 9d bc ec c5 af bd 5f 7d 8c 3c c9 b4 cd bd
       -0.019229565 -0.085826725 0.017149625 -0.10044248
000150 a3 0d 05 be 80 41 93 3d d8 5d 84 bd 35 f0 dd 3d
       -0.12993483 0.071902275 -0.06463212 0.108368315
000160 47 b6 98 3d 71 83 f4 bc a6 01 88 3d e1 d6 c5 3c
       0.07456642 -0.029847832 0.066409394 0.024150314
000170 ea b1 dc bb 74 64 89 3b 13 bf 92 bc df 1c 8f 3d
       -0.006735076 0.004192883 -0.017913377 0.069879286
000180 c6 de 8c 3c 01 9e e4 bd 2a 07 f4 3c c9 11 dc 3d
       0.01719607 -0.11162949 0.029788572 0.1074558
000190 b4 84 7d bd 9c e4 eb bd 40 e8 ed 3c 0b 5b d3 3d
       -0.061894134 -0.11518213 0.02904141 0.103200994
0001a0 67 53 30 3d fe 66 80 bb bc fc 11 bd 6d 92 96 3c
       0.04304829 -0.0039185276 -0.035641417 0.018380368
0001b0 41 2d a1 bd 4c d5 4a 3d 0b 1d 3c 3c dd a9 2b bd
       -0.078699596 0.049519822 0.011481534 -0.04191004
0001c0 8e c7 2d bd 5d c3 b3 3d b4 f8 7f ba 5b fd d7 3c
       -0.04242664 0.08777497 -0.00097645377 0.026365926
0001d0 83 d5 be bd 04 24 93 bd fb fc a4 3c 47 f8 1f 3b
       -0.09318068 -0.07184604 0.020140162 0.002440946
0001e0 03 28 48 3c d6 53 2a bd 88 b3 40 3c 65 9c 0a 3d
       0.012216571 -0.04158386 0.011761554 0.033840556
0001f0 f3 97 6e bd 26 c6 25 3c 49 32 c2 bc 0d a0 3c bd
       -0.05825038 0.010118043 -0.023705618 -0.046051074
000200 82 07 57 bd c4 87 d6 3d 2e b1 70 3c cb 65 3a bd
       -0.052497394 0.10475114 0.01469068 -0.045507234
000210 68 d7 38 3d cb bb b9 bd 96 80 47 bd 18 5a 5c 3c
       0.045127302 -0.09069022 -0.048706613 0.013449214
000220 3b 39 95 3d f1 6a d7 bb 22 a5 ec 3c 5b 61 00 be
       0.072863065 -0.0065740277 0.028887335 -0.12537138
000230 c6 d0 89 3d 77 65 ad bd 6e f5 e8 bd 40 bd ad 3d
       0.067292735 -0.084666185 -0.11374937 0.08483362
000240 f5 f6 e3 3c bf 0b 84 3d c2 4f 02 be a8 e3 f2 bd
       0.02782772 0.06447553 -0.12725738 -0.11859828
000250 4c 3c eb bd df 93 78 3c dc 23 5e bd 4c 7b 89 3d
       -0.1148611 0.015171974 -0.054233417 0.0671297
000260 1b 6b eb bd 3b da ad bd 91 f3 90 3d 03 5a 1b bd
       -0.11495038 -0.0848889 0.070777066 -0.03792764
000270 68 a1 67 3d b9 40 fe bd d4 63 be bd 3c c2 ce 3d
       0.056550413 -0.124146886 -0.092963845 0.10095641
000280 0e a0 bb 3c 88 15 44 bd 2f 15 c8 3b 59 42 e6 3d
       0.022903468 -0.047872096 0.006106041 0.112431236
000290 18 b4 94 bd 8f f7 04 be db ac 8c bd cf f7 ed 3d
       -0.07260913 -0.12985061 -0.06868907 0.11619531
0002a0 bc e9 de 3d 7c 14 dc 3d ed c9 db bd 02 28 d9 3d
       0.10884425 0.107460946 -0.10731874 0.10603334
0002b0 0c 42 c3 3d bf 59 f2 3d d4 20 9f 3b aa fe da 3d
       0.09534082 0.11833524 0.0048562083 0.106931046
0002c0 ae 2b ec bc a0 7d 50 3d 7a ca 36 3c d3 33 e2 bd
       -0.028829422 0.050901055 0.011156673 -0.11045041
0002d0 23 21 c8 3d 86 3f 5a bd 98 05 5f bd c2 41 af 3c
       0.09771945 -0.053283237 -0.054448694 0.02139366
0002e0 96 41 5c bd d0 d9 f6 bd 35 10 66 3d d5 d9 b3 bd
       -0.053773485 -0.12053263 0.0561678 -0.087817825
0002f0 fc 9c d4 bd 46 bc f0 bc 56 83 6b 3c 3e eb 41 bd
       -0.10381505 -0.02938665 0.014374575 -0.047343485
000300 92 7b d1 bd 78 50 a8 bd a0 f1 8b bd 83 fa af 3d
       -0.10228647 -0.08218473 -0.06833196 0.08592703
000310 d9 5d 4a 3d ab cd 3a bd 7e 98 fd bc 27 0a 5d bd
       0.049405906 -0.045606297 -0.030956503 -0.05396476
000320 ec dc c4 3d 6a df bf bd 97 24 e0 3c ba 0b f0 3d
       0.0961245 -0.09368785 0.027361197 0.11720987
000330 8a af 1d 3c be 25 8f bd 97 7e f8 3c 18 6d bb bd
       0.009624371 -0.069896206 0.0303338 -0.09151667
000340 5f c1 b6 3c 77 13 dd 3c 5c c9 c5 bd 27 6b 18 bd
       0.022309003 0.02698682 -0.09657547 -0.037211563
000350 7e e9 96 bd df fa 46 3d ea 2c 0d bd 00 42 56 bd
       -0.07368754 0.048579093 -0.03446666 -0.052309036
000360 04 9e ca bd b2 53 ec 3d e1 36 22 bd f8 4e 18 3c
       -0.0989342 0.11539401 -0.039603118 0.009296171
000370 df eb d2 3d 84 23 70 bd 18 ef cb bd 4d 0d 63 bd
       0.10298895 -0.05862762 -0.09957713 -0.055432606
000380 be 92 3a bd 6e 8f da bd 87 a3 ab 3d 74 e8 84 bd
       -0.0455501 -0.10671888 0.083808 -0.064896494
000390 7a 29 3a bc 90 f9 dc bd 4e 54 be 3c 8d 2c 95 bc
       -0.011362428 -0.10789788 0.023233559 -0.01820972
0003a0 78 4e cd bd bc 62 ae 3b 1e 93 92 3c 3e 17 0e 3c
       -0.10024732 0.0053218286 0.017892417 0.008672534
0003b0 db 68 ee 3d 9d 9e 99 3d 5d 37 b0 3d d6 f2 98 bd
       0.11641093 0.07500956 0.0860431 -0.07468192
0003c0 09 8e 97 3d 0b 30 e4 3d 6a 9c b8 bd 05 13 ed 3d
       0.07400138 0.11141976 -0.090142086 0.11575893
0003d0 cf 11 2d 3d 23 b5 d7 3d fc 80 ae bd 80 a2 38 bd
       0.04225331 0.10532596 -0.085206956 -0.045076847
0003e0 43 52 81 3c 61 a2 22 3b a0 48 b3 bc 73 08 e3 3d
       0.015786296 0.0024816024 -0.021885216 0.11085596
0003f0 40 f7 4d bd 0c a3 93 bd 95 26 23 3d 64 22 a1 3d
       -0.050284624 -0.07208833 0.039831717 0.078678876

convnet.module.0.bias f4 [16]
000000 9c 30 04 bd b7 59 3a 3a 65 46 73 bc 52 36 be 3d
       -0.03227292 0.00071087055 -0.014848326 0.092877045
000010 94 dd 95 3d ec 94 a6 bd a4 39 9f 3d 6b d4 55 3d
       0.07317653 -0.08133873 0.07774666 0.05220453
000020 86 f3 ea 3d 0d dc 17 bc bb 9d f7 3c a0 72 87 3d
       0.1147223 -0.009268773 0.030226579 0.0661366
000030 2e 2b 15 bd 28 1a 94 3c f0 2e 82 3d 55 8f 1b 3c
       -0.036418132 0.018078879 0.06356609 0.009494622

fcn.module.0.weight f4 [32, 32]
000000 5b a5 2b be 50 e9 ed 3d 2c 76 2f be 22 10 e5 bd
       -0.16762297 0.116167665 -0.17134923 -0.11184718
000010 60 d6 12 be a2 ce 27 3e 65 63 25 3e 71 f7 13 bc
       -0.1433959 0.16387418 0.16151197 -0.009031163
000020 c0 f8 5e 3d 68 c7 12 be 02 2a 1a be 1e cf 66 bd
       0.054436445 -0.1433388 -0.15055087 -0.056349866
000030 37 73 39 bd f5 22 9e 3d f4 99 ee bd 14 f2 09 3e
       -0.045275893 0.07721511 -0.11650458 0.13471252
000040 0e 57 5f bd 1a 57 91 bd cb 1e a6 3c fb b4 1f 3d
       -0.05452638 -0.070966914 0.020278355 0.038990956
000050 c9 4b 18 bd fc 8e 24 3e ba d6 20 3e 6a 66 1e 3e
       -0.03718165 0.16070169 0.15706912 0.15468755
000060 ba 03 30 3d bc 5b 50 3a 69 5c 28 3e 6a cd 18 3e
       0.042972304 0.000794824 0.16441502 0.14922109
000070 f3 b4 c6 bd 24 3a 12 3e ec 23 10 3e 90 df 27 bd
       -0.09702482 0.14279991 0.14076203 -0.04098469
000080 7c 39 22 3e a8 77 c3 3b 63 dd 00 be b3 1e 22 3e
       0.15842241 0.005965192 -0.12584452 0.15832023
000090 62 c2 c3 3d 6a f1 15 3e 57 66 29 3e 23 03 17 bc
       0.0955856 0.14642873 0.16542946 -0.009217056
0000a0 ea 6e 52 3d 53 29 00 3e 48 b5 1a 3e 2a 4c f0 3d
       0.051375307 0.12515764 0.15108216 0.11733277
0000b0 ca 58 a4 bc d2 b7 8d 3d 2a 5a 4d 3d 86 52 5e 3a
       -0.02006187 0.069198266 0.050134815 0.0008480925
0000c0 ec ca a2 3d 55 5b 87 3b 7f ec 9e bd 74 76 0e be
       0.079488605 0.0041307607 -0.07759952 -0.13912374
0000d0 7a b2 c6 bd 1f 1b 14 bc 4e cb 5d bd f7 f3 06 be
       -0.097020105 -0.009039669 -0.054148965 -0.13179003
0000e0 b4 16 02 3d 61 30 31 3c 60 e2 0a be 6e 7a e0 3d
       0.031759933 0.010814757 -0.13562918 0.109608516
0000f0 7c 28 31 3e c8 f9 2d 3e 84 b6 74 3c e0 ee a6 bc
       0.173006 0.16989815 0.014936093 -0.020377576
000100 a7 ea 29 be 09 01 b1 bd 19 44 14 3d 91 b3 b0 3d
       -0.16593419 -0.086427756 0.036197755 0.086279996
000110 4f e1 5e bd 53 ae 31 3e 0d d8 0f be a4 73 7b 3c
       -0.05441409 0.17351656 -0.1404726 0.015347395
000120 e9 4f d5 bc 1f 32 f3 3d bc 36 b9 bd e1 8f 0e 3d
       -0.02603908 0.11874794 -0.09043643 0.034805182
000130 8e 2d 43 bd 64 69 61 bc eb 02 fa bd 9f 31 4c bd
       -0.047650866 -0.013758037 -0.12207588 -0.04985201
000140 dd c2 09 3d c4 61 2b be 03 ee 24 be 94 2c 2b bd
       0.0336331 -0.16736513 -0.1610642 -0.04179056
000150 82 44 c9 3d d1 02 df 3d 63 4c 0a 3e 66 21 87 bd
       0.0982752 0.10889209 0.13505702 -0.06598167
000160 75 6a de bd bf c0 b8 3d 8f c3 07 3e 31 6c ef 3c
       -0.10860149 0.090211384 0.13258193 0.029226394
000170 c2 ec 2e be 12 40 d9 bd 0f f1 11 be 47 fd 14 3e
       -0.17082503 -0.106079236 -0.14252113 0.14549743
000180 e6 6f 35 3d 55 a0 b6 bd 0b b9 cc bd 6c 31 02 be
       0.044296168 -0.089173 -0.09996232 -0.12714165
000190 c4 42 26 be 0e 56 2f be bb 43 fc 3d 5b f0 94 3d
       -0.16236407 -0.17122671 0.12317606 0.07272407
0001a0 d2 96 d7 3d 01 f4 00 3e 62 dc ec 3d 4b 83 32 be
       0.105268136 0.1259308 0.11565472 -0.17432897
0001b0 55 69 68 3d d3 55 0b bc 03 f7 09 3c ce 39 31 bd
       0.056741077 -0.008504349 0.008420709 -0.043268017
0001c0 69 ea 88 3d e7 03 ae bc 22 f4 18 3e 7d ed 9e bd
       0.06685335 -0.021242095 0.1493688 -0.07760141
0001d0 47 68 95 3d 16 ee 84 3c 22 a9 78 3d e4 b0 de bb
       0.0729528 0.01622681 0.060708173 -0.0067959893
0001e0 91 c4 19 bd e9 ea f9 bd c8 bf 34 3e 82 6c e3 bd
       -0.037540976 -0.12203009 0.17651284 -0.111046806
0001f0 53 14 fb 3d 81 64 b8 3b 25 74 6b bd b4 b2 04 3e
       0.12259736 0.0056272154 -0.05748381 0.12958795
000200 03 24 69 bd f8 2b 2a 3e e2 18 71 3d 88 ea 09 3e
       -0.05691911 0.16618335 0.05886162 0.13468373
000210 a9 c9 23 be 2c 41 0f bd b8 95 f0 3c aa 2e 0f be
       -0.15994896 -0.034974262 0.029368266 -0.13982645
000220 68 43 99 bc 57 85 18 3e b8 18 01 be b1 07 90 3d
       -0.0187089 0.14894615 -0.12607086 0.07032717
000230 40 47 08 bd 3a 50 1d 3e 61 ca a5 bd 03 d1 df bd
       -0.033271074 0.15362635 -0.08095241 -0.10928538
000240 74 b1 c0 3d 88 8e 01 be 59 b9 a4 3d cb f9 5d 3d
       0.094088465 -0.12652028 0.08043165 0.0541933
000250 4d 72 ce bd ae 9a 43 3d 32 bb e5 3d f0 66 24 be
       -0.10080395 0.047754936 0.11217345 -0.16054893
000260 49 23 0b bc da f5 85 3d 73 af 1a be fb 20 5f bd
       -0.008492299 0.06541033 -0.15105991 -0.054474812
000270 29 46 f8 bd 34 fd 1c 3e 7b 33 c4 bd cb b0 5c 3c
       -0.12122757 0.15330964 -0.095801316 0.013469885
000280 e9 04 88 3d 40 f0 eb bc 32 8f 31 be 2b cc a3 3d
       0.066415615 -0.028801084 -0.17339781 0.07997926
000290 7a 9c 30 3d 7e 0a 8c 3d 54 3d bf 3d 6c c7 ae 3d
       0.043117978 0.06837939 0.09337869 0.085341305
0002a0 a0 b2 76 bd be b8 31 be 4f 81 99 bd b0 dc f5 bc
       -0.060228944 -0.1735563 -0.07495367 -0.030012459
0002b0 80 c9 88 bd 32 bb 1f be 09 00 df 3d b6 ff 23 bd
       -0.06679058 -0.15598753 0.108886786 -0.040038787
0002c0 11 bc a2 bd c3 ec 28 bd 15 7e b0 bb db 4f aa 3d
       -0.07946027 -0.04124142 -0.005386124 0.083160125
0002d0 c8 25 22 3e 0b bc d8 bd f2 04 04 be cf 88 19 3e
       0.15834725 -0.10582741 -0.12892511 0.14993595
0002e0 4a 30 0d be 7d e8 56 bd d9 d6 85 3d b9 e8 03 3e
       -0.13787952 -0.05246781 0.065351196 0.12881745
0002f0 bb 1a 12 be 25 6e 10 be 22 ce 00 3e 02 15 a7 3c
       -0.1426801 -0.14104517 0.12578633 0.02039576
000300 2a 84 93 bd 38 00 14 3d 83 37 30 bd e9 54 86 3d
       -0.07202943 0.03613302 -0.04302169 0.06559164
000310 03 b1 5c 3d 34 c5 1e 3c 63 b3 2a be fb 5a 21 be
       0.05387975 0.009690572 -0.16669993 -0.15757363
000320 d2 f5 54 bd 6c 91 18 be bd d0 1f be f9 89 5f bd
       -0.051992245 -0.14899224 -0.15606971 -0.05457494
000330 83 ce 9d 3d de 79 30 bd 06 7f 87 bd 66 57 62 bd
       0.077054046 -0.04308497 -0.06616025 -0.05525913
000340 a9 38 0b be 84 c0 8a bd b6 23 2c bd 33 e2 ac 3d
       -0.13595833 -0.06775001 -0.042026244 0.084415816
000350 b6 c4 6f 3d fc 5e 7a 3d b9 58 82 3b 6e 1c a8 bd
       0.058537208 0.06112574 0.0039778617 -0.082085475
000360 a3 ee a0 3d 68 60 26 3e fa 91 d2 bd 75 b6 5f bd
       0.07858016 0.16247714 -0.10281749 -0.054617364
000370 f4 f8 17 be 84 6f fc 3d d9 fe 2a be 64 4c 0b 3d
       -0.14841062 0.123259574 -0.16698779 0.0340084
000380 f1 cb 0e be d4 71 b2 bd 62 39 07 be d1 01 0c 3e
       -0.13944985 -0.08713117 -0.13205484 0.13672568
000390 0f 27 78 bd 3b f4 7a 3d 23 bb fa 3d 47 3a 19 3e
       -0.060584124 0.061268073 0.12242725 0.14963637
0003a0 63 91 dd 3d 6e b8 ff bc 6a 81 90 bd 70 12 08 3e
       0.10818746 -0.031215873 -0.07055934 0.13288283
0003b0 1e 52 0f 3e 09 8f f3 bd 94 42 af bd 3e 46 c2 3d
       0.13996169 -0.11892516 -0.08557621 0.09486054
0003c0 92 0e 26 be a8 ad 32 be e0 6a 6c bd 68 06 2e 3e
       -0.16216496 -0.17449057 -0.05771911 0.16994631
0003d0 3b ab 28 be 0b c6 0d be c9 08 cb bd 72 d4 1b be
       -0.16471569 -0.13845079 -0.09913785 -0.1521776
0003e0 1f 9c df bd b1 6e 12 3e bf 8d 19 bd 2c 29 db bd
       -0.109184496 0.14300038 -0.037488695 -0.10701212
0003f0 8d 49 6f bd e8 c2 a9 3d 69 3d 93 3d 58 44 13 3e
       -0.058419753 0.082891285 0.071894474 0.1438154

fcn.module.0.bias f4 [32]
000000 f3 ec db bd d0 5a 5e 3d 10 91 22 be ae 06 ab bc
       -0.10738554 0.054285824 -0.1587565 -0.020877209
000010 6b 6f c9 3d c6 b4 3e bd 1c b6 9a 3c f2 47 36 be
       0.098357044 -0.046559118 0.018885665 -0.17800882
000020 85 d6 7a bd 0d 98 eb 3d 97 bd 13 be 1c dd b6 3d
       -0.061239738 0.11503611 -0.14427792 0.08928892
000030 e6 ec e2 bd bc 8a 06 be 71 a7 16 be 4f 8e 12 be
       -0.11080341 -0.1313886 -0.14712311 -0.14312099
000040 c1 8d b9 3c 81 a6 fe bd 27 2a 73 3d aa 59 9e bd
       0.022650601 -0.12434102 0.05936637 -0.07731946
000050 73 da b9 bd 15 f6 06 3e 78 d3 dd 3d 57 7a bd 3d
       -0.09074869 0.1317981 0.1083135 0.0925185
000060 c0 91 30 3d ec c5 0f be 18 e1 14 3e a8 7b 10 3e
       0.043107748 -0.14040345 0.14538991 0.14109671
000070 dd 2d 70 bd 45 4a 21 3e 4f 9e 60 bd fd 30 01 bc
       -0.05863749 0.15750988 -0.054838475 -0.007885215

fcn.module.3.weight f4 [1, 32]
000000 ef 52 8f bd 1e 4b ef 3d 2f 71 b9 3d 60 67 90 3d
       -0.0699824 0.11684249 0.09054791 0.07050967
000010 7b bb e8 bd 07 39 d0 bc 36 97 f2 bd 79 58 c3 bc
       -0.11363884 -0.025417818 -0.118452474 -0.023845898
000020 57 ed 27 be 2b d2 f6 bd 43 81 e4 3d bb 87 fb bd
       -0.16399132 -0.12051805 0.11157467 -0.12281748
000030 9e 2f 08 be e1 0c e6 bd 01 3e 88 3c 50 8b 32 3e
       -0.13299415 -0.11232925 0.016631128 0.17435956
000040 fb 2c d6 bd 50 6f 37 3c 8f 09 1f be a1 c7 b8 bc
       -0.10457798 0.011195973 -0.1553099 -0.022556128
000050 30 ef 16 3e a9 74 56 3c c1 9a 6e 3d a4 6e 12 3e
       0.1473968 0.013089337 0.058253054 0.14300019
000060 f0 ae 83 3d da aa c2 bd 53 3d d0 bd 02 df c2 ba
       0.06429851 -0.095052436 -0.10167947 -0.0014867487
000070 09 2f d8 bd 9f e7 25 be de 2c 04 3d f3 74 3c 3c
       -0.10555846 -0.16201638 0.03226935 0.011502492

exp_avg f4 [16, 4, 16]
000000 33 79 63 bb b4 a2 0e bb 2c 16 36 ba ff 3b ac bb
       -0.0034709692 -0.002176446 -0.0006946053 -0.0052561755
000010 de 4f 06 bc 89 54 28 bc 41 5e 93 bb 24 09 af bb
       -0.008197753 -0.010274061 -0.00449732 -0.005341666
000020 3e 13 b0 ba f6 bc e4 bb 4b 87 0b bb fc e7 ac bb
       -0.0013433469 -0.0069805337 -0.0021290358 -0.005276678
000030 9b 84 08 bc 75 fe d9 bb 0c e9 2a bb 65 5d 01 bc
       -0.008332397 -0.006652648 -0.0026078848 -0.007895802
000040 ac e7 90 bb df 9e 24 bc 09 4e fb bb a7 74 ef bb
       -0.0044221487 -0.010047643 -0.0076692146 -0.007307607
000050 d6 58 85 bb 73 6e 98 bb 52 26 87 bb 2b bd b1 bb
       -0.004069428 -0.0046518384 -0.004124441 -0.005424162
000060 fd c6 da ba 00 21 c3 bb 6f 66 48 bb b3 98 25 bc
       -0.0016691383 -0.0059548616 -0.0030578633 -0.010107207
000070 6a a3 01 bb b6 81 8c bb a6 6a 35 bc b2 34 4f bb
       -0.001978124 -0.0042879237 -0.01107279 -0.0031617102
000080 77 a0 32 bc d1 64 98 bb 0d c0 18 bc ed d5 3a bb
       -0.010902516 -0.00465069 -0.009323132 -0.0028508857
000090 f3 0d ac bb 58 05 6a bb a3 0f 50 bb b4 3a 53 bb
       -0.0052506863 -0.0035708752 -0.0031747601 -0.0032231035
0000a0 24 6f 04 bc 9a 86 7f bb da 40 55 bc 0d 84 0c bb
       -0.008083139 -0.003899014 -0.01301595 -0.0021441013
0000b0 32 c9 b9 bb 91 51 05 bb d3 45 17 bb 2a 2c 06 bc
       -0.0056697363 -0.0020342807 -0.002308239 -0.0081892405
0000c0 cb 45 16 bb 30 14 8a bb 63 ee 5e bb 7c ec b9 bb
       -0.0022929783 -0.0042138323 -0.0034016601 -0.005673943
0000d0 2c 03 6a bb cb db 29 bb da 3d 18 bc 70 a4 e8 bb
       -0.0035707457 -0.002591836 -0.00929209 -0.0070996806
0000e0 a1 b9 23 bc d6 66 8b bb 13 1f 3d bb 65 59 69 bb
       -0.009992988 -0.0042542024 -0.0028857633 -0.0035606262
0000f0 fd 63 a7 bb 92 ef 04 bc 5e 1b a7 bb 83 6a f1 ba
       -0.005108355 -0.008113759 -0.005099698 -0.0018418584
000100 b6 e4 43 b9 0e 89 7f 3a 2c ea 23 3a 56 4f 12 3b
       -0.0001868185 0.0009747901 0.0006252851 0.002232512
000110 a0 d8 69 3a 13 1a d2 3a 56 34 9e 3a 84 1c c0 39
       0.0008920524 0.0016029499 0.0012070041 0.0003664234
000120 5a 9d 00 3b d7 ce 29 3b 8c ed 28 3b 5e d8 2b 3b
       0.001962504 0.002591064 0.0025776355 0.0026221494
000130 ba c6 9e 38 35 e0 1c 3b a5 17 30 3b 85 6b 83 3a
       7.571043e-05 0.0023937349 0.0026869562 0.001002655
000140 2f b5 a7 3a 1a b9 b1 b9 3c 6f 27 3a 15 9f cf b9
       0.0012795086 -0.00033897982 0.00063871196 -0.00039600642
000150 c0 66 7f 39 2d 9a 27 3b ec 57 9a 38 6f 65 98 3a
       0.00024356972 0.0025574074 7.359669e-05 0.0011626909
000160 79 f7 95 3a ae 05 b6 39 96 9d b0 3a 75 19 94 39
       0.001144155 0.00034717977 0.0013474699 0.00028247727
000170 40 fc 17 3b 21 89 60 b9 4a ea 86 39 d0 65 4f 3b
       0.0023191124 -0.00021413389 0.0002573303 0.0031646378
000180 37 c4 db 3a d2 84 46 ba 04 ae f3 3a b1 fb eb 3a
       0.0016766851 -0.00075728924 0.0018591289 0.0018004087
000190 6e 08 36 3b 07 12 06 b9 79 d3 01 3b 07 80 16 3b
       0.002777602 -0.00012785952 0.0019809885 0.0022964494
0001a0 19 be 7d 3a 04 26 52 3a 50 cb 64 b9 bb 2d 3a 37
       0.0009679511 0.0008016529 -0.00021819514 1.1097111e-05
0001b0 58 78 25 3a c3 13 45 3a 18 c7 92 3a cf 23 ab 38
       0.0006312183 0.00075178983 0.001119825 8.160585e-05
0001c0 95 2d 95 3a a4 05 84 3b 58 9f 4d 3a 26 df 8d 39
       0.0011381382 0.0040289927 0.00078438735 0.00027059874
0001d0 3e 9d bf b6 4f 0e 03 b9 3c 53 29 3a 73 dc ab 38
       -5.710549e-06 -0.00012498464 0.0006459241 8.194977e-05
0001e0 b2 36 2f b9 51 c2 2f 39 1d 59 52 39 ee fe 81 3a
       -0.00016709676 0.00016761689 0.00020060358 0.0009917894
0001f0 9a 12 67 3a 7a e2 7f 3a 87 34 24 b9 f8 fb b2 b9
       0.00088147225 0.00097612257 -0.00015659827 -0.00034138537
000200 72 87 af 3b c2 f9 39 3c f4 60 3c 3c f3 16 ee 3b
       0.0053567225 0.011351051 0.011497725 0.0072659194
000210 b3 6f 44 3c f1 fc bd 3b 74 b1 08 3c 51 6a c4 3b
       0.011989522 0.005797975 0.008343089 0.005994119
000220 e6 e0 45 3c 01 36 f5 3b b5 07 14 3c 6a 2e 49 3b
       0.012077546 0.0074832444 0.009035041 0.003069783
000230 04 03 1f 3c d2 d1 89 3b be 99 8f 3b 1b 5d 1b 3c
       0.009705309 0.0042059207 0.004382341 0.009482647
000240 ef 3d 2c 3c d7 45 1e 3c 41 12 65 3b 08 80 25 3b
       0.010512813 0.009660206 0.0034953507 0.0025253315
000250 51 d1 3b 3b 37 8d 87 3c 4e c8 26 3c b2 cc 28 3c
       0.0028658698 0.016546829 0.010179592 0.010302709
000260 86 d3 57 3b 15 a4 8c 3b e6 12 4c 3c ab 51 e2 3b
       0.0032932474 0.004292021 0.012455678 0.0069067082
000270 7b 4f 17 3c 8d 8c 62 3b b6 7d cc 3b 5b bc 26 3c
       0.009235258 0.0034568638 0.006240572 0.010176743
000280 b5 df 41 3c fd 66 85 3b 98 4d 0c 3c 15 ec ae 3c
       0.011833121 0.004071115 0.008563422 0.021352807
000290 c5 ad 6f 3b c3 d4 8d 3b a3 fa d5 3b 8e ce 36 3c
       0.003657208 0.0043283417 0.0065301224 0.011157645
0002a0 87 b3 6b 3c 97 56 9d 3c 27 be 2c 3b b3 3c a2 3c
       0.014386064 0.019206328 0.0026358457 0.019804334
0002b0 19 ae 4c 3c bc 27 9b 3c 43 72 2f 3c 0d 3d 41 3c
       0.01249268 0.018939845 0.010708394 0.011794341
0002c0 ad 47 e8 3b 1b 12 1f 3c 14 12 38 3c 35 06 6f 3b
       0.0070886225 0.0097089065 0.011234779 0.0036472206
0002d0 dd 5a 85 3c eb 01 05 3c 20 8e 1f 3c 91 69 f0 3b
       0.016278679 0.008118133 0.009738475 0.0073368032
0002e0 cc f7 a4 3b ea ab 79 3b 0e bb 2e 3c b0 2e a4 3b
       0.0050344225 0.0038096854 0.0106647145 0.0050104484
0002f0 6f 12 5c 3b b0 29 06 3c 35 87 5c 3c c6 ba 5a 3b
       0.0033580323 0.00818865 0.01345997 0.0033375486
000300 7b c6 d6 3a 97 62 09 3b b4 13 3d 3b 08 f7 81 3b
       0.0016386056 0.0020963305 0.0028850855 0.003966216
000310 88 d6 62 3b a5 bc 0c 3b 34 b3 54 3b 3a ee 59 3b
       0.0034612734 0.0021474746 0.0032455446 0.0033253566
000320 fc df 96 3b b5 e9 d8 3a ee 6e 6a 3b 66 99 83 3b
       0.0046043377 0.0016549142 0.0035771686 0.0040160893
000330 2b 78 2d 3b 5d e7 33 3b c2 86 47 3b 3d e8 14 3b
       0.002646933 0.0027451136 0.0030445312 0.0022721433
000340 b3 e0 3a 3b 6c 1c 39 3b c2 16 f2 3a db 9c 2b 3b
       0.0028515279 0.00282457 0.0018469917 0.0026186022
000350 62 55 ff 3a 5c aa 40 3b e1 44 26 3b fe f1 36 3b
       0.0019480402 0.0029398417 0.0025370645 0.0027915235
000360 8d 77 1c 3b 52 e8 8e 3b 56 1d 31 3b 94 e2 18 3b
       0.0023874969 0.004361191 0.0027025542 0.002332841
000370 51 d5 5d 3b 33 23 24 3b 10 0c c4 3a 21 59 0f 3b
       0.003384907 0.0025045394 0.0014957208 0.0021873193
000380 d7 e8 2b 3b 9d b1 e2 3a 9a 07 ae 3b 2b 59 01 3b
       0.0026231313 0.0017295365 0.005310965 0.0019736986
000390 eb 59 72 3b df a8 fc 3a 1c e1 a0 3b 5f 1f 64 3b
       0.0036979865 0.0019276402 0.0049096476 0.0034808738
0003a0 02 46 01 3b 10 f9 6e 3b f3 f3 67 3b 1a f3 3b 3b
       0.0019725566 0.003646437 0.0035393208 0.0028678835
0003b0 ca a5 9b 3b 65 6a b5 3b a2 74 8a 3b 73 03 20 3b
       0.004749988 0.005536365 0.0042253295 0.0024416118
0003c0 cb 87 ad 3b 47 b2 bc 3b 19 0e 1b 3b 4e 58 7c 3b
       0.005295729 0.005758557 0.0023659526 0.0038504782
0003d0 41 61 58 3b 79 c0 b0 3b 2e 04 e1 3a cb 3c 38 3b
       0.0033016952 0.0053940383 0.0017167383 0.0028112407
0003e0 db be 61 3b d3 fd 33 3b 2a bc 29 3b e4 33 51 3b
       0.0034446034 0.0027464523 0.0025899508 0.0031921798
0003f0 a5 46 d5 3a 0e ba d4 3a 55 c6 6e 3b c9 7b b4 3b
       0.0016271664 0.0016229765 0.0036434133 0.0055079204

exp_avg_sq f4 [16, 4, 16]
000000 f9 ce d8 34 ba 41 33 34 78 36 f4 32 5b 6b 74 35
       4.0383728e-07 1.6694585e-07 2.8430108e-08 9.1053306e-07
000010 f1 08 f7 35 6b ba 6e 36 0c 98 1d 35 e2 78 48 35
       1.8405536e-06 3.5573273e-06 5.8708315e-07 7.4681714e-07
000020 04 48 94 33 c2 e7 ca 35 51 f1 0d 34 34 be 49 35
       6.9048866e-08 1.5117623e-06 1.3219439e-07 7.5155117e-07
000030 57 89 f8 35 67 1e 9b 35 f1 42 62 34 9a a3 f6 35
       1.8517411e-06 1.1557248e-06 2.1072243e-07 1.8376043e-06
000040 fc 83 0d 35 be d4 41 36 47 dd ee 35 1a 88 c6 35
       5.2718656e-07 2.8883073e-06 1.7796782e-06 1.479176e-06
000050 eb 9e fa 34 08 fc 29 35 0a 3f 0a 35 02 84 63 35
       4.6681757e-07 6.332416e-07 5.150074e-07 8.4756186e-07
000060 5e 5f 9f 33 43 9b 83 35 dd f3 8a 34 7c 5d 5f 36
       7.421362e-08 9.805448e-07 2.5881937e-07 3.3284005e-06
000070 ab 38 0d 34 50 88 08 35 10 8b 72 36 e7 1f 9f 34
       1.3152264e-07 5.086231e-07 3.6141755e-06 2.963927e-07
000080 ee bf 5d 36 ef 60 30 35 6a 9f 1d 36 4b 1d 86 34
       3.3043284e-06 6.5706166e-07 2.3487614e-06 2.4980758e-07
000090 c6 74 54 35 49 de c6 34 e1 44 8a 34 cb 87 1d 35
       7.914608e-07 3.7042108e-07 2.575462e-07 5.868466e-07
0000a0 48 bf fe 35 7f f5 d9 34 e8 d6 a3 36 ac ad 1e 34
       1.8980145e-06 4.0598022e-07 4.882797e-06 1.4778078e-07
0000b0 8e 23 97 35 d3 a6 27 34 d2 3a 23 34 7e 6f f4 35
       1.1260724e-06 1.5613777e-07 1.5201957e-07 1.8211865e-06
0000c0 0a 4e 49 34 af db ff 34 85 de bf 34 cd 39 7b 35
       1.8747974e-07 4.7657292e-07 3.5738427e-07 9.35889e-07
0000d0 c4 32 f7 34 df bc 42 34 07 0c 31 36 8d 7d bb 35
       4.6044272e-07 1.8136369e-07 2.6382056e-06 1.3969126e-06
0000e0 57 b3 40 36 cf 76 26 35 9d 0c 7e 34 c2 c6 d3 34
       2.871462e-06 6.201271e-07 2.3660182e-07 3.9446428e-07
0000f0 a3 30 3e 35 33 52 0a 36 82 46 60 35 f5 e3 0f 34
       7.085129e-07 2.0611449e-06 8.3549105e-07 1.3400843e-07
000100 2b d3 94 32 8e a6 0c 34 08 3a f9 32 90 40 2f 34
       1.7325496e-08 1.3099108e-07 2.9013805e-08 1.6321633e-07
000110 7c cc 82 33 ca 0f 0f 34 70 f6 92 33 56 04 93 33
       6.090792e-08 1.3323657e-07 6.8434815e-08 6.8460096e-08
000120 66 a6 39 34 28 9b 12 35 81 73 96 34 fb 12 85 34
       1.7290003e-07 5.461502e-07 2.8023717e-07 2.478699e-07
000130 0b 32 79 32 59 b4 6c 34 2e f0 b8 34 7f f2 20 33
       1.4505086e-08 2.2044823e-07 3.4447424e-07 3.7473452e-08
000140 ab f4 ad 33 88 9c 8e 32 91 9f 4d 33 91 97 b8 31
       8.100445e-08 1.6602158e-08 4.7875407e-08 5.372336e-09
000150 e9 88 e3 32 cc e8 b1 34 97 e4 cc 32 a5 ed 00 34
       2.6488538e-08 3.31382e-07 2.3852676e-08 1.2007384e-07
000160 15 9f 09 34 11 62 9c 32 14 cb b9 33 e6 9a b3 32
       1.2816993e-07 1.8205386e-08 8.6516735e-08 2.0908782e-08
000170 2a 1d 69 34 f7 f3 39 32 4f 25 21 32 e7 f7 bb 34
       2.1710426e-07 1.08238885e-08 9.379916e-09 3.5011837e-07
000180 c3 74 6d 34 1c de aa 32 2d 11 9a 34 6a e7 83 34
       2.2114823e-07 1.9891608e-08 2.8697232e-07 2.4569027e-07
000190 40 13 97 34 ae d8 50 32 48 5f 5e 34 0d e4 4c 34
       2.8139948e-07 1.2156461e-08 2.0710024e-07 1.9081945e-07
0001a0 0c 8f 57 33 d3 1b 1a 33 6b 8d 9b 32 43 59 28 33
       5.018869e-08 3.5881225e-08 1.8108684e-08 3.919673e-08
0001b0 bb 48 51 33 ab d3 1a 34 ca 3d a9 33 c9 e8 4b 32
       4.8727752e-08 1.4419372e-07 7.880915e-08 1.1869084e-08
0001c0 d5 ab 8d 33 3a 05 13 35 78 8a 16 33 91 16 82 33
       6.59708e-08 5.4769373e-07 3.5050533e-08 6.0577015e-08
0001d0 06 8a f1 32 97 4e 83 32 8b ea 93 33 a0 ef f8 32
       2.8118858e-08 1.5286146e-08 6.887884e-08 2.8979969e-08
0001e0 be 4a 93 32 99 58 c5 32 aa 9d b3 32 9b 3d 87 33
       1.7147041e-08 2.2974108e-08 2.091004e-08 6.297633e-08
0001f0 00 51 c6 33 c6 9f 19 33 9b 00 40 32 35 d8 9a 33
       9.234827e-08 3.57684e-08 1.1176009e-08 7.210512e-08
000200 12 c7 a0 35 0c 8c a3 36 40 f1 8b 36 5f 6a f8 35
       1.1978866e-06 4.874082e-06 4.170608e-06 1.8508398e-06
000210 2e de b4 36 28 b2 c2 35 f8 e8 25 36 a4 3f a5 35
       5.390283e-06 1.4505977e-06 2.4722522e-06 1.231198e-06
000220 e1 8b a3 36 2f 99 20 36 0c 3c 55 36 35 8c d7 34
       4.8740626e-06 2.3931022e-06 3.1774425e-06 4.0148885e-07
000230 af 38 66 36 80 da 55 35 f5 7b 41 35 0f 15 61 36
       3.4305665e-06 7.966664e-07 7.2078484e-07 3.353987e-06
000240 de e1 9f 36 7c a9 38 36 8e 15 0d 35 93 cf a1 34
       4.7648637e-06 2.751679e-06 5.255796e-07 3.0139617e-07
000250 11 df a8 34 e3 cd 13 37 c0 ef 6b 36 61 4c 7a 36
       3.145474e-07 8.8098195e-06 3.5157282e-06 3.7297361e-06
000260 6d ee e3 34 30 c5 50 35 77 fe b1 36 62 91 cd 35
       4.2455522e-07 7.7772984e-07 5.3046347e-06 1.5316002e-06
000270 71 a5 59 36 69 16 df 34 0d a4 b7 35 21 c7 7a 36
       3.243182e-06 4.1553292e-07 1.3682308e-06 3.7368811e-06
000280 a4 a5 84 36 64 3f 1c 35 25 d1 33 36 9e 7f 80 37
       3.9531897e-06 5.8206774e-07 2.6794817e-06 1.5318215e-05
000290 ad 10 27 35 89 67 51 35 c7 b7 e2 35 dd a1 94 36
       6.2236614e-07 7.800923e-07 1.6891798e-06 4.429587e-06
0002a0 55 b9 f6 36 f2 63 3b 37 40 bb 5c 34 83 cf 5f 37
       7.352947e-06 1.1169339e-05 2.0557218e-07 1.3340151e-05
0002b0 92 9a a7 36 75 c6 4a 37 eb b1 86 36 48 67 9f 36
       4.994982e-06 1.2086345e-05 4.0142236e-06 4.750593e-06
0002c0 ea 3c 00 36 bc 55 6c 36 a3 ec 8f 36 1c 21 01 35
       1.9108943e-06 3.5216644e-06 4.2892802e-06 4.8104425e-07
0002d0 58 29 09 37 cb 56 11 36 86 62 52 36 4f 74 f4 35
       8.175462e-06 2.1657204e-06 3.1349787e-06 1.8213267e-06
0002e0 35 2f 55 35 83 1c 16 35 9f 23 83 36 53 21 7a 35
       7.941738e-07 5.5920844e-07 3.908251e-06 9.318075e-07
0002f0 88 df c2 34 66 07 11 36 d0 da c7 36 21 02 ba 34
       3.6297956e-07 2.161099e-06 5.9561353e-06 3.464675e-07
000300 54 1f 2d 34 5e 60 50 34 9c 3c bc 34 8c 7c 37 35
       1.6123278e-07 1.9406568e-07 3.5061828e-07 6.835405e-07
000310 db b3 48 35 32 8c 6e 34 67 bb fe 34 82 3e db 34
       7.476753e-07 2.221648e-07 4.744754e-07 4.083741e-07
000320 54 71 70 35 33 74 15 34 ba b4 f1 34 b0 e8 26 35
       8.957188e-07 1.391898e-07 4.5021244e-07 6.2178424e-07
000330 01 ff 97 34 76 93 c9 34 6a 2c f7 34 ea f6 95 34
       2.8311482e-07 3.754646e-07 4.603965e-07 2.7933066e-07
000340 12 3d fa 34 5d 31 f4 34 3d 76 5e 34 43 05 b2 34
       4.6610563e-07 4.5484458e-07 2.0718376e-07 3.3158912e-07
000350 24 7c 40 34 a0 eb 05 35 d2 04 cb 34 cf 12 d1 34
       1.7926556e-07 4.988924e-07 3.7815204e-07 3.894297e-07
000360 48 12 98 34 61 40 8b 35 53 0b f5 34 70 dc c2 34
       2.8325508e-07 1.0375044e-06 4.5643046e-07 3.6295705e-07
000370 8e 52 19 35 90 4d a4 34 90 01 f6 33 0b ba 86 34
       5.7117074e-07 3.0603815e-07 1.1455552e-07 2.509481e-07
000380 bc cf 98 34 c7 68 1a 34 76 51 be 35 e4 67 62 34
       2.8463353e-07 1.4380485e-07 1.4179811e-06 2.1085685e-07
000390 2c a1 f4 34 40 05 49 34 5d f9 61 35 81 51 23 35
       4.556581e-07 1.8721494e-07 8.4181903e-07 6.0840836e-07
0003a0 88 8c 64 34 f5 4a fc 34 0f 53 1b 35 87 bc aa 34
       2.128528e-07 4.6993196e-07 5.7862866e-07 3.180214e-07
0003b0 c2 8d 8c 35 b1 0b 9d 35 97 03 77 35 e4 46 a0 34
       1.047207e-06 1.1700814e-06 9.2019894e-07 2.9853902e-07
0003c0 9b ee 96 35 4d 1f b9 35 a6 a1 5c 34 25 a2 35 35
       1.1245314e-06 1.3792684e-06 2.0547904e-07 6.7663706e-07
0003d0 d5 9e 12 35 51 0e 9b 35 df 94 7e 34 e3 b2 e3 34
       5.462037e-07 1.1552567e-06 2.3709752e-07 4.2412202e-07
0003e0 6c 1b 0f 35 f2 03 cb 34 fa 45 bb 34 75 9a 17 35
       5.3311555e-07 3.7814567e-07 3.488238e-07 5.647665e-07
0003f0 44 09 fe 33 7b 7f 4c 34 18 27 04 35 c4 e0 a3 35
       1.1829482e-07 1.9045358e-07 4.923072e-07 1.2209862e-06

exp_avg f4 [16]
000000 07 c2 ac bc 9b 0a 80 3b 4c 81 0e 3d 19 4f 4b 3c
       -0.021088613 0.0039075143 0.034791276 0.012408995
000010 90 24 54 bd 9b 85 89 3a 42 a7 35 bd 0f e9 3c 3c
       -0.05179268 0.0010492088 -0.044348963 0.011530175
000020 be b7 2b 3c 80 8c 3a 3b b7 86 d5 bb a5 f5 15 bd
       0.010480819 0.0028465092 -0.0065163034 -0.036611218
000030 9e f5 5e 3b 7e bd 3b bc cc f5 0d 3d b8 89 b4 39
       0.003402091 -0.011458753 0.03465824 0.00034434884

exp_avg_sq f4 [16]
000000 88 8d 52 37 27 00 5d 35 24 e3 2c 38 01 78 ea 36
       1.2549928e-05 8.232914e-07 4.1219537e-05 6.9877137e-06
000010 d1 70 ab 38 99 d8 d3 35 31 0d 85 38 7b 8b dc 36
       8.174929e-05 1.5783763e-06 6.344391e-05 6.5727486e-06
000020 f7 bb af 36 47 bb 00 35 24 db 96 35 a0 f8 24 38
       5.2372884e-06 4.795624e-07 1.1239649e-06 3.9332197e-05
000030 49 32 11 36 ed ec 91 36 fc 4a 43 38 d5 96 52 34
       2.1635954e-06 4.3489185e-06 4.6561458e-05 1.9612646e-07

exp_avg f4 [32, 32]
000000 40 32 fc 38 80 ed ea 39 5d 6a 81 39 25 46 d4 39
       0.00012025656 0.0004480891 0.00024684044 0.00040488053
000010 30 65 ed 39 40 d2 e7 39 7b 3f 02 3a 80 2d d2 39
       0.00045279553 0.00044216402 0.0004968566 0.0004008822
000020 87 df ea 39 35 5c 4f 39 e3 e7 e7 39 4a 43 cf 39
       0.000447985 0.00019775408 0.00044232522 0.0003953225
000030 85 20 2b 39 31 63 de 39 1b 46 8c 39 f2 30 87 39
       0.00016319945 0.00042417043 0.00026755114 0.00025785674
000040 4e 0c a5 36 62 19 c8 38 0a 73 ff 37 f5 04 8f 38
       4.9188156e-06 9.541471e-05 3.0451938e-05 6.819695e-05
000050 34 cf 01 39 6c 5a c7 38 a3 a1 d6 38 bd e6 a6 38
       0.00012379588 9.505902e-05 0.000102344224 7.958475e-05
000060 c7 e6 bd 38 29 cb bb 37 23 a9 df 38 e6 7f b5 38
       9.055208e-05 2.2386741e-05 0.00010664973 8.6545755e-05
000070 b3 89 03 37 23 a8 b4 38 cc c6 b4 37 88 57 35 37
       7.840269e-06 8.614387e-05 2.1550244e-05 1.0808821e-05
000080 02 5c 4c bc 36 38 dd bc f6 2f d7 bc 64 d4 03 bd
       -0.012473108 -0.027004343 -0.026267987 -0.032184973
000090 43 e1 0d bd da 5f f5 bc 93 39 0c bd 1e 76 fb bc
       -0.034638654 -0.029952932 -0.034234595 -0.030695971
0000a0 e2 ab fc bc 64 f5 aa bc b9 04 13 bd d4 93 0a bd
       -0.030843679 -0.020868964 -0.035893176 -0.033832386
0000b0 96 92 59 bc 63 f5 f7 bc 77 6f b0 bc 7f 92 66 bc
       -0.013279578 -0.030268377 -0.021537526 -0.014073013
0000c0 2d 22 26 ba 0c 4f be bb e3 32 41 bb d9 01 b2 bb
       -0.000633749 -0.005807763 -0.0029479794 -0.005432349
0000d0 e1 87 03 bc e1 d0 e5 bb 51 62 ea bb 89 74 ba bb
       -0.0080280015 -0.0070134257 -0.0071528335 -0.0056901616
0000e0 78 7d b6 bb 5e 7c 00 bb 15 d9 0a bc 42 b7 cc bb
       -0.0055691563 -0.0019605379 -0.008474608 -0.006247432
0000f0 27 00 37 ba 0d b5 b8 bb 91 44 0c bb 94 2b 38 ba
       -0.00069809187 -0.0056368173 -0.0021403173 -0.00070255366
000100 00 00 00 00 00 00 00 00 00 00 00 00 00 00 00 00
       0.0 0.0 0.0 0.0
000110 00 00 00 00 00 00 00 00 00 00 00 00 00 00 00 00
       0.0 0.0 0.0 0.0
000120 00 00 00 00 00 00 00 00 00 00 00 00 00 00 00 00
       0.0 0.0 0.0 0.0
000130 00 00 00 00 00 00 00 00 00 00 00 00 00 00 00 00
       0.0 0.0 0.0 0.0
000140 00 00 00 00 00 00 00 00 00 00 00 00 00 00 00 00
       0.0 0.0 0.0 0.0
000150 00 00 00 00 00 00 00 00 00 00 00 00 00 00 00 00
       0.0 0.0 0.0 0.0
000160 00 00 00 00 00 00 00 00 00 00 00 00 00 00 00 00
       0.0 0.0 0.0 0.0
000170 00 00 00 00 00 00 00 00 00 00 00 00 00 00 00 00
       0.0 0.0 0.0 0.0
000180 00 00 00 00 00 00 00 00 00 00 00 00 00 00 00 00
       0.0 0.0 0.0 0.0
000190 00 00 00 00 00 00 00 00 00 00 00 00 00 00 00 00
       0.0 0.0 0.0 0.0
0001a0 00 00 00 00 00 00 00 00 00 00 00 00 00 00 00 00
       0.0 0.0 0.0 0.0
0001b0 00 00 00 00 00 00 00 00 00 00 00 00 00 00 00 00
       0.0 0.0 0.0 0.0
0001c0 00 00 00 00 00 00 00 00 00 00 00 00 00 00 00 00
       0.0 0.0 0.0 0.0
0001d0 00 00 00 00 00 00 00 00 00 00 00 00 00 00 00 00
       0.0 0.0 0.0 0.0
0001e0 00 00 00 00 00 00 00 00 00 00 00 00 00 00 00 00
       0.0 0.0 0.0 0.0
0001f0 00 00 00 00 00 00 00 00 00 00 00 00 00 00 00 00
       0.0 0.0 0.0 0.0
000200 f0 7c 5f 3c 4a 55 f7 3c 0b 2c f2 3c 21 ff 12 3d
       0.013640627 0.030192036 0.029562017 0.03588784
000210 5b a2 1e 3d 08 95 06 3d 82 33 1c 3d 81 08 0c 3d
       0.038729053 0.03285697 0.03813506 0.034187797
000220 92 03 0c 3d dd a8 bf 3c 38 9e 21 3d 3d 24 1b 3d
       0.034183092 0.02339595 0.03945753 0.037876356
000230 15 89 75 3c 0e be 09 3d 00 09 c6 3c f1 96 7b 3c
       0.014986296 0.033628516 0.024174213 0.015355811
000240 1a 5c 3a 3a b7 c4 d6 3b ab 92 59 3b 3a dc c2 3b
       0.0007109061 0.006554212 0.0033198993 0.005946663
000250 d5 c8 12 3c 45 95 fd 3b 48 77 04 3c 1b d3 cd 3b
       0.008959015 0.0077387416 0.0080850795 0.0062812692
000260 89 16 ca 3b 83 6e 10 3b 55 7a 19 3c 3f ee e2 3b
       0.006167237 0.0022038526 0.009367545 0.006925374
000270 9f 5a 4e 3a 3c ed cb 3b 14 27 1c 3b fc 4a 48 3a
       0.000787178 0.006223349 0.0023827003 0.0007640568
000280 38 54 aa 38 3f 04 09 39 14 6d c1 38 71 c6 29 39
       8.121919e-05 0.0001306692 9.2232745e-05 0.00016191021
000290 10 c0 24 39 d8 9b 1e 39 3c cd 2c 39 0e 95 2f 39
       0.00015711808 0.0001512611 0.00016479654 0.00016744828
0002a0 8d c4 1f 39 fb f1 8f 38 30 63 25 39 08 a4 1c 39
       0.00015236643 6.863844e-05 0.00015772576 0.00014938426
0002b0 bc 24 67 38 64 28 d9 38 e3 e9 f6 38 b7 ef 62 38
       5.5108903e-05 0.0001035489 0.00011773759 5.410585e-05
0002c0 88 63 71 36 30 df d7 37 d3 9a 68 37 74 0b d2 37
       3.5969733e-06 2.5733927e-05 1.3864325e-05 2.5039284e-05
0002d0 e5 b8 10 38 93 c1 18 38 cf a0 02 38 00 4b e9 37
       3.4504472e-05 3.6419904e-05 3.114418e-05 2.7810689e-05
0002e0 7c 1b e1 37 50 3a f9 36 70 fc 1a 38 ff 25 e4 37
       2.6834889e-05 7.4275667e-06 3.6951562e-05 2.7197411e-05
0002f0 77 22 67 36 92 4b b6 37 65 b6 58 37 f3 74 68 36
       3.4441744e-06 2.173128e-05 1.291707e-05 3.4638767e-06
000300 00 00 00 00 00 00 00 00 00 00 00 00 00 00 00 00
       0.0 0.0 0.0 0.0
000310 00 00 00 00 00 00 00 00 00 00 00 00 00 00 00 00
       0.0 0.0 0.0 0.0
000320 00 00 00 00 00 00 00 00 00 00 00 00 00 00 00 00
       0.0 0.0 0.0 0.0
000330 00 00 00 00 00 00 00 00 00 00 00 00 00 00 00 00
       0.0 0.0 0.0 0.0
000340 00 00 00 00 00 00 00 00 00 00 00 00 00 00 00 00
       0.0 0.0 0.0 0.0
000350 00 00 00 00 00 00 00 00 00 00 00 00 00 00 00 00
       0.0 0.0 0.0 0.0
000360 00 00 00 00 00 00 00 00 00 00 00 00 00 00 00 00
       0.0 0.0 0.0 0.0
000370 00 00 00 00 00 00 00 00 00 00 00 00 00 00 00 00
       0.0 0.0 0.0 0.0
000380 4a 16 2a 3a 8d dd e9 3a 00 f4 e0 3a 95 8f 21 3b
       0.00064883067 0.0017842517 0.0017162561 0.0024652232
000390 9a b1 10 3b d4 77 09 3b d1 ff 18 3b 91 94 0f 3b
       0.0022078515 0.0020975964 0.0023345838 0.002190862
0003a0 2f 5f 12 3b fd aa ba 3a ef 91 19 3b 0e 33 20 3b
       0.0022334566 0.0014241632 0.002343293 0.0024444493
0003b0 20 fa 8b 3a 52 27 fb 3a f2 ba c3 3a 0a 30 91 3a
       0.0010679401 0.0019161499 0.0014933033 0.0011076939
0003c0 63 30 06 38 d5 70 cb 39 40 8d 5d 39 c1 50 d6 39
       3.1993153e-05 0.00038803244 0.00021128822 0.00040877427
0003d0 f0 ad fe 39 ed d2 fa 39 ff cb eb 39 ab 69 d7 39
       0.0004857625 0.00047840868 0.00044974682 0.00041086724
0003e0 e2 92 d1 39 02 2c 10 39 8c 83 10 3a dc 5a d3 39
       0.00039973023 0.00013749304 0.0005512766 0.00040312752
0003f0 70 90 77 38 5b 50 b6 39 08 c1 2b 39 a0 96 6f 38
       5.9023907e-05 0.00034773615 0.0001637974 5.712232e-05

exp_avg_sq f4 [32, 32]
000000 23 6e d4 30 53 2e a2 32 6f 4f f3 31 e0 1d 83 32
       1.5456333e-09 1.8880348e-08 7.0812614e-09 1.5263993e-08
000010 38 2e a1 32 4b e0 98 32 84 a8 cc 32 43 65 92 32
       1.8763885e-08 1.7797126e-08 2.3825358e-08 1.7042685e-08
000020 ac e6 bc 32 78 74 8f 31 cb 58 ad 32 20 4e 53 32
       2.1990978e-08 4.1750887e-09 2.0180229e-08 1.229958e-08
000030 ae 4b 1f 31 91 c9 8b 32 09 cd 0b 32 d1 a0 d1 31
       2.3180564e-09 1.6273392e-08 8.1374845e-09 6.1009833e-09
000040 7a 0e 04 2c e0 cf 91 30 e7 bd 2d 2f 0a 39 04 30
       1.8766364e-12 1.060922e-09 1.5801725e-10 4.810238e-10
000050 d1 d8 a3 30 7d ae 94 30 ef bd 6d 30 da e5 55 30
       1.1921434e-09 1.081801e-09 8.649001e-10 7.781559e-10
000060 08 43 84 30 de 1f 93 2e d2 53 a6 30 05 dc 14 30
       9.623315e-10 6.690447e-11 1.2101913e-09 5.4154753e-10
000070 b6 f4 02 2d f2 65 07 30 bc 8b b0 2e 78 64 5a 2d
       7.443981e-12 4.9257587e-10 8.028375e-11 1.2414174e-11
000080 d6 79 9d 36 ec 49 cf 37 e1 c9 bb 37 c9 3d 11 38
       4.693148e-06 2.4710745e-05 2.2386144e-05 3.4628236e-05
000090 d1 b8 1b 38 9d 13 f9 37 aa ae 17 38 6e a0 04 38
       3.7127003e-05 2.9692246e-05 3.6163874e-05 3.1620664e-05
0000a0 9e 4e 08 38 13 48 77 37 a5 38 27 38 34 91 14 38
       3.2498145e-05 1.4739128e-05 3.9868657e-05 3.542118e-05
0000b0 04 13 c8 36 25 75 e9 37 3c dd 83 37 da a5 e7 36
       5.962678e-06 2.7830314e-05 1.5719437e-05 6.903644e-06
0000c0 d7 69 3d 32 f0 90 a4 35 7e d2 a9 34 7a 18 8d 35
       1.1025313e-08 1.2261135e-06 3.1631856e-07 1.0512442e-06
0000d0 f7 ee f8 35 48 07 db 35 56 41 c7 35 fb 8e 9e 35
       1.8546988e-06 1.6318891e-06 1.4845671e-06 1.181353e-06
0000e0 89 d6 99 35 9a cb 17 34 63 d9 13 36 52 a9 95 35
       1.1461826e-06 1.413704e-07 2.2031243e-06 1.1150644e-06
0000f0 82 3a a2 32 6e 13 72 35 53 8b 34 34 5e e2 9a 32
       1.8885888e-08 9.01803e-07 1.6814492e-07 1.80309e-08
000100 00 00 00 00 00 00 00 00 00 00 00 00 00 00 00 00
       0.0 0.0 0.0 0.0
000110 00 00 00 00 00 00 00 00 00 00 00 00 00 00 00 00
       0.0 0.0 0.0 0.0
000120 00 00 00 00 00 00 00 00 00 00 00 00 00 00 00 00
       0.0 0.0 0.0 0.0
000130 00 00 00 00 00 00 00 00 00 00 00 00 00 00 00 00
       0.0 0.0 0.0 0.0
000140 00 00 00 00 00 00 00 00 00 00 00 00 00 00 00 00
       0.0 0.0 0.0 0.0
000150 00 00 00 00 00 00 00 00 00 00 00 00 00 00 00 00
       0.0 0.0 0.0 0.0
000160 00 00 00 00 00 00 00 00 00 00 00 00 00 00 00 00
       0.0 0.0 0.0 0.0
000170 00 00 00 00 00 00 00 00 00 00 00 00 00 00 00 00
       0.0 0.0 0.0 0.0
000180 00 00 00 00 00 00 00 00 00 00 00 00 00 00 00 00
       0.0 0.0 0.0 0.0
000190 00 00 00 00 00 00 00 00 00 00 00 00 00 00 00 00
       0.0 0.0 0.0 0.0
0001a0 00 00 00 00 00 00 00 00 00 00 00 00 00 00 00 00
       0.0 0.0 0.0 0.0
0001b0 00 00 00 00 00 00 00 00 00 00 00 00 00 00 00 00
       0.0 0.0 0.0 0.0
0001c0 00 00 00 00 00 00 00 00 00 00 00 00 00 00 00 00
       0.0 0.0 0.0 0.0
0001d0 00 00 00 00 00 00 00 00 00 00 00 00 00 00 00 00
       0.0 0.0 0.0 0.0
0001e0 00 00 00 00 00 00 00 00 00 00 00 00 00 00 00 00
       0.0 0.0 0.0 0.0
0001f0 00 00 00 00 00 00 00 00 00 00 00 00 00 00 00 00
       0.0 0.0 0.0 0.0
000200 c8 a4 b7 36 f2 b1 f8 37 95 53 e6 37 fa 33 2f 38
       5.473008e-06 2.9646766e-05 2.7457058e-05 4.177166e-05
000210 99 e5 3d 38 cb e9 13 38 22 5f 38 38 9f d3 1c 38
       4.527494e-05 3.5265268e-05 4.3957618e-05 3.7390386e-05
000220 c4 ff 21 38 c6 3b 97 37 3c f7 46 38 51 58 36 38
       3.862359e-05 1.8028437e-05 4.7437134e-05 4.3474432e-05
000230 7f f1 f5 36 43 f2 0f 38 26 9f 9e 37 22 98 03 37
       7.329683e-06 3.431948e-05 1.8909177e-05 7.84363e-06
000240 09 03 6b 32 13 bd c3 35 ec d0 ce 34 13 4e a8 35
       1.367949e-08 1.458366e-06 3.85225e-07 1.2539698e-06
000250 2d b3 18 36 e0 1a 05 36 19 82 f7 35 e2 ce b8 35
       2.275406e-06 1.9834188e-06 1.8440797e-06 1.3769279e-06
000260 ce 72 b5 35 c8 21 37 34 f6 80 33 36 dd 00 b7 35
       1.3518963e-06 1.7055493e-07 2.6748144e-06 1.3634814e-06
000270 53 2b c6 32 2c f4 95 35 bf d3 5a 34 d1 72 b4 32
       2.3069935e-08 1.1172428e-06 2.0379865e-07 2.100697e-08
000280 13 c9 40 30 34 f7 f5 30 3f 46 b0 30 44 61 5b 31
       7.0134937e-10 1.7896356e-09 1.282565e-09 3.1923983e-09
000290 1e 78 44 31 81 86 51 31 de 46 48 31 39 08 59 31
       2.8590033e-09 3.048996e-09 2.9144114e-09 3.158233e-09
0002a0 3f 85 32 31 1d 50 1e 30 f6 ac 3f 31 48 26 24 31
       2.597815e-09 5.7593913e-10 2.7892475e-09 2.3886901e-09
0002b0 50 11 c9 2f 76 fa a4 30 45 16 fe 30 a0 6c d4 2f
       3.6573988e-10 1.2003756e-09 1.8487262e-09 3.8639758e-10
0002c0 3f b2 bc 2b 8d e2 96 2e 4a 26 17 2e e2 a2 ab 2e
       1.3407677e-12 6.861454e-11 3.4367433e-11 7.8051135e-11
0002d0 39 d4 02 2f 55 16 3c 2f 94 07 d6 2e c2 cb d1 2e
       1.1898828e-10 1.7106434e-10 9.7329395e-11 9.540414e-11
0002e0 74 6e c2 2e 4b 67 0c 2d ce f5 1e 2f 86 27 a4 2e
       8.841719e-11 7.981014e-12 1.4457344e-10 7.464877e-11
0002f0 75 c4 04 2c f9 e1 5d 2e c7 ce 07 2e c2 06 fa 2b
       1.8867384e-12 5.0450286e-11 3.08791e-11 1.7765444e-12
000300 00 00 00 00 00 00 00 00 00 00 00 00 00 00 00 00
       0.0 0.0 0.0 0.0
000310 00 00 00 00 00 00 00 00 00 00 00 00 00 00 00 00
       0.0 0.0 0.0 0.0
000320 00 00 00 00 00 00 00 00 00 00 00 00 00 00 00 00
       0.0 0.0 0.0 0.0
000330 00 00 00 00 00 00 00 00 00 00 00 00 00 00 00 00
       0.0 0.0 0.0 0.0
000340 00 00 00 00 00 00 00 00 00 00 00 00 00 00 00 00
       0.0 0.0 0.0 0.0
000350 00 00 00 00 00 00 00 00 00 00 00 00 00 00 00 00
       0.0 0.0 0.0 0.0
000360 00 00 00 00 00 00 00 00 00 00 00 00 00 00 00 00
       0.0 0.0 0.0 0.0
000370 00 00 00 00 00 00 00 00 00 00 00 00 00 00 00 00
       0.0 0.0 0.0 0.0
000380 40 80 f9 32 77 cc 7c 34 0b a6 7e 34 18 32 d5 34
       2.9045736e-08 2.3543713e-07 2.3716e-07 3.971079e-07
000390 42 4d ae 34 aa ab ab 34 4d 80 bc 34 99 8e b5 34
       3.2466238e-07 3.1976134e-07 3.511108e-07 3.381763e-07
0003a0 15 23 bc 34 32 15 25 34 8b 33 c8 34 b8 c9 d8 34
       3.5043254e-07 1.5374533e-07 3.7290405e-07 4.0379905e-07
0003b0 26 01 aa 33 5f 3f 83 34 c2 45 2f 34 04 74 ba 33
       7.916451e-08 2.444676e-07 1.6323523e-07 8.682403e-08
0003c0 fd 74 8b 2e 05 de 49 32 5d 98 7f 31 b1 eb 55 32
       6.3417695e-11 1.1750221e-08 3.7193992e-09 1.2451822e-08
0003d0 7a f6 76 32 3a 55 91 32 f0 8e 4e 32 90 73 5f 32
       1.4375127e-08 1.6918978e-08 1.2023278e-08 1.3006584e-08
0003e0 a5 a5 55 32 30 fc d2 30 4c e7 aa 32 83 3c 29 32
       1.2435895e-08 1.5351187e-09 1.9895786e-08 9.8508535e-09
0003f0 5b e5 9d 2f c8 98 f7 31 22 97 14 31 e0 ec 88 2f
       2.87211e-10 7.2060153e-09 2.1622744e-09 2.4906566e-10

exp_avg f4 [32]
000000 24 27 02 3a c8 e1 18 bd 00 00 00 00 00 00 00 00
       0.0004964939 -0.037324697 0.0 0.0
000010 5e e3 29 3d b6 ce 33 39 00 00 00 00 7f d5 23 3b
       0.0414766 0.00017147776 0.0 0.002499908
000020 8a 29 4f 3d d9 44 33 3d 00 00 00 00 e5 11 40 3d
       0.050576724 0.04376683 0.0 0.046892066
000030 00 00 00 00 00 00 00 00 0e 87 8b ba ea 08 5a bc
       0.0 0.0 -0.0010645108 -0.013307789
000040 00 00 00 00 00 00 00 00 d8 89 32 3d 17 51 56 3b
       0.0 0.0 0.04358849 0.0032702142
000050 ff e2 38 bd 42 fa 92 b7 05 6f 9a bc 8d 03 48 bd
       -0.045138355 -1.7521092e-05 -0.018851766 -0.04883151
000060 95 ae 39 b9 6e e4 13 3d 82 db 25 39 88 96 f5 3a
       -0.00017708012 0.03610652 0.00015817399 0.0018736878
000070 80 15 86 3c 4b 1b 77 3d 34 a0 1e bc be cd 4c ba
       0.016367674 0.060328763 -0.00968175 -0.00078126404

exp_avg_sq f4 [32]
000000 1f dd c6 32 95 1f 3a 38 00 00 00 00 00 00 00 00
       2.3150788e-08 4.437527e-05 0.0 0.0
000010 f6 55 5f 38 e0 91 68 31 00 00 00 00 dc 27 e7 34
       5.32474e-05 3.3843364e-09 0.0 4.3056104e-07
000020 fe 09 bd 38 17 f9 84 38 00 00 00 00 b6 4a 8b 38
       9.0140835e-05 6.340647e-05 0.0 6.6419525e-05
000030 00 00 00 00 00 00 00 00 c8 9c 05 33 49 39 a2 36
       0.0 0.0 3.1109067e-08 4.834645e-06
000040 00 00 00 00 00 00 00 00 6c c6 94 38 b0 00 7c 35
       0.0 0.0 7.094149e-05 9.3878316e-07
000050 94 aa 83 38 c3 3d b3 2e fe e5 36 37 5f 16 95 38
       6.2783394e-05 8.150949e-11 1.0901595e-05 7.1090406e-05
000060 3d da 1d 31 17 90 28 38 6c ba 0c 32 1a 8c 29 34
       2.297056e-09 4.0188515e-05 8.19146e-09 1.579032e-07
000070 97 44 7d 37 0c 6e f7 38 c5 50 39 36 52 19 a0 32
       1.5095945e-05 0.000117983756 2.7614162e-06 1.8637966e-08

exp_avg f4 [1, 32]
000000 ec e8 84 b9 14 2e 8e be 00 00 00 00 00 00 00 00
       -0.00025350542 -0.2776953 0.0 0.0
000010 dd fa 4e bd e9 62 be b8 00 00 00 00 76 e2 95 bb
       -0.05053221 -9.0783295e-05 0.0 -0.0045741154
000020 00 ee 08 bd 19 78 37 bd 00 00 00 00 07 df 08 be
       -0.0334301 -0.04479227 0.0 -0.13366328
000030 00 00 00 00 00 00 00 00 fc db 70 bb e2 82 38 bb
       0.0 0.0 -0.0036752215 -0.0028154184
000040 00 00 00 00 00 00 00 00 b8 38 be bc d6 39 b5 bb
       0.0 0.0 -0.023220405 -0.005530576
000050 ca 7c 37 be f2 93 9e b7 d8 e0 98 bd b9 67 e5 bd
       -0.17918697 -1.890396e-05 -0.074647605 -0.11201424
000060 7a 03 dd b7 60 11 75 bd 33 f0 a0 b7 90 c7 3c be
       -2.6346872e-05 -0.059831023 -1.9185338e-05 -0.18435502
000070 6b ea 1d bc b0 13 96 bd af 78 9b bd d1 43 8a bb
       -0.009638409 -0.07327974 -0.07591378 -0.00421951

exp_avg_sq f4 [1, 32]
000000 df 5d bf 31 24 c1 1c 3b 00 00 00 00 00 00 00 00
       5.5695035e-09 0.0023918832 0.0 0.0
000010 64 49 cd 38 16 9a 94 30 00 00 00 00 f7 16 b8 35
       9.788832e-05 1.0812211e-09 0.0 1.3715752e-06
000020 ae 26 81 38 64 50 be 38 00 00 00 00 28 de 1f 3a
       6.158404e-05 9.07488e-05 0.0 0.00060984725
000030 00 00 00 00 00 00 00 00 24 88 bc 34 98 1e 8b 34
       0.0 0.0 3.5116784e-07 2.5913027e-07
000040 00 00 00 00 00 00 00 00 d6 42 07 38 7c e6 6c 36
       0.0 0.0 3.2248754e-05 3.53009e-06
000050 b1 ed 80 3a 57 fe 43 2f be ad 25 39 44 96 b4 39
       0.0009836463 1.7825506e-10 0.0001580035 0.00034444232
000060 c8 6b 61 2e aa 58 ef 38 fc 9a 0b 2f 8a a3 91 3a
       5.1254806e-11 0.00011412923 1.2697038e-10 0.001111136
000070 82 e3 f3 36 7e b7 87 39 5a 49 25 39 16 6d 29 35
       7.2684497e-06 0.0002588592 0.00015762952 6.3116147e-07
