tests/_logs/test_fit/singletask/checkpoints/epoch=0-step=6-v1.ckpt (torch, 33321 bytes, 15 tensors)

convnet.module.0.weight f4 [16, 4, 16]
0	0xbdc323f4	-0.09528342
1	0x3ac45926	0.0014980182
2	0x3dacb94e	0.084337816
3	0xbdeb0712	-0.11475958
4	0xbdeb8e86	-0.115017936
5	0x3d03d133	0.03218193
6	0xbd78285a	-0.060585357
7	0x3dc75c39	0.09734387
8	0x3e0317da	0.12802067
9	0xbd8d7c5c	-0.06908485
10	0xbdc8cabb	-0.09804293
11	0xbc453dd6	-0.012038669
12	0x3de1f49d	0.110329844
13	0x3abf307c	0.0014586593
14	0x3c77b58e	0.01511897
15	0xbd50d058	-0.050979942
16	0xbd61391b	-0.0549861
17	0xbd0aec6f	-0.033916887
18	0x3db9ea07	0.0907784
19	0xbdb0db62	-0.08635594
20	0x3dfde72d	0.12397609
21	0xbbcf0174	-0.006317312
22	0xbc8f48a8	-0.0174907
23	0x3db19605	0.08671192
24	0x3e0159a9	0.12631859
25	0xbd157be8	-0.03649512
26	0xbc876964	-0.016529746
27	0x3d818f7e	0.06326197
28	0xbbc47d86	-0.005996409
29	0xbd7748ee	-0.060372286
30	0xbddd1d65	-0.10796622
31	0xbd6a9df7	-0.057279553
32	0x3d089703	0.03334714
33	0x3db51258	0.088413894
34	0x3e01a588	0.12660801
35	0xbd501b25	-0.050807137
36	0xbc82bdb4	-0.015959598
37	0xbd32786c	-0.043571874
38	0x3d84801a	0.06469746
39	0xbda1ded4	-0.07903829
40	0x3dfd6127	0.12372046
41	0xbdd6a2e5	-0.104802884
42	0x3d9debcb	0.077109896
43	0xbc7eb906	-0.015547043
44	0x3d94cd65	0.072657384
45	0x3db56186	0.08856492
46	0x3df39925	0.118944444
47	0xbcf27768	-0.029597953
48	0xbd9d1820	-0.07670617
49	0x3dc336cd	0.09531937
50	0x3d403128	0.04692188
51	0x3ce16438	0.027513608
52	0xbd740a95	-0.059580404
53	0x3de6ce71	0.11269844
54	0x3d642375	0.055697877
55	0x3c5461a2	0.012962731
56	0xbd7b6bbf	-0.06138205
57	0x3d2de677	0.042456117
58	0xbdb2f7ce	-0.08738671
59	0x3d126a1d	0.03574573
60	0xbdc65838	-0.09684795
61	0xbcaea3db	-0.021318367
62	0xbcb7f0df	-0.022453723
63	0xbcd1c13e	-0.02560484
64	0xbdf00132	-0.11718978
65	0xbdfd3561	-0.12363697
66	0xbd1f43ad	-0.0388829
67	0x3c7183a1	0.014740855
68	0x3da67a09	0.08128745
69	0x3de0f487	0.1098414
70	0x3cd03c10	0.025419265
71	0xbded8ac9	-0.11598737
72	0xbe05582c	-0.13021916
73	0xbd6731bc	-0.056443915
74	0xbd97b26c	-0.07407078
75	0x3bcffefc	0.006347535
76	0xbd439ca7	-0.047756817
77	0xbdad99bb	-0.084765874
78	0xbddd7281	-0.108128555
79	0x3cc053e7	0.023477508
80	0x3dc5088a	0.09620769
81	0xbd9161b3	-0.07098713
82	0xbdfaac96	-0.122399494
83	0x3ddadb8c	0.106864065
84	0xbdbe9bb1	-0.093070395
85	0x3d72b516	0.05925473
86	0x3c80376e	0.015651431
87	0x3da99300	0.08279991
88	0xbd82bd36	-0.06383745
89	0x3d47ccd3	0.04877932
90	0x3d752d80	0.059857845
91	0x3d762bc0	0.060100317
92	0xbdd4e983	-0.10396101
93	0x3cd59586	0.026072275
94	0x3d743e01	0.059629444
95	0xbde2030c	-0.110357374
96	0x3d50ffe3	0.051025283
97	0x3cc98e20	0.024603903
98	0xbd0e1894	-0.03469141
99	0xbc6970a8	-0.014248051
100	0x3ce5e6f2	0.028064225
101	0xbdeae422	-0.11469294
102	0xbd2ec4dc	-0.04266821
103	0xbdc87d0a	-0.09789474
104	0xbd4c1fb9	-0.04983494
105	0xbda1a1cb	-0.07892188
106	0xbd79a26e	-0.06094592
107	0x3db431ab	0.08798536
108	0x3dad06b6	0.08448546
109	0x3d9e5eb3	0.07732906
110	0x3da9a7c1	0.0828395
111	0xbdbcd9c7	-0.09221225
112	0xbdee9cfe	-0.11651038
113	0xbbf6ec72	-0.0075355107
114	0xbdd61148	-0.10452515
115	0x3dd4b1c8	0.103854716
116	0x3da12c82	0.07869817
117	0x3cac851f	0.02105957
118	0x3cdcda29	0.026959496
119	0xbd88f166	-0.06686668
120	0xbbe4684a	-0.00697044
121	0x3a4488ce	0.0007497192
122	0x3cc58c14	0.024114646
123	0x3ca4a85e	0.020099815
124	0x3de1029f	0.10986828
125	0xbd7a71be	-0.06114363
126	0x3d71dbd8	0.05904755
127	0x3c0baea9	0.008525529
128	0xbdc5db46	-0.09660964
129	0x3d8b42fb	0.06799885
130	0x3dce5acb	0.10075911
131	0x3e039c71	0.12852646
132	0x3d056664	0.03256835
133	0xbc9a9481	-0.01886964
134	0xbd48763f	-0.048940893
135	0x3dc6270e	0.09675418
136	0xbda8c716	-0.08241098
137	0xbd9246a5	-0.071423806
138	0x3df1adf4	0.11800757
139	0x39453c0c	0.00018809753
140	0x3d8ffaf7	0.070302896
141	0x3cb3060f	0.021853475
142	0xbd0d0433	-0.034427833
143	0x3cb15290	0.021645814
144	0x3d9e75f4	0.077373415
145	0xba234302	-0.00062279415
146	0xbc6341ea	-0.013870696
147	0xbce836a2	-0.028346363
148	0xbdeedfcd	-0.1166378
149	0x3d1b4f59	0.03791747
150	0xbd05d625	-0.032674927
151	0xbdc18547	-0.09449249
152	0x3dde927b	0.10867783
153	0x3d883310	0.066503644
154	0x3c217c47	0.00985629
155	0xbd722710	-0.059119284
156	0xbc5293ec	-0.01285265
157	0x3dadb73a	0.08482213
158	0xbcdffd54	-0.027342476
159	0x3d8b4838	0.06800884
160	0x3b5947b0	0.0033154301
161	0x3dec5c7d	0.11541078
162	0xbde3e182	-0.111269966
163	0x3d349057	0.044082966
164	0xbdeb9385	-0.115027465
165	0x3df94a53	0.12172379
166	0x3d6de934	0.058083728
167	0x3dd2f01f	0.10299706
168	0x3d13b593	0.036061835
169	0x3e058b25	0.1304136
170	0x3e03854c	0.12843817
171	0xbbc76094	-0.006084511
172	0x3ddbce9c	0.10732767
173	0x3d180935	0.037118156
174	0xbdbc05ec	-0.09180817
175	0x3d863fc7	0.06555133
176	0x3d1301b6	0.035890304
177	0x3d9a7e2b	0.07543596
178	0x3d10aae8	0.03531924
179	0x3c677dfd	0.014129159
180	0xbd886894	-0.06660572
181	0x3d536eab	0.051619213
182	0xbcd7d0aa	-0.026344616
183	0x3d47e780	0.04880476
184	0x3e0252ca	0.12726894
185	0x3df49580	0.11942577
186	0x3cf54981	0.029942276
187	0xbb8fbc27	-0.004386443
188	0xbc7393be	-0.014866767
189	0x3dd77f44	0.10522321
190	0x3d88d4fd	0.06681249
191	0x3ac67b1e	0.0015142893
192	0x3de1c57f	0.110239975
193	0x3bef94aa	0.0073114233
194	0x3de07337	0.109594755
195	0xbdb98122	-0.09057833
196	0xbcb95b3d	-0.022626514
197	0x3dea754e	0.11448155
198	0x3de5fa9b	0.1122944
199	0x3cbf341d	0.02334028
200	0xbd256c84	-0.04038669
201	0xbd721517	-0.059102144
202	0x3bdfcf9a	0.006830168
203	0x3c91b7bf	0.017787812
204	0xbdd858cf	-0.10563814
205	0x3d544415	0.05182274
206	0x3d9100f8	0.07080263
207	0x3dd2e2c8	0.10297161
208	0xbc065050	-0.008197859
209	0xbdf7e8ec	-0.12104973
210	0xbd031506	-0.03200247
211	0xbb59232b	-0.0033132534
212	0xbd295bf5	-0.041347463
213	0x3dc1fb74	0.09471789
214	0xbd678a03	-0.056528103
215	0xbc669edb	-0.01407596
216	0xbdceff2c	-0.10107264
217	0xbafcba50	-0.00192816
218	0xbd5fc39e	-0.054629914
219	0xbdab439c	-0.08362505
220	0x3dafbdc8	0.0858112
221	0x3d3a22cb	0.045443337
222	0xbdcfddb0	-0.101497054
223	0xbdf754c9	-0.12076718
224	0x3d92c353	0.071661614
225	0x3cab6f9a	0.02092724
226	0x3bc3f139	0.0059796837
227	0x3d526781	0.05136824
228	0x3b878174	0.004135305
229	0x3d8fc2c2	0.07019569
230	0x3d085844	0.0332873
231	0x3d958797	0.07301252
232	0xbdca9f02	-0.098936096
233	0xbdf0b903	-0.11754038
234	0xbd98ead5	-0.07466666
235	0x3da13b67	0.07872658
236	0x3b6a7152	0.003577311
237	0x3de8da11	0.11369718
238	0x3dab296f	0.08357512
239	0x3c95c16a	0.018280704
240	0x3cdfc036	0.027313333
241	0x3d894522	0.06702639
242	0x3b63cde6	0.0034760176
243	0x3d8e1972	0.06938447
244	0x3d038d7f	0.032117363
245	0xbdf24613	-0.11829772
246	0x3d53b89d	0.051689733
247	0x3d9fca14	0.07802215
248	0xbd1530e8	-0.036423594
249	0x3d36c026	0.04461684
250	0xbd5ffc94	-0.054684237
251	0x3d3900bf	0.045166727
252	0xbdf5e89a	-0.12007256
253	0x3cb15e95	0.021651546
254	0xbcee23f8	-0.029069886
255	0x3d7b5bea	0.061366953

convnet.module.0.bias f4 [16]
0	0xbd1eedd6	-0.038801037
1	0xbd332a53	-0.043741535
2	0x3d829fc2	0.06378128
3	0xbdad4d5c	-0.08462021
4	0x3d3f05de	0.046636455
5	0xbcf9033c	-0.03039705
6	0x3c06267c	0.008187886
7	0xbd9554ac	-0.072915405
8	0xbd2f8e7b	-0.04286049
9	0x3c07cc1f	0.008288412
10	0x3ddec46a	0.10877307
11	0x3cc3f504	0.023920543
12	0xbd8c643c	-0.06855056
13	0x3ced2362	0.028947536
14	0xbdc5f2b1	-0.0966543
15	0x3d43fe16	0.047849737

fcn.module.0.weight f4 [32, 32]
0	0xbd88fec9	-0.066892214
1	0xbe21601f	-0.15759324
2	0xbd8d803b	-0.06909224
3	0xbdc8db34	-0.09807435
4	0xbcc04df0	-0.023474663
5	0x3cf2b2c8	0.029626265
6	0x3b617a40	0.0034405142
7	0xbdf5484c	-0.1197668
8	0xbe23553d	-0.15950485
9	0x3dc41ae6	0.09575443
10	0x3e1fc7f7	0.15603624
11	0x3bb1ce00	0.0054261684
12	0xbe024d1b	-0.12724726
13	0xbc8885f0	-0.016665429
14	0xbd82acbc	-0.06380603
15	0x3df6144e	0.120155916
16	0x3e30fe23	0.17284445
17	0x3db95c7a	0.09050842
18	0x3dc842ca	0.09778364
19	0x3d2b6898	0.041847795
20	0xbbecc5e0	-0.007225737
21	0xbbdc2600	-0.006718397
22	0x3e30a2cd	0.17249604
23	0x3e28d053	0.1648572
24	0xbe199a5a	-0.15000287
25	0xbe25e942	-0.16202262
26	0x3d9f755e	0.07786058
27	0x3d90c662	0.070690885
28	0x3e0928f7	0.13394533
29	0x3e17a209	0.14807905
30	0x3e136333	0.1439331
31	0xbd66dc94	-0.056362703
32	0x3d9d2c1a	0.07674427
33	0xbdd29acb	-0.10283431
34	0xbdfa844c	-0.12232265
35	0xbd08851c	-0.033330068
36	0x3d3623b0	0.044467628
37	0x3e059aa3	0.1304727
38	0xbdc91b8f	-0.098197095
39	0xbde1dd0c	-0.110284895
40	0xbe24f3f1	-0.16108681
41	0x3b51e7c0	0.0032029003
42	0x3d7b0450	0.06128341
43	0xbde21415	-0.110389866
44	0xbdce4968	-0.10072595
45	0x3d131ca4	0.035915986
46	0x3e2328ad	0.15933485
47	0xbc88c030	-0.016693205
48	0xbbc09bc0	-0.005877942
49	0x3d86e9a0	0.06587529
50	0xbe2dd1d2	-0.16974571
51	0x3d97ea82	0.07417776
52	0xbe259e8b	-0.1617376
53	0x3dfb53b2	0.12271823
54	0xbe141201	-0.14459993
55	0x3de42a1e	0.11140846
56	0xbd7f14a0	-0.06227553
57	0xbcbd0ae8	-0.02307649
58	0xbc58e3d0	-0.0132379085
59	0x3e2191db	0.15778296
60	0xbe0a86d7	-0.13528
61	0x3cb18a18	0.021672294
62	0xbbfc81c0	-0.007705897
63	0x3d1b6d90	0.037946284
64	0x3e394fb6	0.18096814
65	0x3d88fbd9	0.06688661
66	0xbe0f7128	-0.1400801
67	0x3dc52ac0	0.096272945
68	0xbcf68d30	-0.03009662
69	0xbe24b2ea	-0.16083875
70	0x3e1261e5	0.14295156
71	0x3decafec	0.11556992
72	0xbe2cd85f	-0.16879414
73	0xbde825aa	-0.11335309
74	0x3e283deb	0.1642987
75	0xbd947e16	-0.072506115
76	0x3e120f65	0.14263685
77	0x3e37e656	0.1795896
78	0x3e354ca8	0.17705023
79	0x3e1771d8	0.14789522
80	0x3e3301ac	0.17481107
81	0x3d92d47d	0.07169435
82	0x3db0df7b	0.086363755
83	0x3bee1977	0.0072662192
84	0x3b8d9842	0.004321129
85	0xbdee331b	-0.11630841
86	0xbdb49346	-0.08817153
87	0x3e142a51	0.14469267
88	0xbd772e27	-0.06034675
89	0x3da9d5e7	0.08292752
90	0x3e14ce13	0.14531736
91	0x3d87821e	0.06616615
92	0xbd8d29bb	-0.06892725
93	0x3e35a9e9	0.17740597
94	0xbe217d69	-0.15770496
95	0xbd33931a	-0.04384146
96	0x3e0075dd	0.12544961
97	0x3d937d93	0.07201686
98	0xbdbc27ab	-0.091872536
99	0xbe32a2c2	-0.174449
100	0x3de3bfbc	0.11120555
101	0x3cf04a09	0.029332178
102	0x3e27ca91	0.16385867
103	0xbdb8341a	-0.089943126
104	0xbd155bb9	-0.036464427
105	0xbe1745a2	-0.14772657
106	0xbe377923	-0.17917304
107	0x3e11b8b9	0.14230622
108	0xbce2b961	-0.027676286
109	0x3d9b5d89	0.075862
110	0xbe205877	-0.15658747
111	0x3d136def	0.035993513
112	0xbbfc616b	-0.007702043
113	0x3df9463e	0.12171601
114	0xbdc58248	-0.0964399
115	0xbd5ec7f2	-0.0543899
116	0xbd9bfe6d	-0.07616887
117	0xbca84a2c	-0.02054318
118	0xbe1ac9e1	-0.15116073
119	0xbe0910e8	-0.13385355
120	0x3dac6cd9	0.084191985
121	0x3dfe8be3	0.12429025
122	0xbd65407c	-0.0559697
123	0x3dca7017	0.09884661
124	0xbcb93a6a	-0.022610862
125	0x3df2ab8f	0.118491285
126	0xbdd3023b	-0.1030316
127	0x3b14f642	0.002272979
128	0x3dd6796e	0.104723796
129	0xbdb1953e	-0.08671044
130	0xbe08ca0c	-0.13358325
131	0xbc97cde0	-0.018530786
132	0x3e13424b	0.14380758
133	0xbda29262	-0.079380766
134	0xbe2130f8	-0.15741336
135	0x3d7f6c94	0.062359408
136	0xbe134e1f	-0.1438527
137	0xbc99e1b8	-0.018784389
138	0xbe319f27	-0.17345868
139	0x3dd76b3e	0.10518502
140	0xbdab859e	-0.08375095
141	0xbe347d7e	-0.17625996
142	0x3df4ac96	0.11946981
143	0x3d41edfc	0.0473461
144	0xbd01cc88	-0.031689197
145	0xbd4fcd70	-0.05073303
146	0xbde9ae81	-0.11410237
147	0xbd696a5e	-0.056986205
148	0x3dd56dea	0.10421355
149	0xbe1d55bc	-0.15364736
150	0xbe0e8850	-0.13919187
151	0x3d6ce930	0.057839572
152	0x3dde5206	0.108554885
153	0x3daa769e	0.08323406
154	0x3e325b4d	0.17417641
155	0xbd1f12dc	-0.038836345
156	0x3d0068a4	0.031349793
157	0x3cf31f68	0.029678062
158	0xbd078e7c	-0.033094868
159	0x3c5aeb10	0.013361707
160	0x3e211e45	0.15734203
161	0xbe1406f3	-0.14455776
162	0xbd0ea567	-0.03482571
163	0x3c28914a	0.010288546
164	0x3db4bb49	0.08824784
165	0xbe207277	-0.15668665
166	0xbde7e48c	-0.11322889
167	0xbccff862	-0.025386993
168	0xbd5fbf4e	-0.0546258
169	0xbdf3dd36	-0.11907427
170	0x3daae7e6	0.08345012
171	0xbd789001	-0.060684208
172	0x3e2af9ed	0.16696902
173	0xbda46552	-0.08027138
174	0x3dd5f808	0.10447699
175	0x3deadb11	0.11467565
176	0x3e2cbf59	0.16869868
177	0xbd3b73f5	-0.045764882
178	0xbdc71f16	-0.09722726
179	0x3d9c9cc7	0.076470904
180	0x3d1b2bde	0.037883632
181	0xbcfbe7fe	-0.030750271
182	0xbd3e8c67	-0.046520617
183	0x3e170c45	0.14750774
184	0x3c0d0584	0.008607272
185	0x3e16ed4b	0.14738958
186	0x3d8fdc74	0.0702447
187	0xbe051404	-0.12995917
188	0x3d999112	0.07498373
189	0x3de8700e	0.11349498
190	0x3df7f9ec	0.12108216
191	0x3c9cb1b1	0.019127699
192	0xbc887cc0	-0.016661048
193	0xbe0e2a52	-0.13883331
194	0x3c9cf4c8	0.01915969
195	0xbbf724e0	-0.0075422376
196	0x3a57a000	0.0008225441
197	0x3d9cf272	0.0766343
198	0xbd04d82c	-0.03243272
199	0xbd338e50	-0.04383689
200	0xbbbe7600	-0.0058124065
201	0xbdfee622	-0.12446238
202	0x3d1325a8	0.035924584
203	0x3e2d9203	0.1695023
204	0xbd9cc32f	-0.07654416
205	0x3e0a13a7	0.1348406
206	0x3d2fea00	0.04294777
207	0xbd6e6f6c	-0.05821173
208	0x3db6ce0e	0.089260206
209	0x3b99d640	0.00469473
210	0xbdb19a8c	-0.086720556
211	0x3db3cf16	0.08779733
212	0xbdec2ecc	-0.11532363
213	0xbddc7d19	-0.10766048
214	0x3cee6008	0.029098526
215	0x3e08bcd9	0.1335329
216	0x3d8a71a6	0.06759958
217	0xbe05e989	-0.13077368
218	0x3d62ee84	0.055403247
219	0xbd8e859e	-0.06959079
220	0xbe260e1f	-0.16216324
221	0x3e27e1f1	0.16394784
222	0xbdc8e558	-0.09809369
223	0x3da7a4ba	0.08185716
224	0xbe0e6e3b	-0.13909237
225	0xbda8a766	-0.08235054
226	0x3e326047	0.1741954
227	0x3cde5d30	0.027144045
228	0xbca52560	-0.020159423
229	0x3df0b71a	0.11753674
230	0x3cb23950	0.021755844
231	0xbd2ee36c	-0.042697355
232	0x3e136b5f	0.14396428
233	0xbdf3a73c	-0.11897132
234	0xbe0faf75	-0.14031775
235	0xbe1125de	-0.14174601
236	0x3dc60e96	0.09670751
237	0xbd8ae8d5	-0.067826904
238	0xbe226e5e	-0.15862414
239	0xbe2f62ab	-0.17127483
240	0x3df5bb1a	0.119985774
241	0x3bfd9b00	0.0077394247
242	0x3dfda682	0.123852745
243	0xbdf23e04	-0.11828235
244	0x3dbe0ac6	0.092793986
245	0x3e0d2e67	0.13787232
246	0x3e0545b9	0.13014878
247	0xbe215aaa	-0.15757242
248	0x3dd5301e	0.10409568
249	0x3e34994b	0.17636602
250	0x3deb1b06	0.11479764
251	0xbd9cfa0f	-0.076648824
252	0x3e2eccd3	0.17070322
253	0x3dc4dee6	0.09612827
254	0x3cf9a710	0.03047517
255	0x3c86dd68	0.016462997

fcn.module.0.bias f4 [32]
0	0xbdd9d61e	-0.10636543
1	0x3e0070b3	0.12542991
2	0xbca81f11	-0.020522626
3	0x3e273793	0.16329794
4	0xbe01e7ac	-0.12686032
5	0xbd98dea6	-0.07464342
6	0xbd8968a6	-0.06709413
7	0xbdcef709	-0.10105712
8	0x3e17e5f1	0.1483381
9	0xbca51da5	-0.020155737
10	0xbe2e998b	-0.1705076
11	0xbcb9ba20	-0.02267176
12	0x3e20ad71	0.15691163
13	0xbd079bb6	-0.033107482
14	0xbdfdd0de	-0.12393354
15	0xbd38c9b4	-0.045114234
16	0x3ccce374	0.025010802
17	0x3e1e7e48	0.1547786
18	0x3d8001b9	0.062503286
19	0x3e246524	0.16054207
20	0xbd8768d2	-0.0661179
21	0xbd80fbb6	-0.0629801
22	0x3df0e3a9	0.11762173
23	0xbd896a4a	-0.06709726
24	0xbada6880	-0.0016663224
25	0xbe09adea	-0.13445249
26	0xbe09f115	-0.13470872
27	0xbddd6c49	-0.108116694
28	0xbc8b4803	-0.017002111
29	0xbd04a476	-0.032383405
30	0xbe0282e7	-0.12745248
31	0x3dbe1139	0.09280629

fcn.module.3.weight f4 [1, 32]
0	0x3dfec5ca	0.12440069
1	0x3e009443	0.12556557
2	0x3de2acff	0.11068153
3	0xbdf6d7dd	-0.120528914
4	0xbd746bfe	-0.059673302
5	0x3ce42434	0.027849294
6	0xbe2d7981	-0.16940881
7	0xbc26b7d0	-0.01017566
8	0x3e02f9ef	0.12790655
9	0x3d15b0ca	0.036545552
10	0x3e016089	0.12634481
11	0xbde16507	-0.110055976
12	0x3df315ca	0.1186939
13	0xbdbd1055	-0.09231631
14	0x3e0243f6	0.12721238
15	0xbe2c536a	-0.16828695
16	0x3dbe3a36	0.092884466
17	0x3d6227be	0.055213682
18	0xbdf231b7	-0.118258886
19	0x3d495cef	0.049160894
20	0xbd25c173	-0.04046769
21	0x3cf0fb00	0.029416561
22	0xbc421c66	-0.011847591
23	0x3ddee5f3	0.10883703
24	0xbe2094ac	-0.15681714
25	0xbcb43e40	-0.02200234
26	0x3dc9ab36	0.09847109
27	0x3d2ad700	0.041708946
28	0x3df09965	0.11748008
29	0xbd80dd91	-0.062922604
30	0x3e25cedd	0.16192193
31	0x3e26b807	0.16281138

exp_avg f4 [16, 4, 16]
0	0xbb40e77a	-0.0029434846
1	0xbb5b4c66	-0.0033462285
2	0xbbab538e	-0.0052284664
3	0xbb316fbe	-0.002707466
4	0xba95e983	-0.001143739
5	0xbb920ab8	-0.004456844
6	0xbaf46142	-0.0018644708
7	0xbc07862c	-0.008271735
8	0xbbd28d9e	-0.0064255735
9	0xbb53738b	-0.0032264914
10	0xbb21c9c0	-0.0024686903
11	0xbb716cc6	-0.0036838516
12	0xbc063022	-0.008190187
13	0xbb7e9e11	-0.003885154
14	0xbb99c865	-0.0046930783
15	0xbb94fed6	-0.0045469804
16	0xbb9fa0b9	-0.0048714546
17	0xbac07437	-0.0014683072
18	0xbba82269	-0.005131055
19	0xbb4b7a17	-0.0031048113
20	0xbc3cd7a1	-0.011526019
21	0xbb265766	-0.0025381683
22	0xbb4c74c3	-0.0031197525
23	0xbbbe5301	-0.0058082347
24	0xbb9cb43e	-0.0047822287
25	0xbb8508d7	-0.0040598917
26	0xbb9d434d	-0.0047992826
27	0xbbeae686	-0.007168594
28	0xbb3999ba	-0.0028320388
29	0xbb257e26	-0.0025252192
30	0xbabef8ed	-0.0014570035
31	0xbba783f2	-0.0051121647
32	0xbbe9f9e6	-0.007140386
33	0xbbda1c1a	-0.006656182
34	0xbba00d22	-0.004884378
35	0xbb67f868	-0.0035395864
36	0xbb88752b	-0.004164358
37	0xbb651e8d	-0.0034960837
38	0xbbe000a6	-0.006836015
39	0xbae0d4af	-0.0017153228
40	0xbbc5874c	-0.0060280915
41	0xbb0a60b3	-0.0021114766
42	0xbc156754	-0.009118874
43	0xbb6ee339	-0.0036451353
44	0xbbcc7d41	-0.0062405174
45	0xbc1e2236	-0.009651711
46	0xbc141248	-0.009037562
47	0xbba03225	-0.00488879
48	0xbb6c2738	-0.0036034118
49	0xbbe8429c	-0.0070880186
50	0xbb593db9	-0.0033148362
51	0xbc16d86c	-0.009206872
52	0xbae20ca7	-0.0017246202
53	0xbc042e22	-0.00806764
54	0xbbdccea0	-0.006738499
55	0xbb351ae3	-0.0027634434
56	0xbaad633a	-0.0013228424
57	0xbc161780	-0.009160876
58	0xbb0e5641	-0.0021718892
59	0xbb851372	-0.004061156
60	0xbaa9de58	-0.001295994
61	0xbb239edc	-0.0024966514
62	0xbb5ced89	-0.0033710918
63	0xbb836d0c	-0.004010802
64	0x39422bb7	0.00018517567
65	0x3965d35c	0.0002191788
66	0x3abfa299	0.0014620601
67	0x3a44b363	0.00075035373
68	0x3ac26f8e	0.0014834271
69	0x3b158811	0.0022816698
70	0x3ab46b1c	0.0013764831
71	0x39a3fbae	0.000312773
72	0x3a26fb28	0.00063698227
73	0x3a3175d9	0.0006769575
74	0x3a00b3ca	0.0004909603
75	0x3a64369b	0.00087056466
76	0x39efd8df	0.00045747214
77	0x3a10dc2a	0.0005525971
78	0x39975c12	0.00028869562
79	0x3ae9e850	0.0017845724
80	0x3b105139	0.0022021069
81	0x39ce4b17	0.00039347328
82	0x3a1bca36	0.00059429125
83	0x3ac84534	0.0015279413
84	0x39847863	0.00025266697
85	0x3aa7e8db	0.0012810485
86	0x3a15d951	0.00057162816
87	0x3af9f434	0.0019069971
88	0x3a9e101e	0.0012059247
89	0x3b0c38e1	0.0021396207
90	0x3b0d35e8	0.0021547023
91	0x3a994391	0.001169311
92	0x39ca747b	0.00038615227
93	0x3ab9ff25	0.0014190419
94	0x3a7810d0	0.00094629545
95	0x3a208a02	0.00061240804
96	0x3ad1afe5	0.0015997855
97	0x3b04f44d	0.0020287216
98	0x3ab5bdb8	0.0013865745
99	0x3a04c169	0.0005064221
100	0x3a92cb6b	0.0011199539
101	0x394c3e84	0.00019478245
102	0x3a81fe0a	0.0009917628
103	0x3a82e90a	0.0009987664
104	0x3a5ad95f	0.0008348431
105	0x39bf28cf	0.00036460764
106	0x3a14a6e0	0.0005670618
107	0x3ac11f91	0.0014734139
108	0x3ad6dc7b	0.0016392613
109	0x3b041297	0.0020152682
110	0x3af35196	0.0018563743
111	0x39a4b772	0.00031417195
112	0x39a8e5f6	0.0003221479
113	0x3ada9b82	0.0016678425
114	0x3a6317bd	0.00086629
115	0x3ac7d1b0	0.0015244987
116	0x3abe783b	0.0014531681
117	0x3a10a102	0.0005517156
118	0x3ab37b7e	0.001369342
119	0x3a8ef525	0.0010906799
120	0x3ad5d6e9	0.0016314659
121	0x3a93da69	0.0011280301
122	0x3a8fb828	0.0010964917
123	0x3a50a5be	0.0007959268
124	0x3aef617c	0.0018263306
125	0x39a8fb9d	0.00032230924
126	0x3a9fa049	0.0012178506
127	0x3ad17621	0.001598064
128	0xbb506d14	-0.0031803297
129	0xbb6be97d	-0.0035997324
130	0xbbc990c6	-0.0061512915
131	0xbbae4b3d	-0.0053190277
132	0xbbadf087	-0.005308214
133	0xbb5a4f59	-0.0033311455
134	0xbb55910b	-0.0032587673
135	0xbb851a79	-0.0040619937
136	0xbb39fe52	-0.0028380346
137	0xbb3b04db	-0.002853683
138	0xbb83ee72	-0.0040262276
139	0xbb81fb32	-0.0039667124
140	0xbb84c63d	-0.004051952
141	0xbb56d98a	-0.0032783472
142	0xbb6d87a1	-0.0036244171
143	0xbb573128	-0.0032835696
144	0xbba25468	-0.0049539097
145	0xbb5d3ff4	-0.0033760043
146	0xbb60af37	-0.0034284124
147	0xbb587881	-0.003303081
148	0xbb6ece37	-0.0036438832
149	0xbb8643d3	-0.0040974407
150	0xbb799647	-0.0038083957
151	0xbb31944b	-0.0027096446
152	0xbba480fe	-0.00502026
153	0xbb834274	-0.0040057246
154	0xbb630db8	-0.0034645628
155	0xbb6cec1b	-0.0036151472
156	0xbb508e2c	-0.0031823022
157	0xbba00f53	-0.0048846393
158	0xbb5fe120	-0.0034161285
159	0xbba5c2c2	-0.0050586173
160	0xbb6ac8d7	-0.0035825276
161	0xbba6a0bb	-0.0050850785
162	0xbb2e2bef	-0.002657648
163	0xbb81ebae	-0.003964863
164	0xbb683708	-0.0035433192
165	0xbbb7b1df	-0.0056059207
166	0xbbb5d215	-0.0055487254
167	0xbba4bb7f	-0.005027234
168	0xbb5223a7	-0.0032064707
169	0xbba5835e	-0.0050510606
170	0xbb9d5e8a	-0.0048025297
171	0xbb96d829	-0.004603405
172	0xbbc6d510	-0.0060678795
173	0xbb7ad861	-0.0038275945
174	0xbb82d79e	-0.0039929887
175	0xbb8cc539	-0.0042959717
176	0xbb8da4df	-0.0043226327
177	0xbb825ec8	-0.003978584
178	0xbb792bc7	-0.0038020478
179	0xbb624228	-0.0034524295
180	0xbb68422e	-0.0035439837
181	0xbb44edbd	-0.003004893
182	0xbb605d01	-0.0034235122
183	0xbb8af420	-0.0042405277
184	0xbba30246	-0.0049746362
185	0xbb874c00	-0.004128933
186	0xbb7580c9	-0.0037460795
187	0xbb7c95a7	-0.0038541348
188	0xbb3363b0	-0.002737265
189	0xbb84abf2	-0.004048818
190	0xbba4083e	-0.0050058654
191	0xbb5ee75c	-0.0034012413
192	0x3bc4f82c	0.0060110297
193	0x3b2deeb3	0.002653998
194	0x3bdf6a4a	0.0068180906
195	0x3a5ed395	0.0008500156
196	0x3b1c0aba	0.0023810104
197	0x3bb5d066	0.0055485247
198	0x3c042772	0.008066045
199	0x3b10c8a9	0.002209226
200	0x3b944d29	0.0045258
201	0x3ab68f9a	0.0013928295
202	0x3ba745c9	0.0051047546
203	0x3b3a4745	0.0028423828
204	0x3ab0f184	0.0013499712
205	0x3b34f96e	0.0027614492
206	0x3bad5e09	0.005290751
207	0x3bd971ad	0.0066358657
208	0x3a8ec64d	0.0010892838
209	0x39ce71c4	0.00039376144
210	0x3b382dc5	0.0028103453
211	0x3b54bded	0.0032461837
212	0x3b5a9680	0.0033353865
213	0x3bbf81fa	0.005844352
214	0x397b1ee1	0.00023948729
215	0x3b2e0892	0.0026555401
216	0x3b5c30e3	0.0033598475
217	0x3bb3dd51	0.0054890295
218	0x3b8d8933	0.004319334
219	0x38b28ffc	8.5145206e-05
220	0x3c16520c	0.009174835
221	0x3b34cded	0.0027588562
222	0xb9aafa9b	-0.00032611642
223	0xb917a0dc	-0.00014460407
224	0x3b82ca95	0.003991435
225	0x3b8c8e2f	0.0042894105
226	0x3b2debb6	0.00265382
227	0x3b8b4797	0.0042504775
228	0x3b882f63	0.0041560396
229	0x3b459379	0.0030147715
230	0x3b44ec41	0.0030048045
231	0x3b8a861b	0.0042274124
232	0x3b0ea77f	0.0021767316
233	0x3a404dfb	0.0007335839
234	0x3b15ec6d	0.0022876516
235	0x3bf12e41	0.00736025
236	0x3b52de88	0.0032176096
237	0x3bdfbc89	0.006827895
238	0x3c077787	0.008268244
239	0x3b602a14	0.0034204768
240	0x3b4ca2e0	0.003122501
241	0x3be1591e	0.0068770787
242	0x3afd3af8	0.0019319942
243	0x3bc044c4	0.0058675725
244	0x3b8e45c5	0.0043418133
245	0xb94acace	-0.00019339772
246	0x3b3e4f92	0.0029039127
247	0x3ba7d70d	0.0051220716
248	0x3b880c6b	0.004151871
249	0x3bd83acc	0.006598806
250	0x3b240121	0.0025025087
251	0x3b80a9a1	0.0039264713
252	0x39f76057	0.0004718329
253	0x3af4962c	0.0018660477
254	0x3a80a159	0.000981371
255	0x3b8cfc13	0.0043025105

exp_avg_sq f4 [16, 4, 16]
0	0x3487867e	2.5243565e-07
1	0x34d0f554	3.892152e-07
2	0x355c32ff	8.2030596e-07
3	0x3498a99c	2.8435613e-07
4	0x339446ce	6.904666e-08
5	0x357d8d07	9.4455066e-07
6	0x3409b41a	1.282464e-07
7	0x36190651	2.2802453e-06
8	0x35c4cb8d	1.4662379e-06
9	0x34ce441d	3.842005e-07
10	0x348e78ea	2.6537538e-07
11	0x34fe6238	4.738265e-07
12	0x362a3396	2.5362e-06
13	0x353ba382	6.9900864e-07
14	0x35558f00	7.9556776e-07
15	0x3550232d	7.7537226e-07
16	0x35303b33	6.5651255e-07
17	0x33ee748b	1.1103938e-07
18	0x35737a4c	9.070252e-07
19	0x34b3129a	3.3354883e-07
20	0x369f9094	4.7554004e-06
21	0x348f95ad	2.674473e-07
22	0x34962d2c	2.7972544e-07
23	0x35aa248c	1.2676624e-06
24	0x358969ac	1.023805e-06
25	0x35266ded	6.199978e-07
26	0x35832066	9.76969e-07
27	0x360694db	2.0054201e-06
28	0x34a28ac9	3.027583e-07
29	0x3485784b	2.4860705e-07
30	0x337e74b1	5.9245114e-08
31	0x3555bf65	7.96272e-07
32	0x3616d422	2.247522e-06
33	0x35d5fa33	1.5942554e-06
34	0x357adaa1	9.3450404e-07
35	0x352ae936	6.36693e-07
36	0x35089c0e	5.089104e-07
37	0x350403e5	4.91795e-07
38	0x35f7fd0b	1.8476579e-06
39	0x33f8f63a	1.1593188e-07
40	0x3596e508	1.1242528e-06
41	0x343cf035	1.7596251e-07
42	0x36365c33	2.717378e-06
43	0x34f52c8e	4.5667224e-07
44	0x35abdcf5	1.28048e-06
45	0x36345a24	2.687456e-06
46	0x3650981c	3.1082955e-06
47	0x3558c2e7	8.074989e-07
48	0x35132e83	5.482945e-07
49	0x35d13042	1.5585758e-06
50	0x3503b6a8	4.90671e-07
51	0x363215fb	2.6536861e-06
52	0x33f44ab4	1.1375724e-07
53	0x360517ee	1.9832473e-06
54	0x35dc838a	1.642956e-06
55	0x349dd348	2.9397256e-07
56	0x33a1ca77	7.533975e-08
57	0x36408324	2.8686563e-06
58	0x34248ba5	1.5324493e-07
59	0x3504f7ff	4.9534714e-07
60	0x338fbf8a	6.693797e-08
61	0x34b4bf46	3.3666782e-07
62	0x34dc6962	4.105487e-07
63	0x35516530	7.8005814e-07
64	0x3123e1c5	2.3847957e-09
65	0x3201c2ec	7.553108e-09
66	0x3391b627	6.785222e-08
67	0x3300ceb1	2.9990307e-08
68	0x33a72ed1	7.785059e-08
69	0x345bcec7	2.047119e-07
70	0x339a6929	7.190312e-08
71	0x320261a5	7.589198e-09
72	0x329eb3ea	1.8475436e-08
73	0x32b3b8db	2.0922405e-08
74	0x3240f77d	1.1232143e-08
75	0x331319e9	3.424967e-08
76	0x3272a740	1.4124282e-08
77	0x329453c8	1.7267567e-08
78	0x31788140	3.616222e-09
79	0x33c3acc6	9.1118224e-08
80	0x3430afc5	1.6455222e-07
81	0x328bc343	1.6270524e-08
82	0x3307b739	3.1598777e-08
83	0x33cf7ecc	9.662253e-08
84	0x31a9530e	4.9279896e-09
85	0x3383dd31	6.140397e-08
86	0x32f22cad	2.8192824e-08
87	0x3438056b	1.7138306e-07
88	0x3388e765	6.375084e-08
89	0x342b9ba2	1.5982235e-07
90	0x3425c345	1.5437861e-07
91	0x336e4e54	5.5484932e-08
92	0x31a06c98	4.6689586e-09
93	0x33af3690	8.1589974e-08
94	0x336d7084	5.5283195e-08
95	0x32a24bf6	1.8893825e-08
96	0x3401c2b5	1.2084895e-07
97	0x342a0186	1.5833038e-07
98	0x3391c7a7	6.788405e-08
99	0x3299b8d5	1.7895596e-08
100	0x3386e48f	6.281436e-08
101	0x314a5cd7	2.9447642e-09
102	0x331b9e23	3.6232574e-08
103	0x331f80d3	3.7137237e-08
104	0x3342dac3	4.5368107e-08
105	0x322e1e7c	1.0135064e-08
106	0x32b542ba	2.1101517e-08
107	0x3396eb64	7.0277366e-08
108	0x33eac033	1.0931435e-07
109	0x34271a18	1.556258e-07
110	0x34099866	1.2814562e-07
111	0x321d11d5	9.142657e-09
112	0x3240fb43	1.1233001e-08
113	0x33c54772	9.186523e-08
114	0x3324a35c	3.83328e-08
115	0x33d53ee1	9.930023e-08
116	0x33cf8c68	9.6647284e-08
117	0x32dad5ef	2.5475826e-08
118	0x338e5f07	6.629676e-08
119	0x33495d1d	4.6883645e-08
120	0x33d164a1	9.750625e-08
121	0x33707526	5.59859e-08
122	0x33842cd6	6.1548846e-08
123	0x333593d7	4.2276806e-08
124	0x34233b7c	1.5202198e-07
125	0x31bc8bb7	5.487404e-09
126	0x337e9540	5.9274726e-08
127	0x3419f298	1.433749e-07
128	0x34a3988a	3.0472103e-07
129	0x34ed6150	4.4215494e-07
130	0x358df0ce	1.0575402e-06
131	0x3565bff1	8.558846e-07
132	0x357f575c	9.512203e-07
133	0x34d15983	3.8994412e-07
134	0x34e81a58	4.3232535e-07
135	0x3521334d	6.0051826e-07
136	0x34a52939	3.0763638e-07
137	0x349afdae	2.8869312e-07
138	0x3505b785	4.9813417e-07
139	0x350dc591	5.281409e-07
140	0x35207efc	5.978943e-07
141	0x34db0437	4.0794995e-07
142	0x34f72803	4.6036448e-07
143	0x34ee700a	4.4412474e-07
144	0x35525353	7.835235e-07
145	0x34c9ec7d	3.7611235e-07
146	0x34f08beb	4.4805287e-07
147	0x34c37a8b	3.6410742e-07
148	0x34e6ea68	4.3011391e-07
149	0x351918e5	5.703317e-07
150	0x3505532f	4.966741e-07
151	0x34946ffa	2.7648622e-07
152	0x354bb70c	7.588976e-07
153	0x3509bc08	5.13101e-07
154	0x34e55485	4.271607e-07
155	0x34f152ea	4.4950076e-07
156	0x34c16139	3.601979e-07
157	0x353e6592	7.092832e-07
158	0x34eae017	4.3748943e-07
159	0x353e06c2	7.079035e-07
160	0x350d22b3	5.257709e-07
161	0x354894ef	7.4722533e-07
162	0x349a5af4	2.8750912e-07
163	0x350b810a	5.196931e-07
164	0x34cf912a	3.8662375e-07
165	0x3570c13c	8.968816e-07
166	0x3570b5c2	8.967146e-07
167	0x354d072e	7.63789e-07
168	0x34c7aecb	3.7193817e-07
169	0x354a7d06	7.5432797e-07
170	0x3549304d	7.494862e-07
171	0x3534a233	6.7291256e-07
172	0x358df9a3	1.0577972e-06
173	0x34f7de49	4.616907e-07
174	0x3509c963	5.1329533e-07
175	0x3534ec3f	6.739901e-07
176	0x351d36e6	5.8566945e-07
177	0x351be416	5.807391e-07
178	0x34ffaaaa	4.7621626e-07
179	0x34f3fef8	4.544779e-07
180	0x34e58c97	4.2756866e-07
181	0x34bec900	3.5536505e-07
182	0x34cee35e	3.8535921e-07
183	0x35142c63	5.519889e-07
184	0x3552afb0	7.8486755e-07
185	0x352ee4f7	6.515324e-07
186	0x34f41834	4.5466152e-07
187	0x3505b460	4.980884e-07
188	0x349616b1	2.7956187e-07
189	0x351bd392	5.8049875e-07
190	0x354e962c	7.695951e-07
191	0x34e2077f	4.2101234e-07
192	0x35d7d13e	1.6079646e-06
193	0x34bae7af	3.4813772e-07
194	0x36558a91	3.182013e-06
195	0x3353df97	4.933062e-08
196	0x34ae7604	3.2495893e-07
197	0x35a83178	1.2531373e-06
198	0x36361db8	2.7137412e-06
199	0x3487a1cf	2.526344e-07
200	0x359f8c30	1.1887223e-06
201	0x34b787f2	3.418532e-07
202	0x35adc175	1.2945808e-06
203	0x34d4683d	3.956392e-07
204	0x34349090	1.6816398e-07
205	0x350341e9	4.8897215e-07
206	0x35c75200	1.485052e-06
207	0x35f16cf4	1.7987609e-06
208	0x33afb511	8.182008e-08
209	0x33a30d79	7.59273e-08
210	0x349c2b24	2.9088653e-07
211	0x3555ef39	7.96968e-07
212	0x34e06d8b	4.1802954e-07
213	0x3603bce3	1.9630468e-06
214	0x321d257e	9.1471275e-09
215	0x34d42f16	3.9522337e-07
216	0x34f7fe33	4.619229e-07
217	0x35a17eda	1.2032353e-06
218	0x357a0b9a	9.314914e-07
219	0x339fb3cf	7.4367215e-08
220	0x368a5b05	4.1233166e-06
221	0x34f93c82	4.642389e-07
222	0x321f9135	9.288034e-09
223	0x32084394	7.931607e-09
224	0x357a7146	9.329709e-07
225	0x35713155	8.9851284e-07
226	0x345ede4c	2.0756232e-07
227	0x35895d43	1.0234438e-06
228	0x3550ced8	7.7787035e-07
229	0x34f399fc	4.5374316e-07
230	0x34d0408e	3.878999e-07
231	0x355678a3	7.989676e-07
232	0x34d6b6fb	3.9993742e-07
233	0x33421cba	4.519527e-08
234	0x346862f3	2.1642681e-07
235	0x36057f93	1.9892802e-06
236	0x350335fa	4.887985e-07
237	0x361840b1	2.268742e-06
238	0x363d465a	2.8204145e-06
239	0x351e2f36	5.892829e-07
240	0x34f71c11	4.6027756e-07
241	0x36052141	1.98379e-06
242	0x3474330a	2.2742839e-07
243	0x35a92772	1.2602961e-06
244	0x35b6214b	1.3569746e-06
245	0x315e693f	3.2365077e-09
246	0x353a96f2	6.9510054e-07
247	0x35b80c0c	1.3712574e-06
248	0x3579dad8	9.307819e-07
249	0x35fc049b	1.8776803e-06
250	0x34ed95dc	4.4253727e-07
251	0x357ff426	9.5350185e-07
252	0x3307d60e	3.162682e-08
253	0x3418db4a	1.423588e-07
254	0x338617d2	6.244194e-08
255	0x358b774b	1.0391026e-06

exp_avg f4 [16]
0	0xbc98087a	-0.01855873
1	0x3b8d3457	0.004309218
2	0xbc8364f5	-0.016039351
3	0x3c68e2c4	0.014214221
4	0x3b74caab	0.0037352245
5	0x3b8b882e	0.0042581772
6	0xbc3f4b98	-0.011675738
7	0xbd0d6ea8	-0.03452936
8	0x3b3f3719	0.0029177128
9	0xbca24692	-0.019809041
10	0xbc8c9b04	-0.017163761
11	0x39711909	0.00022992877
12	0xbacf05f1	-0.0015794617
13	0xbbb05f86	-0.005382481
14	0x3c0fec19	0.008784317
15	0x3a68b6f7	0.00088773615

exp_avg_sq f4 [16]
0	0x37434c6c	1.1640699e-05
1	0x353e1f37	7.082594e-07
2	0x370b133d	8.289525e-06
3	0x372325ca	9.724356e-06
4	0x35ba3f60	1.3876524e-06
5	0x3572472b	9.025559e-07
6	0x36b7d4eb	5.478612e-06
7	0x3831717e	4.2305786e-05
8	0x349b2b2d	2.8902414e-07
9	0x375a000a	1.2993822e-05
10	0x373214c7	1.0614464e-05
11	0x345b7495	2.0438377e-07
12	0x33f8facc	1.15940196e-07
13	0x3563bddd	8.484038e-07
14	0x36579ee2	3.2129979e-06
15	0x3498a163	2.842963e-07

exp_avg f4 [32, 32]
0	0x00000000	0.0
1	0x00000000	0.0
2	0x00000000	0.0
3	0x00000000	0.0
4	0x00000000	0.0
5	0x00000000	0.0
6	0x00000000	0.0
7	0x00000000	0.0
8	0x00000000	0.0
9	0x00000000	0.0
10	0x00000000	0.0
11	0x00000000	0.0
12	0x00000000	0.0
13	0x00000000	0.0
14	0x00000000	0.0
15	0x00000000	0.0
16	0x00000000	0.0
17	0x00000000	0.0
18	0x00000000	0.0
19	0x00000000	0.0
20	0x00000000	0.0
21	0x00000000	0.0
22	0x00000000	0.0
23	0x00000000	0.0
24	0x00000000	0.0
25	0x00000000	0.0
26	0x00000000	0.0
27	0x00000000	0.0
28	0x00000000	0.0
29	0x00000000	0.0
30	0x00000000	0.0
31	0x00000000	0.0
32	0x00000000	0.0
33	0x00000000	0.0
34	0x00000000	0.0
35	0x00000000	0.0
36	0x00000000	0.0
37	0x00000000	0.0
38	0x00000000	0.0
39	0x00000000	0.0
40	0x00000000	0.0
41	0x00000000	0.0
42	0x00000000	0.0
43	0x00000000	0.0
44	0x00000000	0.0
45	0x00000000	0.0
46	0x00000000	0.0
47	0x00000000	0.0
48	0x00000000	0.0
49	0x00000000	0.0
50	0x00000000	0.0
51	0x00000000	0.0
52	0x00000000	0.0
53	0x00000000	0.0
54	0x00000000	0.0
55	0x00000000	0.0
56	0x00000000	0.0
57	0x00000000	0.0
58	0x00000000	0.0
59	0x00000000	0.0
60	0x00000000	0.0
61	0x00000000	0.0
62	0x00000000	0.0
63	0x00000000	0.0
64	0xbc69a62b	-0.014260809
65	0xbc3b715e	-0.011440603
66	0xbcc825d1	-0.024432095
67	0xbc833b5f	-0.016019521
68	0xbc28c1b0	-0.010300085
69	0xbc77a840	-0.0151157975
70	0xbc7ca547	-0.015420265
71	0xbc752d1d	-0.014964369
72	0xbc68dc18	-0.014212631
73	0xbce3ad82	-0.027792696
74	0xbc7cdfb7	-0.015434197
75	0xbc371bdd	-0.011176077
76	0xbc2701ae	-0.010193272
77	0xbc6866db	-0.014184679
78	0xbc87843b	-0.016542545
79	0xbcbf75fb	-0.023371687
80	0xbaeb4f59	-0.0017952725
81	0xba85f4e7	-0.0010220081
82	0xbc0ac3d3	-0.00846954
83	0xbb45700d	-0.0030126602
84	0xba6d9855	-0.0009063532
85	0xbb073ede	-0.0020636837
86	0xbb1088ae	-0.0022054124
87	0xbb26ee55	-0.0025471647
88	0xbb0279b9	-0.0019908978
89	0xbc1f2db7	-0.009715489
90	0xbb3a0e77	-0.002838997
91	0xbab20301	-0.0013581217
92	0xba674895	-0.0008822766
93	0xbaea75d3	-0.0017887898
94	0xbb3d6cdc	-0.0028903997
95	0xbbd61019	-0.0065326807
96	0x39ca2055	0.00038552532
97	0x39ab27bc	0.00032645266
98	0x3a1ea330	0.00060515385
99	0x39ceba2d	0.00039430094
100	0x39af9f3e	0.00033497246
101	0x39ebbc80	0.00044963136
102	0x39ffd67f	0.00048797202
103	0x39d995a3	0.00041500953
104	0x39b28e5f	0.0003405688
105	0x3a49fec1	0.0007705503
106	0x39b7cf17	0.00035058774
107	0x39afd841	0.00033539723
108	0x398cc9b8	0.00026853173
109	0x39cea1e4	0.00039412
110	0x39e07889	0.00042814415
111	0x3a426836	0.00074160413
112	0x3817ec37	3.6221198e-05
113	0x38126df1	3.4911503e-05
114	0x39633df7	0.0002167149
115	0x38aa7a36	8.128995e-05
116	0x37f185cd	2.8791745e-05
117	0x388f0c3d	6.821051e-05
118	0x386c514d	5.6342502e-05
119	0x38577fad	5.1378902e-05
120	0x38467b43	4.7321675e-05
121	0x3991889c	0.00027758337
122	0x388d0753	6.724768e-05
123	0x3848e03b	4.7892547e-05
124	0x37fceff4	3.0152478e-05
125	0x382bc7b6	4.0955572e-05
126	0x38ac12f5	8.20513e-05
127	0x396187e4	0.00021508295
128	0x00000000	0.0
129	0x00000000	0.0
130	0x00000000	0.0
131	0x00000000	0.0
132	0x00000000	0.0
133	0x00000000	0.0
134	0x00000000	0.0
135	0x00000000	0.0
136	0x00000000	0.0
137	0x00000000	0.0
138	0x00000000	0.0
139	0x00000000	0.0
140	0x00000000	0.0
141	0x00000000	0.0
142	0x00000000	0.0
143	0x00000000	0.0
144	0x00000000	0.0
145	0x00000000	0.0
146	0x00000000	0.0
147	0x00000000	0.0
148	0x00000000	0.0
149	0x00000000	0.0
150	0x00000000	0.0
151	0x00000000	0.0
152	0x00000000	0.0
153	0x00000000	0.0
154	0x00000000	0.0
155	0x00000000	0.0
156	0x00000000	0.0
157	0x00000000	0.0
158	0x00000000	0.0
159	0x00000000	0.0
160	0xb9695148	-0.00022250891
161	0xb8d0d885	-9.958543e-05
162	0xb9a6f5cf	-0.0003184513
163	0xb95b7c90	-0.0002093187
164	0xb901409c	-0.00012326468
165	0xb90ebab3	-0.00013611726
166	0xb91b6541	-0.00014819672
167	0xb958a660	-0.00020661345
168	0xb9254670	-0.00015761866
169	0xb99f2671	-0.00030355484
170	0xb9404f72	-0.00018340143
171	0xb90af5be	-0.00013252252
172	0xb912f7c4	-0.00014015945
173	0xb9360214	-0.00017357647
174	0xb96213d8	-0.00021560432
175	0xb98f73ae	-0.00027361274
176	0xb80d45be	-3.3681972e-05
177	0xb715a145	-8.918641e-06
178	0xb8f1c229	-0.00011527941
179	0xb812447f	-3.4872905e-05
180	0xb740694b	-1.1468607e-05
181	0xb777e8ec	-1.4776579e-05
182	0xb7ca639e	-2.4126664e-05
183	0xb83033c5	-4.2009884e-05
184	0xb7dc1b81	-2.6238851e-05
185	0xb904ef5b	-0.00012677668
186	0xb8192e1a	-3.6520978e-05
187	0xb7940d6b	-1.7649223e-05
188	0xb71d2fd7	-9.369068e-06
189	0xb7f31fc3	-2.8982648e-05
190	0xb808a620	-3.2579643e-05
191	0xb890ff38	-6.913993e-05
192	0x00000000	0.0
193	0x00000000	0.0
194	0x00000000	0.0
195	0x00000000	0.0
196	0x00000000	0.0
197	0x00000000	0.0
198	0x00000000	0.0
199	0x00000000	0.0
200	0x00000000	0.0
201	0x00000000	0.0
202	0x00000000	0.0
203	0x00000000	0.0
204	0x00000000	0.0
205	0x00000000	0.0
206	0x00000000	0.0
207	0x00000000	0.0
208	0x00000000	0.0
209	0x00000000	0.0
210	0x00000000	0.0
211	0x00000000	0.0
212	0x00000000	0.0
213	0x00000000	0.0
214	0x00000000	0.0
215	0x00000000	0.0
216	0x00000000	0.0
217	0x00000000	0.0
218	0x00000000	0.0
219	0x00000000	0.0
220	0x00000000	0.0
221	0x00000000	0.0
222	0x00000000	0.0
223	0x00000000	0.0
224	0x00000000	0.0
225	0x00000000	0.0
226	0x00000000	0.0
227	0x00000000	0.0
228	0x00000000	0.0
229	0x00000000	0.0
230	0x00000000	0.0
231	0x00000000	0.0
232	0x00000000	0.0
233	0x00000000	0.0
234	0x00000000	0.0
235	0x00000000	0.0
236	0x00000000	0.0
237	0x00000000	0.0
238	0x00000000	0.0
239	0x00000000	0.0
240	0x00000000	0.0
241	0x00000000	0.0
242	0x00000000	0.0
243	0x00000000	0.0
244	0x00000000	0.0
245	0x00000000	0.0
246	0x00000000	0.0
247	0x00000000	0.0
248	0x00000000	0.0
249	0x00000000	0.0
250	0x00000000	0.0
251	0x00000000	0.0
252	0x00000000	0.0
253	0x00000000	0.0
254	0x00000000	0.0
255	0x00000000	0.0

exp_avg_sq f4 [32, 32]
0	0x00000000	0.0
1	0x00000000	0.0
2	0x00000000	0.0
3	0x00000000	0.0
4	0x00000000	0.0
5	0x00000000	0.0
6	0x00000000	0.0
7	0x00000000	0.0
8	0x00000000	0.0
9	0x00000000	0.0
10	0x00000000	0.0
11	0x00000000	0.0
12	0x00000000	0.0
13	0x00000000	0.0
14	0x00000000	0.0
15	0x00000000	0.0
16	0x00000000	0.0
17	0x00000000	0.0
18	0x00000000	0.0
19	0x00000000	0.0
20	0x00000000	0.0
21	0x00000000	0.0
22	0x00000000	0.0
23	0x00000000	0.0
24	0x00000000	0.0
25	0x00000000	0.0
26	0x00000000	0.0
27	0x00000000	0.0
28	0x00000000	0.0
29	0x00000000	0.0
30	0x00000000	0.0
31	0x00000000	0.0
32	0x00000000	0.0
33	0x00000000	0.0
34	0x00000000	0.0
35	0x00000000	0.0
36	0x00000000	0.0
37	0x00000000	0.0
38	0x00000000	0.0
39	0x00000000	0.0
40	0x00000000	0.0
41	0x00000000	0.0
42	0x00000000	0.0
43	0x00000000	0.0
44	0x00000000	0.0
45	0x00000000	0.0
46	0x00000000	0.0
47	0x00000000	0.0
48	0x00000000	0.0
49	0x00000000	0.0
50	0x00000000	0.0
51	0x00000000	0.0
52	0x00000000	0.0
53	0x00000000	0.0
54	0x00000000	0.0
55	0x00000000	0.0
56	0x00000000	0.0
57	0x00000000	0.0
58	0x00000000	0.0
59	0x00000000	0.0
60	0x00000000	0.0
61	0x00000000	0.0
62	0x00000000	0.0
63	0x00000000	0.0
64	0x36e14941	6.7140504e-06
65	0x36a60495	4.947719e-06
66	0x37ad236d	2.0639704e-05
67	0x3720f8ab	9.594641e-06
68	0x36916a5b	4.333718e-06
69	0x37134e03	8.780046e-06
70	0x37067452	8.014105e-06
71	0x37011f49	7.696283e-06
72	0x36f7c82e	7.3844776e-06
73	0x37e64f9c	2.7455208e-05
74	0x3707b1c2	8.0880145e-06
75	0x369cc35d	4.6719056e-06
76	0x3674c634	3.6474203e-06
77	0x36e1bc7a	6.727464e-06
78	0x372dd304	1.0360734e-05
79	0x37abdd06	2.048771e-05
80	0x33cc2070	9.5053906e-08
81	0x3340dac3	4.4902446e-08
82	0x361f7201	2.3759205e-06
83	0x34c6ba3a	3.7015872e-07
84	0x331ca119	3.6468098e-08
85	0x344c1a15	1.9008469e-07
86	0x34269676	1.5514692e-07
87	0x3453f01f	1.9738262e-07
88	0x3424fa44	1.5364736e-07
89	0x3650339e	3.102446e-06
90	0x348a25a7	2.57319e-07
91	0x339a85a9	7.1954965e-08
92	0x32e474fe	2.6595895e-08
93	0x33cc56ec	9.515301e-08
94	0x34b6c7d4	3.4045536e-07
95	0x35e1d642	1.6826164e-06
96	0x32be38c4	2.2144725e-08
97	0x32680bee	1.350689e-08
98	0x334d202b	4.775954e-08
99	0x32c86296	2.3327896e-08
100	0x32937325	1.7165414e-08
101	0x32f63294	2.866117e-08
102	0x330defc6	3.3047193e-08
103	0x32e8f387	2.7119098e-08
104	0x32b2db81	2.0821746e-08
105	0x33a9c715	7.9058886e-08
106	0x32894fc1	1.5985167e-08
107	0x32821a42	1.5145933e-08
108	0x323afce9	1.088413e-08
109	0x32b3bc87	2.0924075e-08
110	0x32e4c653	2.663288e-08
111	0x339f8c6a	7.4295556e-08
112	0x2f5b2451	1.9930836e-10
113	0x2f2fea90	1.599949e-10
114	0x31d1e8dc	6.1091736e-09
115	0x3099980b	1.1175428e-09
116	0x2f2cc2a9	1.5712466e-10
117	0x302cc73d	6.285637e-10
118	0x2ffd0eb4	4.603088e-10
119	0x2fdfc4e7	4.070337e-10
120	0x30059e51	4.86101e-10
121	0x322b278f	9.962505e-09
122	0x2fe2df49	4.1267814e-10
123	0x2fa1ba22	2.9417985e-10
124	0x2f13538e	1.3399257e-10
125	0x2f628f41	2.0605474e-10
126	0x3096eb45	1.0980804e-09
127	0x31c0d82e	5.6125122e-09
128	0x00000000	0.0
129	0x00000000	0.0
130	0x00000000	0.0
131	0x00000000	0.0
132	0x00000000	0.0
133	0x00000000	0.0
134	0x00000000	0.0
135	0x00000000	0.0
136	0x00000000	0.0
137	0x00000000	0.0
138	0x00000000	0.0
139	0x00000000	0.0
140	0x00000000	0.0
141	0x00000000	0.0
142	0x00000000	0.0
143	0x00000000	0.0
144	0x00000000	0.0
145	0x00000000	0.0
146	0x00000000	0.0
147	0x00000000	0.0
148	0x00000000	0.0
149	0x00000000	0.0
150	0x00000000	0.0
151	0x00000000	0.0
152	0x00000000	0.0
153	0x00000000	0.0
154	0x00000000	0.0
155	0x00000000	0.0
156	0x00000000	0.0
157	0x00000000	0.0
158	0x00000000	0.0
159	0x00000000	0.0
160	0x3105b1f2	1.9455197e-09
161	0x2fe831bb	4.223589e-10
162	0x3197a281	4.413153e-09
163	0x3102ca6a	1.9032549e-09
164	0x30378e7e	6.6777506e-10
165	0x3045f615	7.2017886e-10
166	0x308438b3	9.620379e-10
167	0x30fa82d7	1.8227081e-09
168	0x309dd9c7	1.148515e-09
169	0x3188271c	3.962567e-09
170	0x30c93922	1.4640913e-09
171	0x30565ea0	7.7987217e-10
172	0x3071c0af	8.794911e-10
173	0x30aa353c	1.2384258e-09
174	0x311097a2	2.1040951e-09
175	0x3155e342	3.112476e-09
176	0x2e546059	4.8288793e-11
177	0x2c4fa9b2	2.951067e-12
178	0x302075a4	5.837484e-10
179	0x2e7c54a8	5.7373356e-11
180	0x2d0555b3	7.579204e-12
181	0x2d20d7c6	9.142858e-12
182	0x2de95675	2.6527428e-11
183	0x2ebcb07f	8.580602e-11
184	0x2e10cfcd	3.2926373e-11
185	0x303eddad	6.943662e-10
186	0x2e8215ac	5.915565e-11
187	0x2d52b3c0	1.19770305e-11
188	0x2ca1f84d	4.603462e-12
189	0x2e2345a3	3.712376e-11
190	0x2e37d993	4.1802627e-11
191	0x2f58b33e	1.9708765e-10
192	0x00000000	0.0
193	0x00000000	0.0
194	0x00000000	0.0
195	0x00000000	0.0
196	0x00000000	0.0
197	0x00000000	0.0
198	0x00000000	0.0
199	0x00000000	0.0
200	0x00000000	0.0
201	0x00000000	0.0
202	0x00000000	0.0
203	0x00000000	0.0
204	0x00000000	0.0
205	0x00000000	0.0
206	0x00000000	0.0
207	0x00000000	0.0
208	0x00000000	0.0
209	0x00000000	0.0
210	0x00000000	0.0
211	0x00000000	0.0
212	0x00000000	0.0
213	0x00000000	0.0
214	0x00000000	0.0
215	0x00000000	0.0
216	0x00000000	0.0
217	0x00000000	0.0
218	0x00000000	0.0
219	0x00000000	0.0
220	0x00000000	0.0
221	0x00000000	0.0
222	0x00000000	0.0
223	0x00000000	0.0
224	0x00000000	0.0
225	0x00000000	0.0
226	0x00000000	0.0
227	0x00000000	0.0
228	0x00000000	0.0
229	0x00000000	0.0
230	0x00000000	0.0
231	0x00000000	0.0
232	0x00000000	0.0
233	0x00000000	0.0
234	0x00000000	0.0
235	0x00000000	0.0
236	0x00000000	0.0
237	0x00000000	0.0
238	0x00000000	0.0
239	0x00000000	0.0
240	0x00000000	0.0
241	0x00000000	0.0
242	0x00000000	0.0
243	0x00000000	0.0
244	0x00000000	0.0
245	0x00000000	0.0
246	0x00000000	0.0
247	0x00000000	0.0
248	0x00000000	0.0
249	0x00000000	0.0
250	0x00000000	0.0
251	0x00000000	0.0
252	0x00000000	0.0
253	0x00000000	0.0
254	0x00000000	0.0
255	0x00000000	0.0

exp_avg f4 [32]
0	0x00000000	0.0
1	0x00000000	0.0
2	0xbcad557b	-0.021158924
3	0x3a1b5b0b	0.0005926347
4	0x00000000	0.0
5	0xb984d44e	-0.0002533518
6	0x00000000	0.0
7	0x00000000	0.0
8	0xbcb0b722	-0.0215717
9	0xbb9c7a35	-0.0047753104
10	0x00000000	0.0
11	0x00000000	0.0
12	0xbcbb44f7	-0.022860033
13	0x3cad673b	0.021167388
14	0xbcbd22a4	-0.023087807
15	0x3cae247a	0.021257628
16	0xbc88616e	-0.01664802
17	0xbc1dbbcc	-0.009627294
18	0x3cc4433b	0.02395784
19	0xbc0d3142	-0.008617701
20	0x3b2124ef	0.0024588665
21	0x00000000	0.0
22	0x3b4c12ca	0.003113913
23	0xbc0cbab8	-0.008589439
24	0x00000000	0.0
25	0x00000000	0.0
26	0x00000000	0.0
27	0x00000000	0.0
28	0xbc9b1df5	-0.018935183
29	0x37d18102	2.4974815e-05
30	0xbce8e601	-0.028429987
31	0xbabc4eeb	-0.0014366781

exp_avg_sq f4 [32]
0	0x00000000	0.0
1	0x00000000	0.0
2	0x3786840d	1.6035536e-05
3	0x334c49df	4.7564637e-08
4	0x00000000	0.0
5	0x313d0b0e	2.7509404e-09
6	0x00000000	0.0
7	0x00000000	0.0
8	0x379f648b	1.9001096e-05
9	0x353148de	6.6043674e-07
10	0x00000000	0.0
11	0x00000000	0.0
12	0x379c9a2f	1.8668447e-05
13	0x377ff33c	1.5255817e-05
14	0x37a48287	1.9611105e-05
15	0x37e2e3a1	2.7047297e-05
16	0x371f23e1	9.485492e-06
17	0x365754d7	3.208688e-06
18	0x37b46329	2.1503847e-05
19	0x361d926f	2.3480059e-06
20	0x347bfa09	2.3467159e-07
21	0x00000000	0.0
22	0x34d3bcf5	3.9439297e-07
23	0x3607bed0	2.0227635e-06
24	0x00000000	0.0
25	0x00000000	0.0
26	0x00000000	0.0
27	0x00000000	0.0
28	0x375ef4ca	1.32892255e-05
29	0x2f1eae7b	1.4432004e-10
30	0x37e66fd7	2.7470216e-05
31	0x33c46e94	9.147075e-08

exp_avg f4 [1, 32]
0	0x00000000	0.0
1	0x00000000	0.0
2	0xbdb1bc68	-0.08678514
3	0xb887e915	-6.4807165e-05
4	0x00000000	0.0
5	0xb9d80938	-0.000412056
6	0x00000000	0.0
7	0x00000000	0.0
8	0xbd23428f	-0.039858397
9	0xbc7ebd3a	-0.015548045
10	0x00000000	0.0
11	0x00000000	0.0
12	0xbd95c19e	-0.0731232
13	0xbdf18d5b	-0.117945395
14	0xbcd929d0	-0.026509196
15	0xbc210d3e	-0.009829817
16	0xbe087f9a	-0.13329926
17	0xbce1814e	-0.027527478
18	0xbd8389d6	-0.064227745
19	0xbdbc8a94	-0.09206119
20	0xbab85985	-0.0014064765
21	0x00000000	0.0
22	0xbe136cc7	-0.14396964
23	0xbba7db64	-0.005122589
24	0x00000000	0.0
25	0x00000000	0.0
26	0x00000000	0.0
27	0x00000000	0.0
28	0xbdd37154	-0.1032435
29	0xb7037bd5	-7.83704e-06
30	0xbd985fe2	-0.07440163
31	0xb9a4adaa	-0.00031409907

exp_avg_sq f4 [1, 32]
0	0x00000000	0.0
1	0x00000000	0.0
2	0x39749a2c	0.00023327087
3	0x307386a6	8.859423e-10
4	0x00000000	0.0
5	0x322c9c61	1.0047274e-08
6	0x00000000	0.0
7	0x00000000	0.0
8	0x384d13fb	4.8894417e-05
9	0x36ce644a	6.1509536e-06
10	0x00000000	0.0
11	0x00000000	0.0
12	0x3944493e	0.00018719301
13	0x3a0738bf	0.0005158297
14	0x37b0d9e8	2.1082305e-05
15	0x3707fb36	8.105117e-06
16	0x3a15e0a5	0.00057173736
17	0x37b7ed7f	2.1925893e-05
18	0x393fd591	0.00018294739
19	0x3988a859	0.0002606537
20	0x33b47d89	8.404738e-08
21	0x00000000	0.0
22	0x3a4af874	0.0007742711
23	0x353f01dd	7.1155756e-07
24	0x00000000	0.0
25	0x00000000	0.0
26	0x00000000	0.0
27	0x00000000	0.0
28	0x39c2d048	0.00037157745
29	0x2d7a00e4	1.42110525e-11
30	0x393c0cfa	0.00017933911
31	0x31849fef	3.859888e-09
