tests/_logs/test_fit/singletask/checkpoints/epoch=0-step=6-v3.ckpt (torch, 33321 bytes, 15 tensors)

convnet.module.0.weight f4 [16, 4, 16]
000000 45 a3 9a 3c e1 81 c6 bd 79 60 56 bd de ef 59 3d
       0.018876681 -0.09692741 -0.052338097 0.05320727
000010 f8 7e e6 3d 90 e1 41 3d e1 c8 b0 bd 3c 07 60 3d
       0.11254686 0.047334254 -0.086320646 0.0546944
000020 50 4e dc bd 81 80 c7 3d 61 7a 41 bd a8 d3 3d bd
       -0.107571244 0.09741307 -0.04723585 -0.04634443
000030 f5 03 a1 bb 39 9a 41 3c 78 a1 04 be 9c 22 e4 bd
       -0.004913802 0.011816555 -0.1295222 -0.11139414
000040 f4 f8 29 bd 03 1a e2 3d 1d 54 10 3d 44 e6 81 3c
       -0.041497186 0.110401176 0.035236467 0.01585687
000050 91 25 d7 bd 91 d6 20 3c c5 c2 bd bd 42 d1 90 3d
       -0.10505212 0.009816782 -0.09265665 0.07071163
000060 34 d9 f4 bd a9 16 4b bb 62 b3 fb bd cc b0 fa 3b
       -0.11955491 -0.0030988848 -0.12290074 0.0076504704
000070 2d 63 c0 3d a9 f4 d3 bd 5c ad 6e bb 93 f7 bc 3c
       0.09393916 -0.103493996 -0.0036419248 0.023067271
000080 4c ba d8 bd fc d0 31 bc ea fb f1 bd 00 c8 a7 3d
       -0.10582408 -0.010853048 -0.11815627 0.08192444
000090 55 3e a5 bd 10 13 79 bd b6 39 1c 3d 77 bb 23 bd
       -0.080685295 -0.060809195 0.038140975 -0.039973702
0000a0 a3 2b 88 3d d2 fd ab 3d 62 cc 3a bd d3 d7 21 bd
       0.06648948 0.08398022 -0.04560507 -0.039512467
0000b0 2d 95 3f 3d 8b 81 18 3d 5f 93 88 bd 97 f9 d2 bd
       0.046773124 0.037232917 -0.06668734 -0.10301512
0000c0 d9 f7 ef bd bf 87 bf bc de 71 47 bd f6 73 83 3d
       -0.11717195 -0.023380158 -0.048692577 0.06418602
0000d0 7d 72 6d 3c 18 5e 2f 3d 3d a7 c3 bd 71 c4 a6 3d
       0.014492628 0.042814344 -0.095533825 0.08142937
0000e0 54 6e 92 3d 5e ba a1 3b 79 0e 84 3d 2c 2e ef 3d
       0.0714995 0.004935547 0.06448073 0.116787285
0000f0 af 16 02 3d ee 8c cd bd 9a ad 26 bd 11 b0 73 bb
       0.031759914 -0.10036646 -0.040692903 -0.0037183801
000100 72 59 4d bd fd 64 f3 bd 18 34 2e bb 46 95 5e 3d
       -0.05013413 -0.11884496 -0.0026581343 0.054341577
000110 c3 08 4a bc bf eb 44 3d d7 0b cc 3d 30 01 8b 3d
       -0.0123311905 0.048076387 0.09963196 0.06787336
000120 18 80 3b bc 7b 51 bf 3d 53 90 c1 3c b0 5b 86 bc
       -0.011444114 0.09341713 0.02362839 -0.016401142
000130 8b 74 1b bd 8d 06 70 bd 60 7f d7 ba 37 02 83 bb
       -0.03795294 -0.058599997 -0.0016441159 -0.0039980668
000140 50 bc e1 3d e0 b6 00 be 6d 94 6f 3d da f1 03 be
       0.11022246 -0.12569761 0.05849116 -0.12885228
000150 e1 20 67 3d 3d fb 20 bd 5d 3b 2a bd b2 07 04 bd
       0.05642784 -0.0393021 -0.04156052 -0.0322339
000160 f3 58 6c bd a8 f7 a6 3d 46 e9 a5 3d 5d 9c dd 3d
       -0.057702016 0.081527054 0.08101134 0.108208396
000170 30 08 98 bc 9b 6d 2d 3d 2f 67 9d bd 52 fc 56 bd
       -0.018558592 0.042340856 -0.07685696 -0.052486725
000180 48 55 07 bd 3b 38 85 bb 17 e5 ff bd d1 02 a8 bd
       -0.033040315 -0.004065541 -0.12494867 -0.08203662
000190 09 52 80 3a 55 63 cb bd 1a e8 95 bd 7f 8d 9f 3d
       0.0009790073 -0.099310555 -0.073196605 0.0779066
0001a0 6d 5f e5 ba ae 2a 2c 3d 03 91 8e 3d 9f 51 c9 3d
       -0.0017499753 0.04203289 0.069612525 0.09830021
0001b0 1c 74 ea bd 79 fe ad 3d c3 e2 4c bd b8 ab d0 3d
       -0.11447927 0.084958024 -0.050020944 0.10189003
0001c0 8b 0b 2a 3c 7c 78 00 be 59 4f d0 3d 91 f1 85 bb
       0.010378729 -0.12545961 0.10171384 -0.004087635
0001d0 7e b8 3f 3d 51 35 b2 bd 26 b3 e5 3d 6e 0d a7 bd
       0.046806805 -0.087015755 0.112158105 -0.081568584
0001e0 6a 69 84 bb 6d 34 87 3d 7d a7 07 3d 30 b2 98 bd
       -0.0040408866 0.06601796 0.033118714 -0.074558616
0001f0 b1 a5 82 3c cc 2e d0 3d aa 9c 09 3d ef eb 44 3d
       0.015948148 0.10165176 0.033596672 0.048076566
000200 dc f4 97 bc d1 e7 04 be 00 0a 11 3d 60 ce c6 bd
       -0.018549375 -0.12979056 0.035409927 -0.09707332
000210 b5 39 8f bd 3f 9c b4 3d 21 dd a5 bc fe a8 96 3d
       -0.069934286 0.08818864 -0.020247044 0.073564515
000220 a8 da 3c 3d e6 28 9b 3c b9 a3 1b 3d ae 24 3b 3d
       0.046106964 0.0189404 0.037997935 0.045689277
000230 ef 7d 72 bd 08 7c 42 3d 5c 39 20 3d f8 a9 a4 3d
       -0.05920213 0.047481567 0.039117202 0.080402315
000240 17 eb 07 bd 71 12 d4 bd 70 7e 94 38 47 17 47 bd
       -0.033183184 -0.1035508 7.080741e-05 -0.048606183
000250 4a 38 cd 3d e6 b7 65 3b 61 55 9b 3b 61 63 bb 3d
       0.10020502 0.003505224 0.0047404026 0.091498144
000260 cc a1 cc bc ec 49 f7 bd cb a9 14 3d 56 31 88 3d
       -0.024979495 -0.12074646 0.03629474 0.06650035
000270 f5 e4 e2 bd fb cb 9b bd ae 1b ce 3d 53 5f be 3c
       -0.11078826 -0.076072656 0.10063873 0.023238814
000280 d4 b2 3a 3d e0 9f d5 3d 58 42 b7 bd b2 1d 8f 3d
       0.0455807 0.10430884 -0.08948201 0.06988086
000290 6d d4 03 be 7d 00 24 bd 48 ce ed 3d 23 eb c0 bc
       -0.12874003 -0.04003953 0.11611611 -0.023549622
0002a0 12 6c 85 3d d4 34 b7 bc 3d 4d 1a 3d 16 d1 1e bd
       0.065147534 -0.022364058 0.037671316 -0.03877362
0002b0 aa 73 82 3d 03 96 bb bb ce c3 72 3c 63 d9 68 3c
       0.063697174 -0.00572467 0.014817191 0.014211985
0002c0 b4 f5 f8 3c db 4f de bd d1 1f 02 be 78 fe b2 bd
       0.030390598 -0.10855075 -0.1270745 -0.08739942
0002d0 20 2f 30 bd 38 65 05 be f5 dc 19 3d f1 da de 3d
       -0.043013692 -0.13026893 0.037564237 0.108816035
0002e0 34 bd 5c bb ab 63 db bd 5b 21 81 3d 77 5a b5 bd
       -0.003368211 -0.107123695 0.0630519 -0.088551454
0002f0 7d 3e 1b bd 33 55 2a bd 9c 7f 06 bd 69 87 b0 bd
       -0.03790139 -0.04158516 -0.03283654 -0.086195774
000300 42 3d a8 3d a5 aa 4f 3d 1e 01 98 3d 9d a0 ba 3d
       0.08214809 0.05069985 0.07422088 0.09112666
000310 0b 05 1b bd ed 9a a3 3d d9 a2 0c bc 53 35 ae bd
       -0.037846606 0.07988534 -0.008583748 -0.085062645
000320 12 fe bd 3d 73 71 88 bd fb cd 44 3d f0 08 82 3d
       0.09276976 -0.06662264 0.048048 0.06349361
000330 89 77 64 bd 4a 66 9d bd cc 10 ca bd ff 06 2a bd
       -0.05577806 -0.07685526 -0.09866485 -0.04151058
000340 b7 2c e6 3d 64 3d ab bd 63 91 60 3d 81 67 de bd
       0.112389974 -0.08361319 0.05482615 -0.108595856
000350 3d 52 ef 3d be 79 49 3d d4 49 ea 3d 1d 0a ad bd
       0.116856076 0.049188368 0.11439863 -0.084491946
000360 80 bc 96 3d 5b 86 9c bb 2d 66 30 3d 20 9b 86 3d
       0.07360172 -0.0047767586 0.043066192 0.065725565
000370 af 8f 28 3a 21 a3 a6 3d f6 2d 3c 3d 14 06 c5 bd
       0.0006430102 0.08136583 0.04594227 -0.096203
000380 d5 9c ee bd 45 37 d1 bd a9 b7 b9 bd 2f 55 c3 bc
       -0.11651007 -0.1021562 -0.090682335 -0.02384433
000390 ca 4d 9e bc 6d 3d da bd 02 40 d7 3c cf 79 15 bd
       -0.019324202 -0.10656247 0.026275638 -0.03649312
0003a0 0e 81 05 bd 37 b3 e1 3d e5 33 c1 bd dd 03 a5 3d
       -0.03259378 0.11020511 -0.09433726 0.080573775
0003b0 1d f9 b0 3d d7 19 82 3d ef fc 92 bc 7a 06 b1 3c
       0.086412646 0.06352585 -0.017942874 0.021609534
0003c0 8d fb f6 3c c5 c6 ea 3d 9b cd e7 3c 5f ad 7c bc
       0.030149246 0.114636935 0.028296283 -0.015422194
0003d0 43 fa 96 bc db e2 82 3c 2b d1 ef bd 13 15 ca bd
       -0.018429881 0.015977314 -0.117098175 -0.09867301
0003e0 91 d6 99 bc 3b e4 9d bd e8 bd f6 3c 06 55 31 bd
       -0.018779071 -0.07709547 0.030119851 -0.043293975
0003f0 ea 8c 26 bd 07 07 b0 3c 69 21 2f bd af 42 b4 bd
       -0.04066173 0.021487726 -0.04275647 -0.088017814

convnet.module.0.bias f4 [16]
000000 ca 6b 91 bd 01 e1 d1 bd 97 e0 31 bd 5e 57 d8 bd
       -0.07100637 -0.10247994 -0.043427076 -0.10563539
000010 ac cb 82 bd 2c 8f 83 bd 36 79 f6 bd 9d 2f f5 bd
       -0.063865036 -0.06423792 -0.12034838 -0.11971972
000020 5a bb 6d 3d ce 18 88 3d 9a f1 c0 3c cf 39 0c bd
       0.05804 0.06645356 0.023552705 -0.034234818
000030 ca e3 14 bd f3 6a 9d 3c 0b 25 73 3c 10 d8 ca bd
       -0.03635005 0.019216036 0.014840375 -0.09904492

fcn.module.0.weight f4 [32, 32]
000000 3b fa 52 bd 1f 4c d4 bd c4 f0 5d bd f5 58 a4 3d
       -0.05150817 -0.103660814 -0.05418469 0.0802478
000010 48 58 09 3e 5e b9 5c 3d 91 c6 47 bd fb e4 e9 bd
       0.13412583 0.053887717 -0.048773352 -0.11420628
000020 e9 22 18 3e d6 29 33 3e dd dd 11 3e 54 65 ec 3b
       0.14857067 0.17496428 0.1424479 0.0072142277
000030 a1 17 32 3d 85 73 0b 3e 8f 86 04 3e b1 e4 08 bc
       0.043479566 0.13618286 0.12941955 -0.0083553055
000040 b4 0a 94 3d 21 63 23 be d1 c9 2c be 53 c2 11 3e
       0.07228604 -0.15955783 -0.16873862 0.14234285
000050 3c ff e5 3d f7 c1 b1 3d 3c 85 04 3e 59 87 b3 3c
       0.11230323 0.08679574 0.1294145 0.021915125
000060 51 9f 7b 3d fe 30 25 be b0 60 a0 3d 35 99 06 bd
       0.061431233 -0.1613197 0.07830942 -0.032860953
000070 13 4a 2a be 7a 3b 05 3e 79 87 0d bd 4c d5 a4 3c
       -0.1662982 0.1301097 -0.034553025 0.02012124
000080 c7 2b 9b bd de de 0d be 05 47 c6 bd df 00 d9 bd
       -0.07576709 -0.13854548 -0.09681515 -0.10595869
000090 80 10 44 bd 80 6f ec bb 66 8c a6 3d 2c 20 45 bd
       -0.047867298 -0.0072154403 0.081322476 -0.048126385
0000a0 c8 51 c3 bc c8 38 bf bd 72 2a 74 bd b7 c7 03 3e
       -0.023842707 -0.09337002 -0.05961079 0.12869154
0000b0 4b 80 e6 bd 13 71 b6 bd c6 4c 02 be b4 1e 6e bd
       -0.11254939 -0.08908286 -0.12724599 -0.05813475
0000c0 8d bc e8 bd 80 89 a3 3b 20 e6 02 be a5 f2 c0 bd
       -0.11364088 0.0049907565 -0.12783098 -0.09421281
0000d0 68 b0 9d bd 88 43 33 be 00 ef c9 bc 53 cb c6 bd
       -0.076996624 -0.1750623 -0.024650097 -0.0970675
0000e0 3e 2b ae 3d f0 34 b4 bc 3f 42 0a be bd bc 0e 3e
       0.085043415 -0.021997899 -0.13501833 0.13939185
0000f0 f8 3b 56 3d 28 a7 13 be 75 4f 17 be 77 c3 8c bd
       0.052303284 -0.14419234 -0.14776404 -0.068732195
000100 5d 3e a3 bd 70 d4 d2 bc b1 ec 17 be 0c bb 6d bd
       -0.07970879 -0.025736064 -0.14836384 -0.05803971
000110 7a c0 de 3d 18 64 4f 3d c0 e8 45 bd 13 cd 93 bd
       0.10876556 0.050632566 -0.04831767 -0.07216849
000120 d5 d5 01 3e 34 5d 83 bd ed 52 20 be b5 ba 06 be
       0.12679227 -0.064142615 -0.15656634 -0.1315716
000130 a0 a4 fb 3b 6c 23 4a bd f6 9b 0a be da b2 ea bd
       0.007679537 -0.049350187 -0.13536057 -0.114598945
000140 08 dc ba 3c a0 ec 1e be 60 47 a1 bb c8 58 4b 3d
       0.022809997 -0.15519953 -0.0049218386 0.049645215
000150 f0 6a db bd 1f 24 b4 bd dc f0 4a 3d 1f 83 25 3e
       -0.10713756 -0.08795952 0.049546108 0.161633
000160 f0 06 56 3d 0e 17 d6 3d 99 26 29 3e 8a bb e8 3d
       0.05225271 0.10453616 0.1651863 0.11363895
000170 09 38 07 3e 90 d7 e9 3c 38 be b1 3c dd e9 ad bd
       0.1320497 0.028545171 0.021697149 -0.084918715
000180 37 2e 31 3d df 05 df bc 35 28 d3 bc f4 d5 13 be
       0.043256965 -0.02722448 -0.025776008 -0.14437085
000190 01 d7 fc 3c ed d7 25 3e 9a 73 96 bd 53 45 46 3d
       0.03086424 0.1619565 -0.07346268 0.048405956
0001a0 61 43 a9 bd ee 97 49 bc f7 dc a6 3d 98 5c d1 bc
       -0.08264805 -0.012304289 0.081476144 -0.025556847
0001b0 8b cc 20 be 6e c0 05 be c8 05 a1 3d 13 9c 09 bd
       -0.15703027 -0.13061687 0.07862431 -0.03359611
0001c0 c5 37 f5 3d 36 6a b5 3c ac 55 a2 bd a4 31 0b 3e
       0.11973528 0.022145372 -0.07926497 0.13593155
0001d0 1d 45 c3 3d ac c7 1f be 35 33 07 3e 5f 72 27 be
       0.09534667 -0.15603513 0.13203128 -0.16352223
0001e0 bd fd 9b 3b 93 5b 95 3d 5d 80 02 3d 27 72 bd 3d
       0.0047604726 0.07292857 0.031860698 0.092502885
0001f0 ad 3d 2e be 34 93 e6 3c 37 c6 2c be 5d 8c ae 3b
       -0.17015715 0.028146364 -0.16872488 0.005326791
000200 4c c5 2e bd 60 ec ae bb a0 31 c5 3c d8 0f 56 bd
       -0.042668626 -0.0053382367 0.024071515 -0.052261204
000210 e3 dd b9 bd 80 60 be bc 51 da 9a bd e0 33 e1 bd
       -0.09075525 -0.023239374 -0.07561172 -0.109962225
000220 5c d6 f3 bd 17 7e 30 be 04 47 50 bd 2b 70 fc bd
       -0.1190612 -0.172356 -0.050848976 -0.12326082
000230 e0 e7 8d bd 90 41 6c 3d 99 e6 05 be d4 12 07 3d
       -0.06928992 0.057679713 -0.13076247 0.03297694
000240 2c 34 13 3d 36 92 84 3d 50 3f 33 be 0d 88 a2 bd
       0.035938427 0.064732 -0.1750462 -0.07936106
000250 48 8d 44 bd 6a 51 b5 3d 40 77 b4 3c 40 c1 81 3b
       -0.0479863 0.08853419 0.02202952 0.003959805
000260 46 7f c1 3d 40 64 c3 3b be 32 ab bd c7 78 2c 3e
       0.094481036 0.0059628785 -0.08359288 0.16842948
000270 40 f9 0a be 25 ad 06 be f6 16 d5 3d 8e 71 d9 bd
       -0.13571644 -0.13151987 0.1040477 -0.10617362
000280 3d 20 b6 3d 52 39 12 3c d5 b8 53 bd 49 c1 15 be
       0.08892868 0.008924799 -0.05168994 -0.14624514
000290 67 2d 67 bd ab bb d6 bd c6 be 10 3e d1 42 49 bb
       -0.056439783 -0.104850136 0.14135274 -0.0030709992
0002a0 1f 08 e2 bd 8e ee e4 bd e3 ba 0a 3d b8 5d 78 3d
       -0.11036705 -0.11178313 0.033869635 0.060636252
0002b0 61 b2 11 be 6c 92 1c 3e 06 af 8b 3d 39 52 a5 3c
       -0.14228202 0.1529023 0.068204924 0.020180808
0002c0 fb f1 16 bd 81 39 f0 bc d3 1f ea 3c 0f ff a1 3d
       -0.036851864 -0.029324295 0.028579628 0.07909977
0002d0 fc 2c 07 3e a9 1e 2f be 00 cd a0 38 a7 e7 1e be
       0.13200754 -0.1710154 7.667579e-05 -0.15518056
0002e0 1c 22 1d 3e 4b dc 17 be b0 b8 d0 bc 8b 34 78 bd
       0.15345043 -0.14830129 -0.02547869 -0.060596984
0002f0 41 69 df 3d 0a f9 ed bd a1 98 18 3e a9 c6 14 3e
       0.109087475 -0.11619766 0.14901973 0.14528908
000300 02 14 0d 3e ee 7d 21 bc 2f fb c3 bd 67 98 72 bd
       0.13777164 -0.009856684 -0.09569394 -0.059227373
000310 04 a0 85 bd 21 4c 22 3e df 12 17 3e d8 52 27 be
       -0.06524661 0.15849353 0.14753293 -0.16340196
000320 cb fe 52 3d 7d 03 26 3d 0f 18 ac 3d 6c a7 43 3d
       0.05151252 0.04053067 0.08403026 0.047767088
000330 21 fd c2 bd 0f 57 e4 bd 83 44 e8 bd c6 ec 1f 3e
       -0.09520937 -0.111494176 -0.113411926 0.15617666
000340 b6 ef ca 3d 96 41 19 3e 90 8a 39 bd bd 54 c0 bd
       0.099090025 0.14966425 -0.04529816 -0.093911625
000350 20 0f 28 be b7 d7 fc 3d ad 93 b5 bd 04 e3 bd bd
       -0.1641202 0.12345832 -0.088660575 -0.092718154
000360 5c 90 63 bd 93 0f bb bd f4 8b 0a 3d 3f 82 87 bc
       -0.055557594 -0.0913383 0.033824876 -0.016541598
000370 f5 f9 aa bd 64 8e 29 3e a8 49 0a 3e a5 26 27 be
       -0.08348457 0.16558224 0.1350466 -0.16323335
000380 a2 34 9b 3d 31 57 25 3e 84 2f 22 bd 73 3d 94 bd
       0.07578398 0.16146542 -0.039596096 -0.07238283
000390 58 6c ae bc 00 8a 1f be dc bc 36 bd 60 a7 c8 bc
       -0.021291897 -0.15579987 -0.044613704 -0.024493873
0003a0 e0 f6 15 3c d0 c4 33 3d 9c 7b 3e 3d 00 6f 77 3a
       0.009153098 0.043888867 0.0465046 0.00094388425
0003b0 b3 29 16 be 5a f7 07 be 1e 3a c1 bd 5e 94 a4 3d
       -0.14664344 -0.13277951 -0.09434913 0.08036111
0003c0 98 18 6f 3d 16 e7 24 be 74 c7 25 be da ac ef 3d
       0.058373064 -0.16103777 -0.16189367 0.11702891
0003d0 16 33 75 bd 56 05 b8 3d 15 2e 1c 3e 8e dd c1 3d
       -0.059863172 0.08985393 0.15251954 0.09466086
0003e0 5e e8 8c bd bd c2 0d 3e 0d 27 12 be d7 81 34 be
       -0.06880258 0.13843818 -0.14272709 -0.17627655
0003f0 8f 1f 99 bd c9 49 0a be 64 e0 bc bd 9e b0 fe 3d
       -0.074767224 -0.1350471 -0.092224866 0.12436031

fcn.module.0.bias f4 [32]
000000 9e e3 cf b9 8b a6 24 3e fb b9 2a 3e 80 a8 19 3d
       -0.00039651705 0.16079156 0.16672508 0.03751421
000010 51 ce 2e be bf 63 b3 3d 56 89 0a be c7 04 99 bd
       -0.17070891 0.087592594 -0.13528952 -0.07471614
000020 76 17 9a 3d 40 42 57 3d bf a8 14 3e 75 0e 09 be
       0.07524006 0.052553415 0.14517497 -0.13384421
000030 75 08 74 bd 86 f5 de bc c1 05 91 bd bc 94 29 3d
       -0.059578378 -0.027216684 -0.070811756 0.04140161
000040 ba 2b d3 3c 30 1c 15 3d eb 88 e1 3d 9f 73 e9 3d
       0.025777686 0.036403835 0.11012443 0.11399006
000050 eb 5d 8e bd d7 aa 2c bd c0 71 6c 3c 40 b8 b9 3d
       -0.06951507 -0.042155113 0.014431417 0.09068346
000060 2e 9a ed 3d 13 77 70 3d 72 de 9c bd 0c 14 c2 3a
       0.11601673 0.058707308 -0.076596156 0.0014807
000070 f1 08 0d 3e a5 d0 cc bd 74 43 31 bd 6c 7a f3 3d
       0.13772942 -0.10000733 -0.04327722 0.118885845

fcn.module.3.weight f4 [1, 32]
000000 d4 d7 c1 3d 80 3e 27 3c 13 bf 32 3e b2 ad 92 3b
       0.09464994 0.010207772 0.17455702 0.0044762725
000010 c3 42 bc bd 49 29 de 3d 24 88 3e bd 13 ef 8c bd
       -0.09192421 0.10847718 -0.046516553 -0.06881537
000020 72 e2 32 3e 21 76 0a 3e a4 04 08 be 86 10 9a bd
       0.17469195 0.13521625 -0.1328302 -0.07522683
000030 d9 3b 5e bd 8a 26 9a bc a2 e4 36 3e 5c 44 71 3d
       -0.054256294 -0.018817205 0.17860654 0.058903083
000040 98 7d f8 bd 86 03 ff bd 29 09 e5 3d 39 a5 19 3d
       -0.1213333 -0.12451844 0.11183388 0.037511084
000050 6b 7c 14 3e f1 7e 20 3e ba 29 b9 3d 3d db e9 bd
       0.14500587 0.15673424 0.09041162 -0.114187695
000060 2b e6 bc bd f4 84 1b 3e 69 7f d5 bc 90 06 ef 3b
       -0.092235886 0.15187436 -0.02606173 0.0072944835
000070 d7 a6 fb bd e3 a8 6d 3d 06 b1 09 be b6 64 50 3d
       -0.122876815 0.05802239 -0.13446435 0.050877295

exp_avg f4 [16, 4, 16]
000000 ef 7b 69 3a b7 4e 37 39 b9 19 1e 3a f8 08 48 3a
       0.0008906712 0.00017481564 0.00060310547 0.0007630731
000010 0e 46 c7 3a 82 46 72 3a ff 51 68 39 c9 f3 0e 3a
       0.0015203373 0.0009242074 0.0002215579 0.0005453197
000020 80 fe d1 38 27 34 95 3a 74 f5 c0 39 d8 33 06 3a
       0.00010013301 0.001138334 0.0003680397 0.00051194197
000030 a6 a3 27 3a f6 5d 07 3a aa d5 63 39 f1 9b 4b 39
       0.000639493 0.00051638426 0.00021728003 0.00019417681
000040 87 9b 50 3a e1 d2 9f 3a db 8d a0 3a 01 ce 08 3a
       0.00079577457 0.0012193584 0.0012249307 0.0005218685
000050 df d1 99 39 c8 44 00 3a e8 0f 05 3a d1 40 55 3a
       0.000293388 0.00048930617 0.00050759176 0.00081349636
000060 e1 83 e8 37 c6 53 20 3a 9e ac a9 37 aa 58 a2 39
       2.7717966e-05 0.0006115999 2.0226751e-05 0.00030965108
000070 5b 02 89 3a ee 16 19 3a c4 b8 82 3a e5 91 da 3a
       0.0010452972 0.00058399036 0.0009973277 0.001667556
000080 16 6f 9d 39 53 1d a0 38 d7 64 15 38 7d 80 15 3a
       0.0003002814 7.6348566e-05 3.5618283e-05 0.0005703045
000090 a5 19 21 39 c9 9d 0c 39 10 75 c3 3a 72 9d d7 39
       0.0001536371 0.0001341022 0.0014912207 0.00041125302
0000a0 df 1f 30 3a 86 73 03 3a bb f6 f7 39 de 83 9d 39
       0.00067186164 0.0005014468 0.0004729534 0.00030043622
0000b0 6f e4 14 3a 17 38 77 3a 20 aa 71 39 2b 23 7f b6
       0.0005679791 0.000943066 0.00023046928 -3.8018431e-06
0000c0 e0 5a bc 39 56 7f 65 3a 66 e1 fc 39 fd a4 00 3a
       0.0003592586 0.0008754631 0.0004823312 0.00049073977
0000d0 ff 81 c6 39 b5 49 51 3a ad b7 03 39 1f f9 16 3a
       0.00037862358 0.00079837005 0.00012561558 0.0005759168
0000e0 53 ac ca 3a dc 66 c6 38 7b 9c c2 3a 2b 6d a0 3a
       0.0015462734 9.460535e-05 0.001484766 0.0012239566
0000f0 26 7d c3 38 f0 9e 9e 39 f8 2a 6c 3a a3 e1 ff 39
       9.321635e-05 0.00030254526 0.00090090884 0.00048805503
000100 b9 39 6a 3a 2d 72 83 3a 54 fa 55 3a ab 7d 9e 3a
       0.0008934993 0.0010028534 0.0008162607 0.0012091895
000110 94 20 4c 3a fd d0 e3 3a 81 96 cb 3a 66 60 ac 3a
       0.0007786837 0.0017381009 0.0015532525 0.0013151288
000120 18 86 b9 3a 2f f7 b5 3a 1b df 8e 3a 98 6f 50 3a
       0.0014154343 0.001388287 0.0010900231 0.0007951199
000130 65 91 6b 3a c4 51 41 3a a5 8e a6 3a 18 3c 6f 3a
       0.0008986204 0.000737455 0.0012707306 0.0009126081
000140 89 8f d9 3a 10 21 5b 3a 7f af e2 3a 0e 6d 4c 3a
       0.0016598563 0.00083591137 0.0017294734 0.0007798233
000150 87 9a dc 3a bd 69 a2 3a 61 0c 7a 3a ee ec 40 3a
       0.0016830721 0.0012391132 0.0009538588 0.0007359524
000160 72 5b 88 3a ab 38 b3 3a 70 08 bd 3a 3a 96 01 3b
       0.0010403229 0.0013673505 0.001442207 0.001977338
000170 6a 63 c4 3a d4 ab 83 3a b8 63 26 3a d8 4e 1e 3a
       0.0014983241 0.0010045716 0.0006347257 0.00060389703
000180 28 50 94 3a 03 2a 06 3b f2 18 1e 3a 98 09 7f 3a
       0.0011315392 0.0020471818 0.0006030939 0.00097289076
000190 eb a9 5d 3a cd 37 47 3a c9 31 46 3a e4 88 dd 3a
       0.00084558007 0.00075995625 0.0007560519 0.0016901758
0001a0 e7 29 a5 3a 07 db b3 3a 5f 42 8f 3a 8e 8f c1 3a
       0.0012600989 0.0013721891 0.0010929814 0.0014767514
0001b0 f4 51 5d 3a 1c c3 bc 3a de c2 ae 3a d6 f7 f5 3a
       0.0008442693 0.0014401409 0.0013333221 0.0018765877
0001c0 b2 1a 98 3a 08 81 7b 3a 1c 5e de 3a 42 de f6 3a
       0.0011604636 0.00095941173 0.0016965303 0.0018834549
0001d0 76 97 c9 3a 9e 40 91 3a a6 61 cf 3a 7e b7 90 3a
       0.0015380222 0.001108188 0.0015821948 0.0011041013
0001e0 d4 0b 94 3a bb 18 3c 3a 56 ed 9f 3a d9 46 1c 3a
       0.0011295029 0.0007175316 0.0012201469 0.0005961485
0001f0 25 42 d2 3a 6e ff d9 3a de 93 d2 3a f1 59 be 3a
       0.0016041441 0.001663191 0.0016065796 0.0014522654
000200 57 4b b9 3a 37 f4 3e 3a 6b 24 85 3b e1 74 36 3a
       0.0014136833 0.00072843157 0.0040631793 0.00069601653
000210 71 bb b3 3a 04 f4 93 3b 1a 3d 4b 3a 4f 78 e5 3a
       0.0013712478 0.004515173 0.00077529403 0.0017507168
000220 d6 34 1b 3b f7 55 85 3b 52 37 de 3a cf 79 6e 3b
       0.0023682616 0.0040690857 0.0016953743 0.0036388522
000230 91 a1 98 3a ba a5 53 3b ae 8c 26 3b 90 a3 67 3b
       0.001164483 0.0032294826 0.0025413441 0.0035345294
000240 ad 9f 11 3b 38 71 67 3a d6 00 42 3b 23 ed c9 3a
       0.0022220418 0.00088288216 0.002960255 0.0015405755
000250 f7 36 ac 3b 04 3d 51 3b 10 a4 ad 3a 71 fd 17 3b
       0.0052555758 0.0031927237 0.0013247747 0.0023191834
000260 89 d3 d3 3a 21 ac 54 3a 5e 1b 11 3b d9 69 8d 3b
       0.0016161065 0.00081128074 0.0022141556 0.0043155965
000270 12 7c 50 3a a7 7e b4 3a 14 4e 52 3b c7 20 27 3b
       0.0007953058 0.0013770655 0.0032089995 0.0025501715
000280 86 7f 32 3b 97 46 dc 3b 95 5f 9f 3a af 58 b3 3b
       0.0027236654 0.006722282 0.0012159223 0.0054732184
000290 e0 2b 53 3a a7 2d 3c 3a be 09 a2 3b 3a 4b 85 3a
       0.0008055549 0.00071784336 0.004945009 0.0010169514
0002a0 ea 55 70 3b 84 3b 36 3b da 73 0a 3b 52 33 91 3a
       0.0036672303 0.002780647 0.0021126182 0.0011077917
0002b0 79 e4 a1 3b 82 ea 1f 3b c2 10 15 3b aa 7d 21 3b
       0.004940566 0.0024401252 0.0022745584 0.0024641552
0002c0 80 3a 46 3b af b1 89 3a d2 0b 96 3a 6d 74 db 3a
       0.003024727 0.0010505224 0.0011447615 0.0016743072
0002d0 87 d1 ff 3a ad 3b 7b 3a 93 4a 19 3b 14 d0 8c 3b
       0.00195174 0.00095837825 0.0023390397 0.004297266
0002e0 b4 15 e3 3a cc d9 e1 3a 7f 54 5c 3b c0 c1 a8 39
       0.0017325194 0.0017231046 0.00336197 0.00032187812
0002f0 9d c6 22 3b d1 2f 19 3b b2 27 b2 3a 7d f5 5a 3a
       0.002483762 0.0023374448 0.0013592152 0.00083526206
000300 87 6c e8 39 33 00 4a 3a b8 46 a6 3a 66 da 14 3b
       0.00044331347 0.0007705718 0.0012685871 0.0022713183
000310 ac 98 9c b9 59 77 a5 3a 65 21 4a 39 02 ed 85 3a
       -0.00029868388 0.0012624069 0.00019276662 0.0010217729
000320 be 8d f6 3a df 52 6a b9 92 32 98 3a b7 68 c6 39
       0.0018810553 -0.00022346851 0.0011611751 0.00037843522
000330 7b 96 30 3a f6 df c7 b9 a8 f0 58 38 ce 51 45 3a
       0.00067362905 -0.00038123102 5.172254e-05 0.00075271435
000340 64 c2 31 3b 25 0c a7 b9 cd d8 56 3a 92 d7 b7 39
       0.0027123922 -0.0003186177 0.0008195758 0.00035065092
000350 e2 bb 1f 3b 61 6f 61 3a dd b0 5e 3b c0 2d 70 37
       0.0024373461 0.00085996656 0.003397993 1.4315767e-05
000360 8d 4a 0b 3a 1c 05 80 39 c7 fb e3 3a 86 a6 ca 3a
       0.0005313538 0.0002441787 0.0017393761 0.0015461005
000370 e3 b3 ea 39 50 05 c9 3a 74 8b c2 3a de 47 82 b7
       0.00044765984 0.0015336666 0.0014842586 -1.5530673e-05
000380 0f 89 ce b9 75 23 80 b9 0b ed 89 37 86 18 4a 3a
       -0.00039393498 -0.0002444048 1.6442054e-05 0.0007709343
000390 89 a8 3d 3a 15 a0 1a b9 06 39 b3 39 5b 78 da 3a
       0.00072348915 -0.0001474622 0.00034184026 0.0016667949
0003a0 89 12 99 39 f7 5b 50 3b e0 ea 0f ba 46 15 be 3a
       0.00029196244 0.0031793097 -0.0005490016 0.001450219
0003b0 9b 20 13 3b a9 17 04 3b 1e 35 df 3a 30 14 15 3b
       0.0022449854 0.0020155704 0.001702938 0.0022747628
0003c0 d5 ff 57 3a ae 64 5d 3b c0 22 c2 3a 15 35 4a 39
       0.0008239721 0.0033781934 0.0014811382 0.00019283996
0003d0 72 af 3d 3a 8f 22 d3 3a 59 da b5 b9 b2 6f 67 3a
       0.0007235921 0.0016108322 -0.00034685692 0.00088285946
0003e0 d5 0b 67 3a e8 3a ca 39 aa c4 a1 3a c5 3c 5d 39
       0.0008813714 0.0003857233 0.0012341936 0.00021098841
0003f0 2c 21 66 39 c5 03 db 39 f8 d5 b5 39 d3 6a 16 3a
       0.00021946867 0.00041773744 0.0003468243 0.0005737964

exp_avg_sq f4 [16, 4, 16]
000000 d7 7d 37 33 1a 23 01 31 fe 97 97 32 de 08 b3 32
       4.272246e-08 1.8791924e-09 1.7647832e-08 2.0842375e-08
000010 7a 8a c2 33 06 29 fe 32 4b 2d f8 31 b0 c6 69 32
       9.059018e-08 2.9588147e-08 7.222899e-09 1.3607561e-08
000020 78 54 a3 31 3a 84 48 33 33 de bf 31 13 7a 04 32
       4.7535273e-09 4.6686388e-08 5.5840927e-09 7.711168e-09
000030 6a 35 7c 32 0c d9 e1 32 5d 72 f6 31 64 89 08 32
       1.46804755e-08 2.6292149e-08 7.172544e-09 7.947481e-09
000040 dd be 06 33 cf 70 ac 33 3f dc 5a 33 52 c6 76 32
       3.1372895e-08 8.029894e-08 5.0957393e-08 1.4364177e-08
000050 76 22 16 32 9d da 97 32 a1 7a 8c 32 54 18 e5 32
       8.738985e-09 1.7678127e-08 1.635391e-08 2.6670172e-08
000060 0d ea ec 30 af 2d 80 32 f0 36 1e 31 c7 31 08 32
       1.7237781e-09 1.4921936e-08 2.3023254e-09 7.92756e-09
000070 bb f1 5e 33 97 66 3a 32 d2 9d 1c 33 ac 7b d3 33
       5.1908255e-08 1.0849951e-08 3.6465117e-08 9.847949e-08
000080 71 47 4e 32 75 5e 86 31 05 7f cb 31 f0 c3 8e 32
       1.2007022e-08 3.910652e-09 5.922518e-09 1.6620078e-08
000090 b3 b6 36 31 57 d2 15 31 a0 dd 9d 33 17 fb 19 32
       2.6588338e-09 2.1801918e-09 7.3511956e-08 8.962863e-09
0000a0 81 a2 f0 32 2d ff 4a 32 2c 68 2d 32 55 ce ed 31
       2.8013575e-08 1.1815968e-08 1.0093611e-08 6.921065e-09
0000b0 b2 9b 4c 32 4b de fa 32 d0 ef b0 31 be 5d be 30
       1.1909764e-08 2.9204918e-08 5.1495377e-09 1.3850963e-09
0000c0 48 2f a1 31 36 31 c1 32 11 0a 98 32 c1 8a be 32
       4.691092e-09 2.2490536e-08 1.7699707e-08 2.218201e-08
0000d0 c0 5a 36 32 fd 8d f9 32 85 5c 83 31 0a 2d ea 32
       1.06144284e-08 2.9051984e-08 3.82312e-09 2.7261667e-08
0000e0 29 04 9d 33 e7 9d 9f 31 66 24 b3 33 51 4a 72 33
       7.311639e-08 4.6454605e-09 8.341958e-08 5.6412606e-08
0000f0 46 eb 4a 31 aa 7e 53 31 0b da 1d 33 88 9a 6e 32
       2.9528606e-09 3.0776541e-09 3.675272e-08 1.388856e-08
000100 69 46 13 33 b1 c4 3c 33 2c 6b 4d 33 d5 4c f1 33
       3.4290142e-08 4.395105e-08 4.7827754e-08 1.1236413e-07
000110 7a 62 e6 32 45 6f f7 33 74 30 11 34 5e 6b c8 33
       2.6820306e-08 1.15220736e-07 1.3521804e-07 9.332756e-08
000120 a2 07 c9 33 e2 53 ce 33 86 16 48 33 52 39 ea 32
       9.36118e-08 9.607881e-08 4.6586614e-08 2.7267252e-08
000130 b0 4c f9 32 f2 47 cf 32 28 a3 e7 33 96 91 56 33
       2.9022289e-08 2.4130689e-08 1.0786454e-07 4.9958167e-08
000140 1e 30 1d 34 2d 95 f8 32 50 3b fd 33 e0 74 f7 32
       1.463927e-07 2.8938837e-08 1.17920194e-07 2.8807733e-08
000150 ed 63 02 34 d4 3c a6 33 72 ed 43 33 53 98 13 33
       1.2143546e-07 7.741042e-08 4.561793e-08 3.4364643e-08
000160 a3 5c 4f 33 83 7e d7 33 65 b0 b7 33 88 df 21 34
       4.8280196e-08 1.003473e-07 8.5536875e-08 1.5075614e-07
000170 37 1b d6 33 4c 70 56 33 5b b9 f0 32 f3 38 bd 32
       9.970102e-08 4.992789e-08 2.8023967e-08 2.2028393e-08
000180 5b ee 45 33 99 d9 3a 34 4b 17 c1 32 3e bf 56 33
       4.608442e-08 1.7401761e-07 2.247875e-08 4.999969e-08
000190 18 48 9e 33 34 d2 05 33 ff 8f df 32 53 96 f2 33
       7.370562e-08 3.1157654e-08 2.6026099e-08 1.1296347e-07
0001a0 39 94 6e 33 2a f4 62 33 ad f7 df 33 b9 8b d3 33
       5.55485e-08 5.284179e-08 1.0429299e-07 9.8508686e-08
0001b0 2e cd e8 32 bf 7b fa 33 89 dc 69 33 54 2b 30 34
       2.710166e-08 1.16640415e-07 5.4450116e-08 1.640704e-07
0001c0 7d d4 4d 33 0e ae 29 33 61 e1 b7 33 06 48 e0 33
       4.792354e-08 3.950668e-08 8.562598e-08 1.0443914e-07
0001d0 93 bf 9f 33 f0 5b 61 33 66 6a a1 33 be f5 2a 33
       7.4388616e-08 5.247051e-08 7.5165005e-08 3.980471e-08
0001e0 c6 dd 73 33 1a 0c 23 33 1e 02 3c 33 0f 9c ab 32
       5.6779548e-08 3.79624e-08 4.3774087e-08 1.9977987e-08
0001f0 71 a8 06 34 77 68 b7 33 35 5c b6 33 46 31 95 33
       1.2541001e-07 8.5406036e-08 8.491808e-08 6.947316e-08
000200 de e1 b8 33 94 9d cb 32 0b 53 44 35 78 2c f0 32
       8.609253e-08 2.3703969e-08 7.3136533e-07 2.79599e-08
000210 06 e8 80 33 d3 74 58 35 f2 6e 2f 33 01 81 1d 34
       6.002669e-08 8.063627e-07 4.0846267e-08 1.4668696e-07
000220 f3 1d 48 34 31 d4 1f 35 37 44 48 34 5c 45 f5 34
       1.8637347e-07 5.9540895e-07 1.8651268e-07 4.5685272e-07
000230 c1 d6 84 33 47 1a d0 34 4a 24 44 34 7f 93 e6 34
       6.1857925e-08 3.8762138e-07 1.8267124e-07 4.2948156e-07
000240 46 10 0d 34 59 64 30 33 9b 87 7e 34 21 84 f9 33
       1.3137569e-07 4.106946e-08 2.3704926e-07 1.1619e-07
000250 fc e0 96 35 6e e9 a3 34 47 f3 90 33 b9 03 46 34
       1.124135e-06 3.0530958e-07 6.7497744e-08 1.8441541e-07
000260 3b 6a e4 33 51 56 48 33 70 77 47 34 ca 9a 15 35
       1.06364006e-07 4.6644633e-08 1.857677e-07 5.5732073e-07
000270 1c 11 ab 32 d6 9e 97 33 2c 6e 01 35 3a da 89 34
       1.99148e-08 7.0603775e-08 4.8216566e-07 2.567702e-07
000280 26 ba 9e 34 a5 18 cd 35 ad f5 80 33 4f 17 7f 35
       2.9565234e-07 1.5280863e-06 6.0051526e-08 9.502882e-07
000290 8c cf a5 32 c2 06 9f 32 d4 06 3e 35 43 d5 83 33
       1.930291e-08 1.851311e-08 7.079045e-07 6.138955e-08
0002a0 0f 3d e3 34 f6 ef 9b 34 b9 c4 22 34 7d 5e 90 33
       4.232647e-07 2.9045594e-07 1.5158993e-07 6.72271e-08
0002b0 fd 08 66 35 df de 69 34 86 f0 2e 34 e0 c9 42 34
       8.5694757e-07 2.1780896e-07 1.6292515e-07 1.81411e-07
0002c0 34 71 d4 34 84 29 65 33 52 d0 48 33 89 bc eb 33
       3.9570443e-07 5.3355976e-08 4.6755595e-08 1.09773346e-07
0002d0 bc 7c fc 33 fc cc f8 32 75 e2 84 34 d0 39 12 35
       1.17573535e-07 2.8964216e-08 2.4751685e-07 5.4473367e-07
0002e0 2a 36 12 34 4f 0d d4 33 2a fe aa 34 0d b5 2f 32
       1.3617014e-07 9.87444e-08 3.1849896e-07 1.0227507e-08
0002f0 de 18 8b 34 ba a0 63 34 12 22 9b 33 23 46 07 33
       2.590886e-07 2.1199494e-07 7.223947e-08 3.1495926e-08
000300 46 28 b9 33 52 c3 58 33 84 e5 cc 33 85 fb 51 34
       8.6220595e-08 5.0469062e-08 9.541239e-08 1.9556144e-07
000310 aa 4f 66 32 42 4b 43 34 4d 22 87 32 da dd be 33
       1.34058755e-08 1.8188169e-07 1.5731667e-08 8.887919e-08
000320 93 79 63 34 36 0d cd 31 a7 1a 8c 33 94 b6 97 33
       2.1185251e-07 5.967787e-09 6.524106e-08 7.064696e-08
000330 62 01 44 33 34 7f 84 32 68 f2 57 32 1a 37 21 33
       4.5636064e-08 1.5424668e-08 1.2569764e-08 3.7535848e-08
000340 ff b9 69 34 92 74 2d 32 20 06 67 33 87 7f 3b 32
       2.1767481e-07 1.009643e-08 5.378945e-08 1.0913829e-08
000350 cc 01 b7 34 96 92 90 33 0c c3 ed 34 2a 6d 27 32
       3.4087714e-07 6.7321864e-08 4.4286605e-07 9.7455e-09
000360 0e a0 d0 33 33 29 36 32 48 23 01 34 7f b5 cc 33
       9.7148686e-08 1.0603162e-08 1.2026896e-07 9.532504e-08
000370 27 1a 2f 33 05 4b 2f 34 5d 2f 3b 34 3a cb 05 33
       4.0769148e-08 1.6325437e-07 1.7432963e-07 3.115131e-08
000380 e7 24 16 32 5a ee be 31 aa f8 44 31 9a d9 4d 33
       8.73954e-09 5.5568252e-09 2.8663103e-09 4.792819e-08
000390 5a 79 88 32 a5 ee 2d 31 b3 f4 e9 32 d2 8e c9 33
       1.5887668e-08 2.5310467e-09 2.7236046e-08 9.385771e-08
0003a0 56 39 ba 32 e1 5a ce 34 93 ce 25 32 95 fb 08 34
       2.1679323e-08 3.8436613e-07 9.651234e-09 1.2757512e-07
0003b0 84 d8 56 34 59 e0 21 34 3b 02 b7 33 ae f3 78 34
       2.0009071e-07 1.507591e-07 8.522007e-08 2.318545e-07
0003c0 44 9a 44 33 85 0a 06 35 e5 56 a6 33 3c d5 0c 33
       4.577511e-08 4.99342e-07 7.7457834e-08 3.2790226e-08
0003d0 6e c8 2f 33 45 a9 97 33 f0 02 d5 31 ba 79 3e 33
       4.0927652e-08 7.0622754e-08 6.19945e-09 4.4348532e-08
0003e0 df 09 27 33 13 f6 a9 32 e6 c4 d9 33 60 2c a2 32
       3.8891695e-08 1.9786091e-08 1.01406656e-07 1.8879462e-08
0003f0 16 c0 ce 32 da 82 52 32 d6 94 ef 32 8b c7 c7 32
       2.4068907e-08 1.2253361e-08 2.7890945e-08 2.325739e-08

exp_avg f4 [16]
000000 15 bf 19 3b c7 c5 9e 3b ca bf 19 3c c7 fe 6a 3b
       0.002345984 0.0048453542 0.009384105 0.0035857426
000010 d8 ee 36 bc 14 49 d5 bb 1c 04 bb 3b 0b 31 a4 3a
       -0.011165343 -0.0065089557 0.005707277 0.0012526823
000020 38 e8 24 bb 3e a6 d7 bb 78 13 a1 bc 1c 4e f3 bb
       -0.0025162827 -0.006581097 -0.019662604 -0.007425083
000030 83 f2 f6 3b cb d7 f5 bb fd d4 b8 bb 17 f3 d2 bb
       0.007536234 -0.007502531 -0.0056406246 -0.00643767

exp_avg_sq f4 [16]
000000 47 58 50 34 d6 83 7b 35 f0 a1 45 36 cc 89 10 35
       1.9403625e-07 9.3696633e-07 2.9449548e-06 5.38447e-07
000010 f0 9f 5f 36 58 1f b5 35 d9 a5 a9 35 a3 e7 aa 33
       3.3322685e-06 1.3494673e-06 1.2639749e-06 7.9583764e-08
000020 09 2f 83 34 31 50 ac 35 40 34 3b 37 3c 10 d4 35
       2.4434874e-07 1.2838337e-06 1.1158234e-05 1.5799956e-06
000030 73 9e 05 36 db c7 c6 35 01 b0 55 35 a0 09 b0 35
       1.9910774e-06 1.4810315e-06 7.96048e-07 1.3115823e-06

exp_avg f4 [32, 32]
000000 f1 fd 04 bc 6e 7a 40 bc 20 77 34 bc 04 02 48 bc
       -0.008117185 -0.0117479395 -0.01101473 -0.012207512
000010 c2 30 2c bc ab 53 2a bc c3 29 f7 ba b4 43 4d bc
       -0.010509672 -0.010395925 -0.001885705 -0.012528349
000020 f4 6c 58 bc 34 16 ad bc 8f 5a 56 bc 85 7c 25 bc
       -0.01320957 -0.021128751 -0.013083114 -0.010100489
000030 1d c3 27 bc 17 cf 95 bc cc d4 82 bc 96 25 20 bc
       -0.01023939 -0.018287225 -0.01597061 -0.009774586
000040 e2 07 03 ba 04 e1 d3 ba f7 58 90 ba eb 1d ae ba
       -0.0004998428 -0.0016165082 -0.0011012842 -0.0013284063
000050 91 e6 93 ba 63 4a 9c ba ae 20 57 b8 0e 72 e7 ba
       -0.0011283924 -0.0011924024 -5.129043e-05 -0.0017657892
000060 55 e1 e3 ba 43 a3 ca bb 02 75 fb ba e6 1e 55 ba
       -0.001738588 -0.006184013 -0.0019184651 -0.00081299094
000070 b0 25 34 ba f4 75 85 bb 44 ae 45 bb c2 53 4f ba
       -0.0006872071 -0.004072899 -0.0030163685 -0.0007908904
000080 00 00 00 00 00 00 00 00 00 00 00 00 00 00 00 00
       0.0 0.0 0.0 0.0
000090 00 00 00 00 00 00 00 00 00 00 00 00 00 00 00 00
       0.0 0.0 0.0 0.0
0000a0 00 00 00 00 00 00 00 00 00 00 00 00 00 00 00 00
       0.0 0.0 0.0 0.0
0000b0 00 00 00 00 00 00 00 00 00 00 00 00 00 00 00 00
       0.0 0.0 0.0 0.0
0000c0 00 00 00 00 00 00 00 00 00 00 00 00 00 00 00 00
       0.0 0.0 0.0 0.0
0000d0 00 00 00 00 00 00 00 00 00 00 00 00 00 00 00 00
       0.0 0.0 0.0 0.0
0000e0 00 00 00 00 00 00 00 00 00 00 00 00 00 00 00 00
       0.0 0.0 0.0 0.0
0000f0 00 00 00 00 00 00 00 00 00 00 00 00 00 00 00 00
       0.0 0.0 0.0 0.0
000100 00 00 00 00 00 00 00 00 00 00 00 00 00 00 00 00
       0.0 0.0 0.0 0.0
000110 00 00 00 00 00 00 00 00 00 00 00 00 00 00 00 00
       0.0 0.0 0.0 0.0
000120 00 00 00 00 00 00 00 00 00 00 00 00 00 00 00 00
       0.0 0.0 0.0 0.0
000130 00 00 00 00 00 00 00 00 00 00 00 00 00 00 00 00
       0.0 0.0 0.0 0.0
000140 00 00 00 00 00 00 00 00 00 00 00 00 00 00 00 00
       0.0 0.0 0.0 0.0
000150 00 00 00 00 00 00 00 00 00 00 00 00 00 00 00 00
       0.0 0.0 0.0 0.0
000160 00 00 00 00 00 00 00 00 00 00 00 00 00 00 00 00
       0.0 0.0 0.0 0.0
000170 00 00 00 00 00 00 00 00 00 00 00 00 00 00 00 00
       0.0 0.0 0.0 0.0
000180 0d 36 35 35 f8 de bf 35 02 c7 36 36 2e cc db 33
       6.750641e-07 1.4295501e-06 2.7235951e-06 1.0235122e-07
000190 2a d6 a1 35 67 ac e2 35 78 01 a0 b4 c6 59 2f 36
       1.2057765e-06 1.6888488e-06 -2.980339e-07 2.6129287e-06
0001a0 33 7c 56 35 85 b5 74 36 43 81 fc 35 68 42 35 34
       7.9901946e-07 3.6464492e-06 1.8813083e-06 1.6881097e-07
0001b0 83 ad 94 34 5c 00 18 36 ef 3a 09 36 10 64 c2 35
       2.7693395e-07 2.2649974e-06 2.0448895e-06 1.4483248e-06
0001c0 83 8f e0 31 d3 9b 74 33 d8 cf 95 34 48 4f bc 33
       6.5355734e-09 5.69524e-08 2.790464e-07 8.7688534e-08
0001d0 66 7d 2f 34 54 01 75 34 95 64 45 b2 78 4e 83 34
       1.6343765e-07 2.2817886e-07 -1.1489779e-08 2.4457745e-07
0001e0 16 f1 c3 34 87 6c 81 35 86 9d b6 34 c6 b2 06 34
       3.6496994e-07 9.642835e-07 3.4014755e-07 1.254476e-07
0001f0 d2 b7 ca b2 bb 7e ad 34 de 88 97 34 06 a1 25 34
       -2.3599487e-08 3.231597e-07 2.8225526e-07 1.5425402e-07
000200 00 00 00 00 00 00 00 00 00 00 00 00 00 00 00 00
       0.0 0.0 0.0 0.0
000210 00 00 00 00 00 00 00 00 00 00 00 00 00 00 00 00
       0.0 0.0 0.0 0.0
000220 00 00 00 00 00 00 00 00 00 00 00 00 00 00 00 00
       0.0 0.0 0.0 0.0
000230 00 00 00 00 00 00 00 00 00 00 00 00 00 00 00 00
       0.0 0.0 0.0 0.0
000240 00 00 00 00 00 00 00 00 00 00 00 00 00 00 00 00
       0.0 0.0 0.0 0.0
000250 00 00 00 00 00 00 00 00 00 00 00 00 00 00 00 00
       0.0 0.0 0.0 0.0
000260 00 00 00 00 00 00 00 00 00 00 00 00 00 00 00 00
       0.0 0.0 0.0 0.0
000270 00 00 00 00 00 00 00 00 00 00 00 00 00 00 00 00
       0.0 0.0 0.0 0.0
000280 c0 1e 3b b9 ee ce 29 b9 b7 50 0c b9 dc 2f 15 b9
       -0.00017845165 -0.00016194183 -0.00013381509 -0.00014227576
000290 71 cb 0e b9 45 a4 b6 b8 f1 54 ba b8 ab 41 12 b9
       -0.00013617963 -8.709034e-05 -8.884993e-05 -0.00013948108
0002a0 01 7c 52 b9 b9 0d 87 b9 33 42 41 b9 5b ad 34 b9
       -0.00020073356 -0.0002575943 -0.00018430575 -0.00017230718
0002b0 07 ce c7 b8 d5 80 a8 b9 52 6b 78 b9 f9 fc c3 b8
       -9.527435e-05 -0.00032139444 -0.00023691103 -9.3454444e-05
0002c0 c3 24 3e b7 b1 e9 95 b7 a6 0a 26 b7 63 cb 19 b7
       -1.1333442e-05 -1.7871005e-05 -9.89685e-06 -9.166865e-06
0002d0 07 e7 3e b7 f4 4c 45 b7 5b cf 56 b6 da f9 ac b7
       -1.1378673e-05 -1.1760032e-05 -3.2009182e-06 -2.0620344e-05
0002e0 ee 71 f6 b7 41 0c 88 b8 fc 39 c3 b7 f3 be 18 b7
       -2.9378538e-05 -6.487268e-05 -2.3272813e-05 -9.104365e-06
0002f0 e9 b0 db b6 fb 60 64 b8 de 75 22 b8 c2 4c 23 b7
       -6.5473037e-06 -5.4449756e-05 -3.8733582e-05 -9.733429e-06
000300 87 2f d2 35 c7 7e af 35 9b 4b 2b 35 77 95 73 35
       1.5660052e-06 1.3075413e-06 6.3812485e-07 9.0742054e-07
000310 ab ab 95 35 97 47 9a 35 00 00 00 00 5c 3c 30 35
       1.1151327e-06 1.149473e-06 0.0 6.5652944e-07
000320 70 e4 ef 35 50 69 fc 35 2b 61 c5 35 48 e9 8c 35
       1.7873372e-06 1.8806113e-06 1.4705923e-06 1.0498707e-06
000330 4e aa 23 35 f7 3e f8 35 b5 2a d0 35 67 cd 8c 35
       6.097006e-07 1.8495765e-06 1.5509637e-06 1.0490593e-06
000340 c9 07 83 33 2e b0 17 34 b1 4c 26 33 c8 25 55 33
       6.101579e-08 1.4127065e-07 3.8719637e-08 4.962729e-08
000350 c3 4a 13 34 09 28 2c 34 00 00 00 00 d0 c2 c9 33
       1.371764e-07 1.6033313e-07 0.0 9.395228e-08
000360 dd cb 60 34 90 55 dc 34 ad 46 66 34 1b 3b 8e 33
       2.093579e-07 4.1040448e-07 2.1446131e-07 6.6231415e-08
000370 6b d3 f5 32 4f e6 fc 34 53 7f 98 34 3e 56 a0 33
       2.8617896e-08 4.710623e-07 2.8404847e-07 7.466268e-08
000380 00 00 00 00 00 00 00 00 00 00 00 00 00 00 00 00
       0.0 0.0 0.0 0.0
000390 00 00 00 00 00 00 00 00 00 00 00 00 00 00 00 00
       0.0 0.0 0.0 0.0
0003a0 00 00 00 00 00 00 00 00 00 00 00 00 00 00 00 00
       0.0 0.0 0.0 0.0
0003b0 00 00 00 00 00 00 00 00 00 00 00 00 00 00 00 00
       0.0 0.0 0.0 0.0
0003c0 00 00 00 00 00 00 00 00 00 00 00 00 00 00 00 00
       0.0 0.0 0.0 0.0
0003d0 00 00 00 00 00 00 00 00 00 00 00 00 00 00 00 00
       0.0 0.0 0.0 0.0
0003e0 00 00 00 00 00 00 00 00 00 00 00 00 00 00 00 00
       0.0 0.0 0.0 0.0
0003f0 00 00 00 00 00 00 00 00 00 00 00 00 00 00 00 00
       0.0 0.0 0.0 0.0

exp_avg_sq f4 [32, 32]
000000 25 48 0c 36 3b 48 9c 36 21 61 89 36 cd a1 9f 36
       2.090362e-06 4.657571e-06 4.0942255e-06 4.7574053e-06
000010 39 be 60 36 44 81 56 36 74 54 14 34 cf cb a3 36
       3.3489325e-06 3.1963727e-06 1.3814298e-07 4.881505e-06
000020 fe cd aa 36 86 ef 64 37 c5 9e a9 36 70 28 40 36
       5.0903755e-06 1.3645627e-05 5.0550757e-06 2.8633767e-06
000030 eb 17 6a 36 16 64 27 37 88 e7 fe 36 60 39 3d 36
       3.488264e-06 9.977279e-06 7.5967437e-06 2.8196591e-06
000040 53 1b 1f 32 d8 a3 d5 33 07 51 48 33 1d 44 85 33
       9.261231e-09 9.9483884e-08 4.6639823e-08 6.205685e-08
000050 e6 91 1e 33 9d 84 26 33 48 2b f3 2e 04 28 e7 33
       3.6919936e-08 3.8770498e-08 1.1058049e-10 1.07640545e-07
000060 8c 07 b1 33 b6 32 92 35 bc dd db 33 e8 60 96 32
       8.2435776e-08 1.0892606e-06 1.02383154e-07 1.7506366e-08
000070 fd 49 8e 32 bd a1 fc 34 bc 69 89 34 2b 08 90 32
       1.6564622e-08 4.7056338e-07 2.559517e-07 1.676752e-08
000080 00 00 00 00 00 00 00 00 00 00 00 00 00 00 00 00
       0.0 0.0 0.0 0.0
000090 00 00 00 00 00 00 00 00 00 00 00 00 00 00 00 00
       0.0 0.0 0.0 0.0
0000a0 00 00 00 00 00 00 00 00 00 00 00 00 00 00 00 00
       0.0 0.0 0.0 0.0
0000b0 00 00 00 00 00 00 00 00 00 00 00 00 00 00 00 00
       0.0 0.0 0.0 0.0
0000c0 00 00 00 00 00 00 00 00 00 00 00 00 00 00 00 00
       0.0 0.0 0.0 0.0
0000d0 00 00 00 00 00 00 00 00 00 00 00 00 00 00 00 00
       0.0 0.0 0.0 0.0
0000e0 00 00 00 00 00 00 00 00 00 00 00 00 00 00 00 00
       0.0 0.0 0.0 0.0
0000f0 00 00 00 00 00 00 00 00 00 00 00 00 00 00 00 00
       0.0 0.0 0.0 0.0
000100 00 00 00 00 00 00 00 00 00 00 00 00 00 00 00 00
       0.0 0.0 0.0 0.0
000110 00 00 00 00 00 00 00 00 00 00 00 00 00 00 00 00
       0.0 0.0 0.0 0.0
000120 00 00 00 00 00 00 00 00 00 00 00 00 00 00 00 00
       0.0 0.0 0.0 0.0
000130 00 00 00 00 00 00 00 00 00 00 00 00 00 00 00 00
       0.0 0.0 0.0 0.0
000140 00 00 00 00 00 00 00 00 00 00 00 00 00 00 00 00
       0.0 0.0 0.0 0.0
000150 00 00 00 00 00 00 00 00 00 00 00 00 00 00 00 00
       0.0 0.0 0.0 0.0
000160 00 00 00 00 00 00 00 00 00 00 00 00 00 00 00 00
       0.0 0.0 0.0 0.0
000170 00 00 00 00 00 00 00 00 00 00 00 00 00 00 00 00
       0.0 0.0 0.0 0.0
000180 b8 3f a1 2b b3 b6 14 2c 28 c9 50 2c 93 42 a2 2b
       1.1457424e-12 2.1133483e-12 2.9670242e-12 1.152927e-12
000190 1c 2c 68 2c f7 2e 85 2c 01 18 96 28 a0 13 b0 2c
       3.2993669e-12 3.7853015e-12 1.6663755e-14 5.0043997e-12
0001a0 e4 d8 5a 2c 31 40 21 2d 50 72 d0 2c 61 33 4a 2c
       3.1100062e-12 9.166044e-12 5.924407e-12 2.8734448e-12
0001b0 c3 bf 0c 2b 96 2d 96 2c 9a 85 e2 2c fc db d7 2b
       5.0004114e-13 4.2683175e-12 6.438139e-12 1.5337727e-12
0001c0 31 4e ad 27 32 c4 1a 29 83 c5 f0 28 59 df 45 28
       4.810192e-15 3.436504e-14 2.673101e-14 1.0984128e-14
0001d0 90 9f 40 29 6a 7e b2 29 46 6e e4 23 f4 98 87 29
       4.2770963e-14 7.926717e-14 2.4766512e-17 6.0217375e-14
0001e0 06 51 a2 29 b5 1a 41 2b 4a 91 04 2a 6c 35 6e 28
       7.2083005e-14 6.860444e-13 1.1774362e-13 1.3223238e-14
0001f0 3c 07 cb 26 50 14 d5 2a 01 20 82 2a b8 00 9b 28
       1.4087916e-15 3.7850495e-13 2.3114846e-13 1.7208769e-14
000200 00 00 00 00 00 00 00 00 00 00 00 00 00 00 00 00
       0.0 0.0 0.0 0.0
000210 00 00 00 00 00 00 00 00 00 00 00 00 00 00 00 00
       0.0 0.0 0.0 0.0
000220 00 00 00 00 00 00 00 00 00 00 00 00 00 00 00 00
       0.0 0.0 0.0 0.0
000230 00 00 00 00 00 00 00 00 00 00 00 00 00 00 00 00
       0.0 0.0 0.0 0.0
000240 00 00 00 00 00 00 00 00 00 00 00 00 00 00 00 00
       0.0 0.0 0.0 0.0
000250 00 00 00 00 00 00 00 00 00 00 00 00 00 00 00 00
       0.0 0.0 0.0 0.0
000260 00 00 00 00 00 00 00 00 00 00 00 00 00 00 00 00
       0.0 0.0 0.0 0.0
000270 00 00 00 00 00 00 00 00 00 00 00 00 00 00 00 00
       0.0 0.0 0.0 0.0
000280 a9 96 40 31 0b 4f 14 31 26 2b 26 31 0c 8d f7 30
       2.8025318e-09 2.1581765e-09 2.4180706e-09 1.8011703e-09
000290 79 20 d5 30 a3 72 37 30 16 a5 70 30 e6 dc d4 30
       1.5507019e-09 6.673792e-10 8.754609e-10 1.5487813e-09
0002a0 b4 75 57 31 fc 7b b0 31 01 5a 3e 31 68 3c 24 31
       3.1353524e-09 5.1363696e-09 2.76998e-09 2.3899478e-09
0002b0 b5 6b 45 30 c8 5e 0f 32 ac 12 a8 31 de 32 63 30
       7.1821243e-10 8.345246e-09 4.8915663e-09 8.2654406e-10
0002c0 4a bc 57 2d 32 e0 f0 2d 0a af 79 2d d6 ad e1 2c
       1.2263144e-11 2.7384404e-11 1.4192878e-11 6.4141843e-12
0002d0 5b e3 2c 2d cc 03 37 2d 84 8e b3 2b a8 35 10 2e
       9.827551e-12 1.0403189e-11 1.2758271e-12 3.2789466e-11
0002e0 9a 10 91 2e 88 72 b4 2f 6d 0c 35 2e 8e 0d de 2c
       6.5967856e-11 3.2823189e-10 4.116567e-11 6.3111244e-12
0002f0 61 ef 65 2c fd cf 82 2f 41 44 fc 2e 0d b3 00 2d
       3.267574e-12 2.3794647e-10 1.14717576e-10 7.315715e-12
000300 68 0e 8a 2a b7 7d 40 2a 58 63 37 29 78 6a b9 29
       2.452372e-13 1.7096642e-13 4.072033e-14 8.23412e-14
000310 0e 02 0c 2a 89 c3 14 2a 00 00 00 00 7b 1e 42 29
       1.2435211e-13 1.321288e-13 0.0 4.310309e-14
000320 ab d6 b3 2a 34 19 c7 2a ea 7d 73 2a 25 33 f8 29
       3.1945743e-13 3.536699e-13 2.1626421e-13 1.10222846e-13
000330 1b 6a 27 29 d7 94 c0 2a be 6a 87 2a f6 d0 f7 29
       3.717348e-14 3.420933e-13 2.4054885e-13 1.10052524e-13
000340 b3 9c d6 25 e6 ce 0f 27 e1 d8 2c 25 84 f9 8d 25
       3.7229266e-16 1.9957396e-15 1.4992103e-16 2.462868e-16
000350 e8 97 07 27 84 3c 39 27 00 00 00 00 00 6c 7e 26
       1.8817362e-15 2.5706713e-15 0.0 8.827032e-16
000360 b7 ea 9d 27 be b5 97 28 a8 b5 a5 27 ca de fc 25
       4.383073e-15 1.6843186e-14 4.599365e-15 4.3866e-16
000370 48 d8 bc 24 95 de c7 28 b7 58 11 28 aa ac 20 26
       8.18984e-17 2.2189968e-14 8.068354e-15 5.5745155e-16
000380 00 00 00 00 00 00 00 00 00 00 00 00 00 00 00 00
       0.0 0.0 0.0 0.0
000390 00 00 00 00 00 00 00 00 00 00 00 00 00 00 00 00
       0.0 0.0 0.0 0.0
0003a0 00 00 00 00 00 00 00 00 00 00 00 00 00 00 00 00
       0.0 0.0 0.0 0.0
0003b0 00 00 00 00 00 00 00 00 00 00 00 00 00 00 00 00
       0.0 0.0 0.0 0.0
0003c0 00 00 00 00 00 00 00 00 00 00 00 00 00 00 00 00
       0.0 0.0 0.0 0.0
0003d0 00 00 00 00 00 00 00 00 00 00 00 00 00 00 00 00
       0.0 0.0 0.0 0.0
0003e0 00 00 00 00 00 00 00 00 00 00 00 00 00 00 00 00
       0.0 0.0 0.0 0.0
0003f0 00 00 00 00 00 00 00 00 00 00 00 00 00 00 00 00
       0.0 0.0 0.0 0.0

exp_avg f4 [32]
000000 a9 d3 9d bc 00 00 00 00 00 00 00 00 97 3a fd 35
       -0.019265966 0.0 0.0 1.8867021e-06
000010 00 00 00 00 8e a7 89 b9 7a 9b e8 35 00 00 00 00
       0.0 -0.00026255514 1.7330597e-06 0.0
000020 11 ba 04 bd d9 67 cf bc a5 b4 fa 38 86 8a 85 3c
       -0.03240401 -0.025318073 0.000119545766 0.016301405
000030 0d 26 06 3a 6e 13 bb 37 b7 17 16 bd 00 00 00 00
       0.00051173643 2.2301185e-05 -0.03664371 0.0
000040 20 6a f5 3c 00 00 00 00 b6 08 ab bc 9e 32 f0 bb
       0.02995783 0.0 -0.020878177 -0.007330253
000050 00 00 00 00 d8 d1 11 b9 00 00 00 00 12 81 86 3c
       0.0 -0.0001390645 0.0 0.016418967
000060 87 1d e5 3b ad 6b ed bc a8 ac 9a 3a 76 eb 87 b9
       0.0069920453 -0.028982008 0.0011800723 -0.0002592464
000070 d7 da f3 3c 20 8d ac 36 00 00 00 00 5b cd bd bb
       0.029767437 5.1424286e-06 0.0 -0.0057923025

exp_avg_sq f4 [32]
000000 c8 15 41 37 00 00 00 00 00 00 00 00 5a 27 03 2d
       1.1508768e-05 0.0 0.0 7.455226e-12
000010 00 00 00 00 81 06 c0 31 f0 14 a9 2a 00 00 00 00
       0.0 5.588675e-09 3.003496e-13 0.0
000020 1a 8e 18 38 14 63 9d 37 03 9e 9d 30 04 c4 0c 37
       3.6371966e-05 1.8761995e-05 1.1468163e-09 8.390289e-06
000030 1e 8e 1c 32 ad 8f ec 2e 28 2d 36 38 00 00 00 00
       9.112709e-09 1.07575594e-10 4.3434236e-05 0.0
000040 80 4e e4 37 00 00 00 00 a3 78 6e 37 db ac c9 35
       2.7216272e-05 0.0 1.4213993e-05 1.5025975e-06
000050 00 00 00 00 7d 4a 65 31 00 00 00 00 6a 24 2b 37
       0.0 3.3366228e-09 0.0 1.0200873e-05
000060 d3 fa 0b 36 3b 0e da 37 93 f7 c1 33 f6 d8 18 31
       2.0858613e-06 2.5994252e-05 9.032296e-08 2.224224e-09
000070 fe d8 e8 37 9e 8d ae 2c 00 00 00 00 76 75 60 35
       2.77576e-05 4.9611e-12 0.0 8.361743e-07

exp_avg f4 [1, 32]
000000 90 81 ea bd 00 00 00 00 00 00 00 00 2a 51 4a 38
       -0.11450493 0.0 0.0 4.8236143e-05
000010 00 00 00 00 e7 85 01 b9 63 cc c5 b2 00 00 00 00
       0.0 -0.00012352281 -2.3026763e-08 0.0
000020 2b 01 c2 bc 17 23 bf bc e2 29 ad b7 e5 ab 07 bd
       -0.023682198 -0.023332162 -2.064271e-05 -0.033122916
000030 78 e1 5d b9 7a 26 aa b8 2c 0a 4e bd 00 00 00 00
       -0.00021160196 -8.1133985e-05 -0.05030267 0.0
000040 22 bf 65 bd 00 00 00 00 a0 32 a0 bd d2 58 70 bd
       -0.05609048 0.0 -0.07822156 -0.058678456
000050 00 00 00 00 48 09 6f b6 00 00 00 00 eb 16 1d bc
       0.0 -3.5619178e-06 0.0 -0.009587984
000060 b5 81 17 bb f9 21 fc bc 4e 49 f3 ba 07 1a 41 bb
       -0.0023118083 -0.030777918 -0.0018561275 -0.0029464976
000070 2f f5 e1 bd ca 54 2d 36 00 00 00 00 a0 a7 02 bc
       -0.11033093 2.5828363e-06 0.0 -0.007974535

exp_avg_sq f4 [1, 32]
000000 bc bd c4 39 00 00 00 00 00 00 00 00 86 b5 0a 30
       0.00037525396 0.0 0.0 5.046207e-10
000010 00 00 00 00 49 57 cf 30 ba 86 74 24 00 00 00 00
       0.0 1.508604e-09 5.3023184e-17 0.0
000020 c9 ef 86 37 96 a1 68 37 c2 d6 66 2e 38 d3 34 38
       1.6085703e-05 1.38659e-05 5.248669e-11 4.3112057e-05
000030 9a a6 10 31 cc ec ae 30 a5 f1 97 38 00 00 00 00
       2.104946e-09 1.2727468e-09 7.245251e-05 0.0
000040 d2 90 f7 38 00 00 00 00 58 8d 40 39 e0 90 cd 38
       0.00011804853 0.0 0.00018363202 9.802147e-05
000050 00 00 00 00 25 f9 1b 2c 00 00 00 00 82 16 70 36
       0.0 2.2165128e-12 0.0 3.5775888e-06
000060 92 59 8d 34 2a b0 cf 37 18 37 99 34 1b 62 8f 34
       2.6328468e-07 2.4758356e-05 2.8538557e-07 2.6707207e-07
000070 d7 7e c9 39 80 22 b0 2b 00 00 00 00 55 33 da 35
       0.0003843221 1.2515128e-12 0.0 1.6257205e-06
