tests/_logs/test_fit/singletask/checkpoints/epoch=0-step=6-v4.ckpt (torch, 33257 bytes, 15 tensors)

convnet.module.0.weight f4 [16, 4, 16]
0.018876685 -0.09692741 -0.052338097 0.05320727 0.11254687 0.047334258 -0.086320646 0.0546944
-0.107571244 0.09741307 -0.047235847 -0.046344426 -0.0049138023 0.011816555 -0.1295222 -0.11139414
-0.041497186 0.110401176 0.035236467 0.01585687 -0.10505212 0.009816783 -0.09265665 0.07071163
-0.11955491 -0.003098885 -0.12290073 0.0076504713 0.09393916 -0.103493996 -0.0036419244 0.023067271
-0.105824076 -0.010853046 -0.11815627 0.081924446 -0.080685295 -0.06080919 0.038140975 -0.039973702
0.06648948 0.08398022 -0.04560507 -0.039512467 0.046773124 0.037232917 -0.06668734 -0.10301511
-0.11717195 -0.02338016 -0.048692577 0.06418602 0.014492628 0.042814344 -0.095533825 0.08142937
0.0714995 0.004935548 0.06448073 0.116787285 0.03175992 -0.10036646 -0.0406929 -0.0037183764
-0.05013413 -0.11884496 -0.0026581339 0.054341577 -0.0123311905 0.048076387 0.09963196 0.06787336
-0.011444114 0.09341713 0.02362839 -0.016401142 -0.03795294 -0.058599997 -0.0016441164 -0.0039980668
0.11022246 -0.12569761 0.058491163 -0.12885228 0.05642784 -0.0393021 -0.04156052 -0.0322339
-0.057702016 0.081527054 0.08101134 0.108208396 -0.018558592 0.042340856 -0.07685696 -0.052486725
-0.033040315 -0.0040655416 -0.12494867 -0.08203662 0.0009790072 -0.099310555 -0.073196605 0.0779066
-0.0017499749 0.04203289 0.069612525 0.09830022 -0.11447927 0.084958024 -0.050020944 0.10189003
0.010378729 -0.12545961 0.10171384 -0.0040876353 0.046806805 -0.087015755 0.112158105 -0.08156858
-0.004040886 0.06601796 0.033118714 -0.074558616 0.015948148 0.10165176 0.03359667 0.048076566
-0.018549375 -0.12979056 0.035409924 -0.09707332 -0.069934286 0.08818864 -0.020247044 0.073564515
0.046106964 0.0189404 0.037997935 0.045689277 -0.05920213 0.047481567 0.039117202 0.080402315
-0.03318318 -0.1035508 7.080741e-05 -0.048606183 0.10020502 0.003505224 0.0047404026 0.091498144
-0.024979495 -0.12074646 0.03629474 0.06650035 -0.11078826 -0.076072656 0.10063873 0.023238814
0.0455807 0.10430885 -0.08948201 0.06988086 -0.12874003 -0.04003953 0.11611611 -0.02354962
0.065147534 -0.022364058 0.037671316 -0.03877362 0.063697174 -0.00572467 0.014817191 0.014211985
0.030390594 -0.10855075 -0.1270745 -0.08739942 -0.043013692 -0.13026893 0.037564237 0.108816035
-0.003368212 -0.107123695 0.0630519 -0.088551454 -0.037901394 -0.041585162 -0.03283654 -0.086195774
0.08214809 0.05069985 0.07422088 0.09112666 -0.037846606 0.07988534 -0.008583744 -0.085062645
0.09276976 -0.06662264 0.048048 0.06349361 -0.05577806 -0.07685526 -0.09866485 -0.04151058
0.11238997 -0.08361319 0.05482615 -0.108595856 0.116856076 0.049188368 0.11439863 -0.084491946
0.07360172 -0.004776758 0.043066192 0.065725565 0.00064300996 0.08136583 0.04594227 -0.096203
-0.11651007 -0.1021562 -0.090682335 -0.023844332 -0.019324202 -0.10656247 0.026275638 -0.03649312
-0.03259378 0.11020511 -0.09433726 0.080573775 0.086412646 0.06352585 -0.017942874 0.021609534
0.030149246 0.114636935 0.028296283 -0.015422192 -0.018429881 0.015977317 -0.117098175 -0.09867301
-0.018779071 -0.07709547 0.030119851 -0.043293975 -0.04066173 0.021487728 -0.042756476 -0.088017814
00000000: 47a3 9a3c e181 c6bd 7960 56bd deef 593d
00000010: f97e e63d 91e1 413d e1c8 b0bd 3c07 603d
00000020: 504e dcbd 8180 c73d 607a 41bd a7d3 3dbd
00000030: f603 a1bb 399a 413c 78a1 04be 9c22 e4bd
00000040: f4f8 29bd 031a e23d 1d54 103d 44e6 813c
00000050: 9125 d7bd 92d6 203c c5c2 bdbd 42d1 903d
00000060: 34d9 f4bd aa16 4bbb 61b3 fbbd ceb0 fa3b
00000070: 2d63 c03d a9f4 d3bd 5aad 6ebb 93f7 bc3c
00000080: 4bba d8bd f9d0 31bc eafb f1bd 01c8 a73d
00000090: 553e a5bd 0f13 79bd b639 1c3d 77bb 23bd
000000a0: a32b 883d d2fd ab3d 62cc 3abd d3d7 21bd
000000b0: 2d95 3f3d 8b81 183d 5f93 88bd 96f9 d2bd
000000c0: d9f7 efbd c087 bfbc de71 47bd f673 833d
000000d0: 7d72 6d3c 185e 2f3d 3da7 c3bd 71c4 a63d
000000e0: 546e 923d 61ba a13b 790e 843d 2c2e ef3d
000000f0: b116 023d ee8c cdbd 99ad 26bd 01b0 73bb
00000100: 7259 4dbd fd64 f3bd 1634 2ebb 4695 5e3d
00000110: c308 4abc bfeb 443d d70b cc3d 3001 8b3d
00000120: 1880 3bbc 7b51 bf3d 5390 c13c b05b 86bc
00000130: 8b74 1bbd 8d06 70bd 647f d7ba 3702 83bb
00000140: 50bc e13d e0b6 00be 6e94 6f3d daf1 03be
00000150: e120 673d 3dfb 20bd 5d3b 2abd b207 04bd
00000160: f358 6cbd a8f7 a63d 46e9 a53d 5d9c dd3d
00000170: 3008 98bc 9b6d 2d3d 2f67 9dbd 52fc 56bd
00000180: 4855 07bd 3c38 85bb 17e5 ffbd d102 a8bd
00000190: 0852 803a 5563 cbbd 1ae8 95bd 7f8d 9f3d
000001a0: 6a5f e5ba ae2a 2c3d 0391 8e3d a051 c93d
000001b0: 1c74 eabd 79fe ad3d c3e2 4cbd b8ab d03d
000001c0: 8b0b 2a3c 7c78 00be 594f d03d 92f1 85bb
000001d0: 7eb8 3f3d 5135 b2bd 26b3 e53d 6d0d a7bd
000001e0: 6969 84bb 6d34 873d 7da7 073d 30b2 98bd
000001f0: b1a5 823c cc2e d03d a99c 093d efeb 443d
00000200: dcf4 97bc d1e7 04be ff09 113d 60ce c6bd
00000210: b539 8fbd 3f9c b43d 21dd a5bc fea8 963d
00000220: a8da 3c3d e628 9b3c b9a3 1b3d ae24 3b3d
00000230: ef7d 72bd 087c 423d 5c39 203d f8a9 a43d
00000240: 16eb 07bd 7112 d4bd 707e 9438 4717 47bd
00000250: 4a38 cd3d e6b7 653b 6155 9b3b 6163 bb3d
00000260: cca1 ccbc ec49 f7bd cba9 143d 5631 883d
00000270: f5e4 e2bd fbcb 9bbd ae1b ce3d 535f be3c
00000280: d4b2 3a3d e19f d53d 5842 b7bd b21d 8f3d
00000290: 6dd4 03be 7d00 24bd 48ce ed3d 22eb c0bc
000002a0: 126c 853d d434 b7bc 3d4d 1a3d 16d1 1ebd
000002b0: aa73 823d 0396 bbbb cec3 723c 63d9 683c
000002c0: b2f5 f83c db4f debd d11f 02be 78fe b2bd
000002d0: 202f 30bd 3865 05be f5dc 193d f1da de3d
000002e0: 38bd 5cbb ab63 dbbd 5b21 813d 775a b5bd
000002f0: 7e3e 1bbd 3455 2abd 9c7f 06bd 6987 b0bd
00000300: 423d a83d a5aa 4f3d 1e01 983d 9da0 ba3d
00000310: 0b05 1bbd ed9a a33d d5a2 0cbc 5335 aebd
00000320: 12fe bd3d 7371 88bd fbcd 443d f008 823d
00000330: 8977 64bd 4a66 9dbd cc10 cabd ff06 2abd
00000340: b62c e63d 643d abbd 6391 603d 8167 debd
00000350: 3d52 ef3d be79 493d d449 ea3d 1d0a adbd
00000360: 80bc 963d 5a86 9cbb 2d66 303d 209b 863d
00000370: ab8f 283a 21a3 a63d f62d 3c3d 1406 c5bd
00000380: d59c eebd 4537 d1bd a9b7 b9bd 3055 c3bc
00000390: ca4d 9ebc 6d3d dabd 0240 d73c cf79 15bd
000003a0: 0e81 05bd 37b3 e13d e533 c1bd dd03 a53d
000003b0: 1df9 b03d d719 823d effc 92bc 7a06 b13c
000003c0: 8dfb f63c c5c6 ea3d 9bcd e73c 5dad 7cbc
000003d0: 43fa 96bc dde2 823c 2bd1 efbd 1315 cabd
000003e0: 91d6 99bc 3be4 9dbd e8bd f63c 0655 31bd
000003f0: ea8c 26bd 0807 b03c 6a21 2fbd af42 b4bd

convnet.module.0.bias f4 [16]
-0.07100637 -0.10247994 -0.043427076 -0.10563539 -0.063865036 -0.06423792 -0.12034837 -0.11971972
0.05804 0.06645356 0.023552703 -0.034234818 -0.036350053 0.019216035 0.014840377 -0.09904492
00000000: ca6b 91bd 01e1 d1bd 97e0 31bd 5e57 d8bd
00000010: accb 82bd 2c8f 83bd 3579 f6bd 9d2f f5bd
00000020: 5abb 6d3d ce18 883d 99f1 c03c cf39 0cbd
00000030: cbe3 14bd f26a 9d3c 0d25 733c 10d8 cabd

fcn.module.0.weight f4 [32, 32]
-0.051508166 -0.103660814 -0.05418469 0.08024781 0.13412581 0.05388772 -0.048773356 -0.11420628
0.14857066 0.17496426 0.14244789 0.007214229 0.043479566 0.13618287 0.12941955 -0.008355309
0.07228603 -0.15955783 -0.16873862 0.14234285 0.112303235 0.086795725 0.12941448 0.021915125
0.061431233 -0.1613197 0.07830942 -0.032860946 -0.1662982 0.13010971 -0.03455303 0.02012124
-0.07576709 -0.13854548 -0.09681515 -0.10595869 -0.04786729 -0.007215435 0.08132247 -0.04812639
-0.023842704 -0.09337002 -0.059610795 0.12869154 -0.11254939 -0.08908286 -0.12724599 -0.05813475
-0.11364088 0.0049907556 -0.12783098 -0.09421281 -0.076996624 -0.1750623 -0.02465009 -0.0970675
0.08504342 -0.021997893 -0.13501833 0.13939185 0.052303288 -0.14419234 -0.14776404 -0.068732195
-0.07970879 -0.025736066 -0.14836384 -0.058039706 0.10876555 0.050632566 -0.048317675 -0.07216849
0.12679225 -0.064142615 -0.15656634 -0.1315716 0.007679535 -0.049350187 -0.13536057 -0.114598945
0.02281 -0.15519953 -0.0049218456 0.049645215 -0.10713756 -0.08795952 0.049546108 0.161633
0.052252714 0.104536176 0.16518632 0.113638945 0.1320497 0.028545175 0.021697154 -0.084918715
0.04325697 -0.027224487 -0.02577601 -0.14437085 0.030864242 0.16195649 -0.07346268 0.048405953
-0.08264805 -0.012304292 0.08147616 -0.025556844 -0.15703027 -0.13061686 0.078624316 -0.03359611
0.11973529 0.02214537 -0.07926497 0.13593157 0.09534666 -0.15603513 0.13203126 -0.16352223
0.0047604726 0.07292857 0.031860698 0.09250287 -0.17015715 0.028146366 -0.16872488 0.005326785
-0.042668626 -0.0053382353 0.024071518 -0.052261207 -0.09075525 -0.023239372 -0.07561172 -0.109962225
-0.1190612 -0.172356 -0.050848972 -0.12326082 -0.06928992 0.05767971 -0.13076247 0.032976937
0.035938427 0.06473199 -0.1750462 -0.07936106 -0.047986295 0.0885342 0.022029525 0.0039598015
0.09448103 0.005962873 -0.08359288 0.1684295 -0.13571644 -0.13151987 0.104047716 -0.10617362
0.08892867 0.008924792 -0.05168994 -0.14624514 -0.056439787 -0.104850136 0.14135274 -0.003071
-0.11036705 -0.11178313 0.033869628 0.06063625 -0.14228204 0.1529023 0.068204924 0.020180803
-0.03685186 -0.029324293 0.028579634 0.07909975 0.13200755 -0.1710154 7.667899e-05 -0.15518056
0.15345044 -0.14830129 -0.025478696 -0.060596984 0.10908747 -0.11619766 0.14901973 0.14528908
0.13777162 -0.009856688 -0.09569394 -0.059227373 -0.06524661 0.15849352 0.14753294 -0.16340195
0.051512517 0.040530674 0.084030256 0.04776709 -0.09520937 -0.111494176 -0.113411926 0.15617664
0.099090025 0.14966425 -0.045298155 -0.093911625 -0.1641202 0.123458326 -0.088660575 -0.092718154
-0.05555759 -0.0913383 0.033824872 -0.016541593 -0.08348457 0.16558225 0.1350466 -0.16323335
0.075784 0.16146542 -0.0395961 -0.07238283 -0.021291893 -0.15579987 -0.044613704 -0.024493873
0.009153094 0.04388886 0.0465046 0.00094387867 -0.14664344 -0.13277951 -0.09434913 0.0803611
0.058373068 -0.16103777 -0.16189367 0.1170289 -0.05986317 0.08985394 0.15251954 0.09466087
-0.06880258 0.1384382 -0.14272709 -0.17627655 -0.074767224 -0.1350471 -0.092224866 0.12436032
00000000: 3afa 52bd 1f4c d4bd c4f0 5dbd f758 a43d
00000010: 4758 093e 5fb9 5c3d 92c6 47bd fbe4 e9bd
00000020: e822 183e d529 333e dcdd 113e 5765 ec3b
00000030: a117 323d 8673 0b3e 8f86 043e b5e4 08bc
00000040: b30a 943d 2163 23be d1c9 2cbe 53c2 113e
00000050: 3dff e53d f5c1 b13d 3b85 043e 5987 b33c
00000060: 519f 7b3d fe30 25be b060 a03d 3399 06bd
00000070: 134a 2abe 7b3b 053e 7a87 0dbd 4cd5 a43c
00000080: c72b 9bbd dede 0dbe 0547 c6bd df00 d9bd
00000090: 7e10 44bd 756f ecbb 658c a63d 2d20 45bd
000000a0: c651 c3bc c838 bfbd 732a 74bd b7c7 033e
000000b0: 4b80 e6bd 1371 b6bd c64c 02be b41e 6ebd
000000c0: 8dbc e8bd 7e89 a33b 20e6 02be a5f2 c0bd
000000d0: 68b0 9dbd 8843 33be fcee c9bc 53cb c6bd
000000e0: 3f2b ae3d ed34 b4bc 3f42 0abe bdbc 0e3e
000000f0: f93b 563d 28a7 13be 754f 17be 77c3 8cbd
00000100: 5d3e a3bd 71d4 d2bc b1ec 17be 0bbb 6dbd
00000110: 79c0 de3d 1864 4f3d c1e8 45bd 13cd 93bd
00000120: d4d5 013e 345d 83bd ed52 20be b5ba 06be
00000130: 9ca4 fb3b 6c23 4abd f69b 0abe dab2 eabd
00000140: 0adc ba3c a0ec 1ebe 6f47 a1bb c858 4b3d
00000150: f06a dbbd 1f24 b4bd dcf0 4a3d 1f83 253e
00000160: f106 563d 1017 d63d 9a26 293e 89bb e83d
00000170: 0938 073e 92d7 e93c 3bbe b13c dde9 adbd
00000180: 382e 313d e305 dfbc 3628 d3bc f4d5 13be
00000190: 02d7 fc3c ecd7 253e 9a73 96bd 5245 463d
000001a0: 6143 a9bd f197 49bc f9dc a63d 965c d1bc
000001b0: 8bcc 20be 6dc0 05be c905 a13d 139c 09bd
000001c0: c737 f53d 356a b53c ac55 a2bd a531 0b3e
000001d0: 1c45 c33d acc7 1fbe 3433 073e 5f72 27be
000001e0: bdfd 9b3b 935b 953d 5d80 023d 2572 bd3d
000001f0: ad3d 2ebe 3593 e63c 37c6 2cbe 508c ae3b
00000200: 4cc5 2ebd 5dec aebb a231 c53c d90f 56bd
00000210: e3dd b9bd 7f60 bebc 51da 9abd e033 e1bd
00000220: 5cd6 f3bd 177e 30be 0347 50bd 2b70 fcbd
00000230: e0e7 8dbd 8f41 6c3d 99e6 05be d312 073d
00000240: 2c34 133d 3592 843d 503f 33be 0d88 a2bd
00000250: 478d 44bd 6b51 b53d 4377 b43c 39c1 813b
00000260: 457f c13d 3464 c33b be32 abbd c878 2c3e
00000270: 40f9 0abe 25ad 06be f816 d53d 8e71 d9bd
00000280: 3c20 b63d 4a39 123c d5b8 53bd 49c1 15be
00000290: 682d 67bd abbb d6bd c6be 103e d542 49bb
000002a0: 1f08 e2bd 8eee e4bd e1ba 0a3d b75d 783d
000002b0: 62b2 11be 6c92 1c3e 06af 8b3d 3652 a53c
000002c0: faf1 16bd 8039 f0bc d61f ea3c 0dff a13d
000002d0: fd2c 073e a91e 2fbe b8ce a038 a7e7 1ebe
000002e0: 1d22 1d3e 4bdc 17be b3b8 d0bc 8b34 78bd
000002f0: 4069 df3d 0af9 edbd a198 183e a9c6 143e
00000300: 0114 0d3e f27d 21bc 2ffb c3bd 6798 72bd
00000310: 04a0 85bd 204c 223e e012 173e d752 27be
00000320: cafe 523d 7e03 263d 0e18 ac3d 6da7 433d
00000330: 21fd c2bd 0f57 e4bd 8344 e8bd c5ec 1f3e
00000340: b6ef ca3d 9641 193e 8f8a 39bd bd54 c0bd
00000350: 200f 28be b8d7 fc3d ad93 b5bd 04e3 bdbd
00000360: 5b90 63bd 930f bbbd f38b 0a3d 3c82 87bc
00000370: f5f9 aabd 658e 293e a849 0a3e a526 27be
00000380: a434 9b3d 3157 253e 852f 22bd 733d 94bd
00000390: 566c aebc 008a 1fbe dcbc 36bd 60a7 c8bc
000003a0: dcf6 153c cec4 333d 9c7b 3e3d a06e 773a
000003b0: b329 16be 5af7 07be 1e3a c1bd 5c94 a43d
000003c0: 9918 6f3d 16e7 24be 74c7 25be d9ac ef3d
000003d0: 1533 75bd 5805 b83d 152e 1c3e 8fdd c13d
000003e0: 5ee8 8cbd bec2 0d3e 0d27 12be d781 34be
000003f0: 8f1f 99bd c949 0abe 64e0 bcbd a0b0 fe3d

fcn.module.0.bias f4 [32]
-0.00039652054 0.16079158 0.16672507 0.037514206 -0.17070891 0.08759259 -0.13528952 -0.07471614
0.07524006 0.05255341 0.14517497 -0.13384421 -0.059578378 -0.02721668 -0.070811756 0.041401606
0.025777686 0.036403835 0.11012443 0.11399006 -0.06951507 -0.04215511 0.014431418 0.09068345
0.11601674 0.058707308 -0.076596156 0.0014806914 0.13772944 -0.10000733 -0.043277226 0.11888584
00000000: 16e4 cfb9 8ca6 243e fab9 2a3e 7fa8 193d
00000010: 51ce 2ebe be63 b33d 5689 0abe c704 99bd
00000020: 7617 9a3d 3f42 573d bfa8 143e 750e 09be
00000030: 7508 74bd 84f5 debc c105 91bd bb94 293d
00000040: ba2b d33c 301c 153d eb88 e13d 9f73 e93d
00000050: eb5d 8ebd d6aa 2cbd c171 6c3c 3fb8 b93d
00000060: 2f9a ed3d 1377 703d 72de 9cbd c213 c23a
00000070: f208 0d3e a5d0 ccbd 7643 31bd 6b7a f33d

fcn.module.3.weight f4 [1, 32]
0.09464995 0.010207777 0.17455703 0.0044762734 -0.09192421 0.10847717 -0.046516545 -0.06881537
0.17469195 0.13521625 -0.1328302 -0.07522683 -0.054256294 -0.018817201 0.17860653 0.058903087
-0.1213333 -0.12451844 0.11183386 0.037511088 0.14500587 0.15673426 0.090411626 -0.114187695
-0.092235886 0.15187435 -0.026061736 0.0072944798 -0.122876815 0.05802239 -0.13446435 0.05087729
00000000: d5d7 c13d 853e 273c 14bf 323e b4ad 923b
00000010: c342 bcbd 4729 de3d 2288 3ebd 13ef 8cbd
00000020: 72e2 323e 2176 0a3e a404 08be 8610 9abd
00000030: d93b 5ebd 8826 9abc a1e4 363e 5d44 713d
00000040: 987d f8bd 8603 ffbd 2709 e53d 3aa5 193d
00000050: 6b7c 143e f27e 203e bb29 b93d 3ddb e9bd
00000060: 2be6 bcbd f384 1b3e 6c7f d5bc 8806 ef3b
00000070: d7a6 fbbd e3a8 6d3d 06b1 09be b564 503d

exp_avg f4 [16, 4, 16]
0.00089067087 0.0001748156 0.00060310535 0.00076307287 0.0015203368 0.00092420715 0.00022155783 0.0005453196
0.000100132886 0.0011383337 0.00036803953 0.0005119418 0.00063949294 0.000516384 0.00021727996 0.0001941767
0.0007957742 0.0012193581 0.0012249305 0.00052186835 0.00029338792 0.00048930605 0.00050759164 0.0008134961
2.7717959e-05 0.0006115997 2.0226658e-05 0.00030965108 0.0010452971 0.0005839902 0.0009973274 0.0016675553
0.00030028127 7.6348406e-05 3.5618225e-05 0.0005703043 0.00015363695 0.00013410207 0.0014912201 0.00041125284
0.0006718612 0.0005014465 0.00047295337 0.00030043616 0.0005679789 0.0009430656 0.00023046907 -3.8019587e-06
0.00035925859 0.0008754629 0.00048233103 0.0004907396 0.0003786234 0.0007983699 0.00012561551 0.0005759165
0.001546273 9.460528e-05 0.0014847654 0.0012239561 9.3216186e-05 0.00030254517 0.0009009087 0.00048805488
0.00089349924 0.0010028533 0.0008162608 0.0012091895 0.0007786838 0.0017381011 0.0015532526 0.0013151288
0.0014154341 0.0013882872 0.0010900231 0.00079512 0.0008986204 0.0007374548 0.0012707307 0.0009126083
0.0016598562 0.0008359113 0.0017294734 0.00077982334 0.0016830722 0.001239113 0.00095385895 0.0007359522
0.0010403229 0.0013673505 0.0014422073 0.0019773385 0.0014983243 0.0010045717 0.00063472573 0.00060389703
0.0011315395 0.002047182 0.000603094 0.0009728904 0.0008455801 0.00075995637 0.00075605186 0.0016901761
0.0012600988 0.001372189 0.0010929814 0.0014767515 0.00084426935 0.0014401409 0.0013333221 0.0018765881
0.0011604637 0.0009594117 0.0016965304 0.001883455 0.0015380222 0.001108188 0.0015821949 0.0011041013
0.0011295028 0.00071753166 0.001220147 0.00059614854 0.0016041443 0.001663191 0.0016065799 0.0014522652
0.0014136833 0.0007284318 0.0040631797 0.00069601665 0.0013712478 0.0045151724 0.00077529415 0.0017507173
0.0023682616 0.004069086 0.0016953744 0.0036388522 0.001164483 0.0032294826 0.0025413446 0.0035345298
0.0022220416 0.00088288216 0.002960255 0.0015405759 0.0052555758 0.0031927237 0.0013247749 0.0023191834
0.0016161066 0.00081128086 0.0022141556 0.0043155965 0.00079530594 0.0013770657 0.003209 0.0025501712
0.002723666 0.006722281 0.0012159224 0.005473219 0.0008055549 0.00071784353 0.0049450095 0.0010169516
0.0036672303 0.0027806472 0.0021126184 0.0011077917 0.0049405675 0.0024401248 0.0022745586 0.0024641552
0.003024727 0.0010505226 0.0011447613 0.0016743072 0.0019517401 0.0009583783 0.00233904 0.0042972662
0.0017325198 0.0017231046 0.00336197 0.00032187806 0.002483762 0.0023374453 0.0013592154 0.0008352621
0.0004433133 0.0007705715 0.0012685868 0.0022713183 -0.00029868397 0.0012624065 0.00019276656 0.001021773
0.0018810552 -0.00022346865 0.0011611752 0.0003784351 0.0006736289 -0.00038123105 5.172259e-05 0.0007527141
0.0027123922 -0.00031861773 0.0008195757 0.00035065084 0.002437346 0.0008599662 0.0033979928 1.4315617e-05
0.0005313539 0.00024417858 0.0017393759 0.0015461005 0.0004476598 0.0015336664 0.0014842583 -1.5530672e-05
-0.00039393496 -0.00024440483 1.6442129e-05 0.0007709342 0.00072348886 -0.00014746223 0.00034184006 0.001666795
0.00029196223 0.0031793094 -0.0005490016 0.0014502188 0.0022449854 0.0020155702 0.0017029375 0.002274763
0.0008239721 0.0033781934 0.001481138 0.00019283974 0.0007235922 0.0016108322 -0.000346857 0.0008828592
0.0008813715 0.00038572322 0.0012341934 0.00021098844 0.00021946858 0.00041773723 0.00034682426 0.0005737962
00000000: e97b 693a b54e 3739 b719 1e3a f408 483a
00000010: 0a46 c73a 7e46 723a fa51 6839 c7f3 0e3a
00000020: 6ffe d138 2434 953a 6ef5 c039 d533 063a
00000030: a5a3 273a f25d 073a a5d5 6339 e99b 4b39
00000040: 819b 503a ded2 9f3a d98d a03a fecd 083a
00000050: dcd1 9939 c644 003a e60f 053a cd40 553a
00000060: dd83 e837 c353 203a 6bac a937 aa58 a239
00000070: 5a02 893a eb16 193a c1b8 823a df91 da3a
00000080: 126f 9d39 3d1d a038 c764 1538 7980 153a
00000090: 9b19 2139 c09d 0c39 0b75 c33a 6c9d d739
000000a0: d81f 303a 8173 033a baf6 f739 dc83 9d39
000000b0: 6be4 143a 1038 773a 12aa 7139 2725 7fb6
000000c0: df5a bc39 527f 653a 60e1 fc39 faa4 003a
000000d0: f981 c639 b249 513a a8b7 0339 1af9 163a
000000e0: 50ac ca3a d366 c638 769c c23a 276d a03a
000000f0: 0f7d c338 ed9e 9e39 f62a 6c3a 9ee1 ff39
00000100: b839 6a3a 2c72 833a 56fa 553a ab7d 9e3a
00000110: 9620 4c3a ffd0 e33a 8296 cb3a 6660 ac3a
00000120: 1686 b93a 30f7 b53a 1bdf 8e3a 9a6f 503a
00000130: 6591 6b3a c151 413a a68e a63a 1b3c 6f3a
00000140: 888f d93a 0f21 5b3a 7faf e23a 0f6d 4c3a
00000150: 889a dc3a bc69 a23a 640c 7a3a ebec 403a
00000160: 725b 883a ab38 b33a 7208 bd3a 3c96 013b
00000170: 6c63 c43a d5ab 833a b963 263a d84e 1e3a
00000180: 2a50 943a 042a 063b f418 1e3a 9209 7f3a
00000190: eca9 5d3a cf37 473a c831 463a e688 dd3a
000001a0: e629 a53a 06db b33a 5f42 8f3a 8f8f c13a
000001b0: f551 5d3a 1cc3 bc3a dec2 ae3a d9f7 f53a
000001c0: b31a 983a 0781 7b3a 1d5e de3a 43de f63a
000001d0: 7697 c93a 9e40 913a a761 cf3a 7eb7 903a
000001e0: d30b 943a bc18 3c3a 57ed 9f3a da46 1c3a
000001f0: 2742 d23a 6eff d93a e093 d23a ef59 be3a
00000200: 574b b93a 3bf4 3e3a 6c24 853b e374 363a
00000210: 71bb b33a 03f4 933b 1c3d 4b3a 5378 e53a
00000220: d634 1b3b f855 853b 5337 de3a cf79 6e3b
00000230: 91a1 983a baa5 533b b08c 263b 92a3 673b
00000240: ac9f 113b 3871 673a d600 423b 26ed c93a
00000250: f736 ac3b 043d 513b 12a4 ad3a 71fd 173b
00000260: 8ad3 d33a 23ac 543a 5e1b 113b d969 8d3b
00000270: 147c 503a a87e b43a 164e 523b c620 273b
00000280: 887f 323b 9546 dc3b 965f 9f3a b058 b33b
00000290: e02b 533a aa2d 3c3a bf09 a23b 3c4b 853a
000002a0: ea55 703b 853b 363b db73 0a3b 5233 913a
000002b0: 7ce4 a13b 80ea 1f3b c310 153b aa7d 213b
000002c0: 803a 463b b0b1 893a d10b 963a 6d74 db3a
000002d0: 88d1 ff3a ae3b 7b3a 944a 193b 15d0 8c3b
000002e0: b815 e33a ccd9 e13a 7f54 5c3b bec1 a839
000002f0: 9dc6 223b d32f 193b b327 b23a 7ef5 5a3a
00000300: 816c e839 2e00 4a3a b646 a63a 66da 143b
00000310: af98 9cb9 5577 a53a 6121 4a39 03ed 853a
00000320: bd8d f63a e952 6ab9 9332 983a b368 c639
00000330: 7896 303a f7df c7b9 b5f0 5838 ca51 453a
00000340: 64c2 313b 260c a7b9 cbd8 563a 8fd7 b739
00000350: e1bb 1f3b 5b6f 613a dcb0 5e3b 1b2d 7037
00000360: 8e4a 0b3a 1805 8039 c5fb e33a 86a6 ca3a
00000370: e2b3 ea39 4e05 c93a 728b c23a dd47 82b7
00000380: 0e89 ceb9 7623 80b9 34ed 8937 8518 4a3a
00000390: 84a8 3d3a 17a0 1ab9 ff38 b339 5c78 da3a
000003a0: 8212 9939 f65b 503b e0ea 0fba 4515 be3a
000003b0: 9b20 133b a817 043b 1a35 df3a 3114 153b
000003c0: d5ff 573a ae64 5d3b bf22 c23a 0635 4a39
000003d0: 73af 3d3a 8f22 d33a 5cda b5b9 ae6f 673a
000003e0: d70b 673a e53a ca39 a9c4 a13a c73c 5d39
000003f0: 2621 6639 be03 db39 f7d5 b539 d06a 163a

exp_avg_sq f4 [16, 4, 16]
4.2722426e-08 1.8791915e-09 1.7647826e-08 2.0842373e-08 9.059013e-08 2.9588133e-08 7.2229036e-09 1.36075595e-08
4.753526e-09 4.6686367e-08 5.58409e-09 7.7111615e-09 1.4680471e-08 2.6292135e-08 7.1725443e-09 7.947478e-09
3.137287e-08 8.029891e-08 5.0957368e-08 1.4364173e-08 8.738985e-09 1.767812e-08 1.6353907e-08 2.6670158e-08
1.7237776e-09 1.4921927e-08 2.3023243e-09 7.927556e-09 5.1908252e-08 1.0849947e-08 3.64651e-08 9.8479454e-08
1.2007019e-08 3.9106505e-09 5.922517e-09 1.6620069e-08 2.658832e-09 2.1801914e-09 7.3511906e-08 8.962858e-09
2.801355e-08 1.1815961e-08 1.0093611e-08 6.921065e-09 1.19097585e-08 2.9204898e-08 5.1495346e-09 1.3850957e-09
4.691092e-09 2.2490525e-08 1.7699708e-08 2.2182004e-08 1.0614421e-08 2.9051979e-08 3.8231187e-09 2.7261649e-08
7.3116354e-08 4.645459e-09 8.3419536e-08 5.641256e-08 2.9528593e-09 3.0776528e-09 3.67527e-08 1.388856e-08
3.4290135e-08 4.395105e-08 4.782776e-08 1.1236414e-07 2.6820315e-08 1.1522078e-07 1.3521809e-07 9.332753e-08
9.3611774e-08 9.60788e-08 4.658661e-08 2.7267252e-08 2.9022296e-08 2.413068e-08 1.0786454e-07 4.9958178e-08
1.4639268e-07 2.8938828e-08 1.1792022e-07 2.8807735e-08 1.2143549e-07 7.741042e-08 4.561795e-08 3.4364632e-08
4.828019e-08 1.0034732e-07 8.5536875e-08 1.507562e-07 9.970103e-08 4.992788e-08 2.8023969e-08 2.2028392e-08
4.6084416e-08 1.740176e-07 2.2478758e-08 4.999966e-08 7.370562e-08 3.115766e-08 2.6026095e-08 1.129635e-07
5.554849e-08 5.284178e-08 1.04293e-07 9.850869e-08 2.7101665e-08 1.1664042e-07 5.445012e-08 1.6407043e-07
4.7923546e-08 3.950668e-08 8.5625985e-08 1.04439145e-07 7.438863e-08 5.247052e-08 7.516504e-08 3.9804718e-08
5.677954e-08 3.796241e-08 4.3774094e-08 1.9977989e-08 1.2541003e-07 8.540604e-08 8.4918106e-08 6.947314e-08
8.609254e-08 2.3703976e-08 7.313654e-07 2.7959901e-08 6.002669e-08 8.063626e-07 4.0846274e-08 1.4668699e-07
1.8637347e-07 5.9540895e-07 1.8651271e-07 4.5685263e-07 6.185794e-08 3.8762144e-07 1.8267127e-07 4.2948167e-07
1.313757e-07 4.1069455e-08 2.3704926e-07 1.16190016e-07 1.1241349e-06 3.0530958e-07 6.749775e-08 1.844154e-07
1.0636401e-07 4.664463e-08 1.8576768e-07 5.5732073e-07 1.9914804e-08 7.060378e-08 4.8216583e-07 2.5677014e-07
2.9565248e-07 1.5280862e-06 6.0051526e-08 9.502883e-07 1.9302908e-08 1.8513116e-08 7.0790463e-07 6.1389585e-08
4.2326474e-07 2.904559e-07 1.5158996e-07 6.7227106e-08 8.5694774e-07 2.178089e-07 1.6292516e-07 1.8141102e-07
3.957044e-07 5.335598e-08 4.6755606e-08 1.09773346e-07 1.1757356e-07 2.896422e-08 2.4751685e-07 5.4473367e-07
1.3617014e-07 9.87444e-08 3.1849896e-07 1.0227503e-08 2.590885e-07 2.1199499e-07 7.223948e-08 3.1495926e-08
8.622058e-08 5.0469055e-08 9.541238e-08 1.955614e-07 1.3405877e-08 1.8188157e-07 1.5731665e-08 8.88792e-08
2.1185247e-07 5.967791e-09 6.524105e-08 7.0646976e-08 4.563605e-08 1.5424668e-08 1.2569761e-08 3.7535838e-08
2.176748e-07 1.0096431e-08 5.3789435e-08 1.0913826e-08 3.4087708e-07 6.732185e-08 4.4286594e-07 9.745497e-09
9.71487e-08 1.0603158e-08 1.2026894e-07 9.5325035e-08 4.0769137e-08 1.6325436e-07 1.7432959e-07 3.1151306e-08
8.739538e-09 5.5568243e-09 2.8663107e-09 4.7928186e-08 1.588766e-08 2.5310476e-09 2.7236046e-08 9.3857686e-08
2.167932e-08 3.8436607e-07 9.6512345e-09 1.2757509e-07 2.0009072e-07 1.5075909e-07 8.522005e-08 2.3185453e-07
4.5775106e-08 4.993421e-07 7.745782e-08 3.2790222e-08 4.0927667e-08 7.062277e-08 6.1994516e-09 4.4348525e-08
3.8891702e-08 1.9786084e-08 1.014066e-07 1.8879463e-08 2.4068903e-08 1.2253356e-08 2.7890936e-08 2.3257392e-08
00000000: ce7d 3733 1623 0131 fb97 9732 dd08 b332
00000010: 738a c233 fe28 fe32 552d f831 aec6 6932
00000020: 7554 a331 3484 4833 2dde bf31 0c7a 0432
00000030: 6535 7c32 04d9 e132 5e72 f631 6189 0832
00000040: d6be 0633 cb70 ac33 38dc 5a33 4dc6 7632
00000050: 7622 1632 99da 9732 9f7a 8c32 4c18 e532
00000060: 08ea ec30 aa2d 8032 eb36 1e31 c331 0832
00000070: baf1 5e33 9266 3a32 cd9d 1c33 a77b d333
00000080: 6e47 4e32 725e 8631 037f cb31 ebc3 8e32
00000090: abb6 3631 55d2 1531 99dd 9d33 11fb 1932
000000a0: 73a2 f032 25ff 4a32 2c68 2d32 55ce ed31
000000b0: ac9b 4c32 40de fa32 c9ef b031 b95d be30
000000c0: 482f a131 3031 c132 120a 9832 be8a be32
000000d0: b85a 3632 fa8d f932 825c 8331 002d ea32
000000e0: 2404 9d33 e49d 9f31 6024 b333 444a 7233
000000f0: 40eb 4a31 a47e 5331 05da 1d33 889a 6e32
00000100: 6746 1333 b1c4 3c33 2e6b 4d33 d74c f133
00000110: 7f62 e632 4b6f f733 7730 1134 5a6b c833
00000120: 9e07 c933 e153 ce33 8516 4833 5239 ea32
00000130: b44c f932 ed47 cf32 28a3 e733 9991 5633
00000140: 1d30 1d34 2895 f832 543b fd33 e174 f732
00000150: ef63 0234 d43c a633 77ed 4333 5098 1333
00000160: a15c 4f33 867e d733 65b0 b733 8cdf 2134
00000170: 391b d633 4970 5633 5cb9 f032 f238 bd32
00000180: 5aee 4533 98d9 3a34 5017 c132 35bf 5633
00000190: 1848 9e33 36d2 0533 fd8f df32 5796 f233
000001a0: 3694 6e33 27f4 6233 aff7 df33 ba8b d333
000001b0: 31cd e832 c07b fa33 8adc 6933 562b 3034
000001c0: 7fd4 4d33 0eae 2933 62e1 b733 0748 e033
000001d0: 95bf 9f33 f25b 6133 6b6a a133 c0f5 2a33
000001e0: c4dd 7333 1c0c 2333 2002 3c33 109c ab32
000001f0: 72a8 0634 7868 b733 395c b633 4331 9533
00000200: e0e1 b833 989d cb32 0c53 4435 792c f032
00000210: 06e8 8033 d174 5835 f46e 2f33 0381 1d34
00000220: f31d 4834 31d4 1f35 3944 4834 5945 f534
00000230: c3d6 8433 491a d034 4c24 4434 8393 e634
00000240: 4710 0d34 5864 3033 9b87 7e34 2384 f933
00000250: fbe0 9635 6ee9 a334 48f3 9033 b803 4634
00000260: 3c6a e433 5056 4833 6e77 4734 ca9a 1535
00000270: 1e11 ab32 d79e 9733 2f6e 0135 38da 8934
00000280: 2bba 9e34 a418 cd35 adf5 8033 5117 7f35
00000290: 8bcf a532 c606 9f32 d606 3e35 48d5 8333
000002a0: 103d e334 f4ef 9b34 bbc4 2234 7e5e 9033
000002b0: 0009 6635 dbde 6934 87f0 2e34 e2c9 4234
000002c0: 3371 d434 8529 6533 55d0 4833 89bc eb33
000002d0: c07c fc33 fecc f832 75e2 8434 d039 1235
000002e0: 2a36 1234 4f0d d433 2afe aa34 09b5 2f32
000002f0: da18 8b34 bda0 6334 1322 9b33 2346 0733
00000300: 4428 b933 50c3 5833 83e5 cc33 82fb 5134
00000310: ac4f 6632 3a4b 4334 4c22 8732 dbdd be33
00000320: 9079 6334 3f0d cd31 a61a 8c33 96b6 9733
00000330: 5e01 4433 347f 8432 65f2 5732 1737 2133
00000340: feb9 6934 9374 2d32 1c06 6733 847f 3b32
00000350: ca01 b734 9492 9033 08c3 ed34 266d 2732
00000360: 10a0 d033 2f29 3632 4623 0134 7eb5 cc33
00000370: 241a 2f33 044b 2f34 5a2f 3b34 39cb 0533
00000380: e524 1632 58ee be31 acf8 4431 99d9 4d33
00000390: 5579 8832 a9ee 2d31 b3f4 e932 cf8e c933
000003a0: 5439 ba32 df5a ce34 94ce 2532 93fb 0834
000003b0: 85d8 5634 58e0 2134 3802 b733 b0f3 7834
000003c0: 439a 4433 870a 0635 e356 a633 3bd5 0c33
000003d0: 72c8 2f33 47a9 9733 f402 d531 b879 3e33
000003e0: e109 2733 0ff6 a932 dec4 d933 612c a232
000003f0: 14c0 ce32 d482 5232 d194 ef32 8cc7 c732

exp_avg f4 [16]
0.0023459853 0.0048453584 0.009384116 0.0035857423 -0.01116535 -0.006508965 0.0057072765 0.0012526833
-0.002516278 -0.0065811058 -0.01966262 -0.007425072 0.0075362297 -0.007502546 -0.005640618 -0.00643767
00000000: 1abf 193b d0c5 9e3b d6bf 193c c6fe 6a3b
00000010: dfee 36bc 2849 d5bb 1b04 bb3b 1431 a43a
00000020: 24e8 24bb 51a6 d7bb 8113 a1bc 054e f3bb
00000030: 7af2 f63b ebd7 f5bb efd4 b8bb 17f3 d2bb

exp_avg_sq f4 [16]
1.9403647e-07 9.3696735e-07 2.944961e-06 5.384474e-07 3.3322724e-06 1.3494713e-06 1.2639748e-06 7.958377e-08
2.4434755e-07 1.2838353e-06 1.1158259e-05 1.5799914e-06 1.9910733e-06 1.4810386e-06 7.960455e-07 1.3115815e-06
00000000: 5758 5034 e883 7b35 0ba2 4536 d389 1035
00000010: 01a0 5f36 7b1f b535 d8a5 a935 a4e7 aa33
00000020: df2e 8334 3f50 ac35 5c34 3b37 1710 d435
00000030: 619e 0536 19c8 c635 d5af 5535 9909 b035

exp_avg f4 [32, 32]
-0.008117188 -0.011747942 -0.011014731 -0.012207515 -0.010509672 -0.0103959255 -0.0018857054 -0.0125283515
-0.013209573 -0.021128757 -0.013083117 -0.010100492 -0.010239393 -0.018287227 -0.01597061 -0.009774586
-0.00049984286 -0.0016165086 -0.0011012844 -0.0013284065 -0.0011283925 -0.0011924027 -5.1290437e-05 -0.0017657892
-0.0017385879 -0.0061840145 -0.0019184654 -0.000812991 -0.0006872072 -0.0040728995 -0.0030163685 -0.00079089066
0.0 0.0 0.0 0.0 0.0 0.0 0.0 0.0
0.0 0.0 0.0 0.0 0.0 0.0 0.0 0.0
0.0 0.0 0.0 0.0 0.0 0.0 0.0 0.0
0.0 0.0 0.0 0.0 0.0 0.0 0.0 0.0
0.0 0.0 0.0 0.0 0.0 0.0 0.0 0.0
0.0 0.0 0.0 0.0 0.0 0.0 0.0 0.0
0.0 0.0 0.0 0.0 0.0 0.0 0.0 0.0
0.0 0.0 0.0 0.0 0.0 0.0 0.0 0.0
6.7506363e-07 1.42955e-06 2.723595e-06 1.0235078e-07 1.2057757e-06 1.6888487e-06 -2.9803383e-07 2.6129276e-06
7.990189e-07 3.6464478e-06 1.8813065e-06 1.6881013e-07 2.769336e-07 2.2649972e-06 2.0448895e-06 1.448325e-06
6.535539e-09 5.69523e-08 2.790463e-07 8.768856e-08 1.634376e-07 2.281787e-07 -1.1489778e-08 2.445774e-07
3.6496982e-07 9.642833e-07 3.401474e-07 1.2544757e-07 -2.3599492e-08 3.2315936e-07 2.822551e-07 1.5425398e-07
0.0 0.0 0.0 0.0 0.0 0.0 0.0 0.0
0.0 0.0 0.0 0.0 0.0 0.0 0.0 0.0
0.0 0.0 0.0 0.0 0.0 0.0 0.0 0.0
0.0 0.0 0.0 0.0 0.0 0.0 0.0 0.0
-0.00017845165 -0.00016194182 -0.0001338151 -0.00014227575 -0.00013617963 -8.709034e-05 -8.884992e-05 -0.00013948105
-0.00020073354 -0.00025759428 -0.00018430575 -0.00017230715 -9.527434e-05 -0.00032139444 -0.000236911 -9.345443e-05
-1.1333442e-05 -1.7871003e-05 -9.896848e-06 -9.166864e-06 -1.1378671e-05 -1.1760029e-05 -3.2009177e-06 -2.0620339e-05
-2.937853e-05 -6.487267e-05 -2.327281e-05 -9.104365e-06 -6.5473023e-06 -5.4449752e-05 -3.873358e-05 -9.733429e-06
1.5659837e-06 1.3075235e-06 6.3811615e-07 9.074083e-07 1.1151174e-06 1.1494573e-06 0.0 6.5652034e-07
1.7873128e-06 1.8805857e-06 1.4705727e-06 1.0498562e-06 6.0969234e-07 1.8495514e-06 1.5509426e-06 1.0490448e-06
6.101496e-08 1.4126871e-07 3.8719108e-08 4.9626617e-08 1.3717452e-07 1.6033094e-07 0.0 9.3950966e-08
2.0935502e-07 4.1039888e-07 2.1445835e-07 6.62305e-08 2.861751e-08 4.7105578e-07 2.840446e-07 7.466165e-08
0.0 0.0 0.0 0.0 0.0 0.0 0.0 0.0
0.0 0.0 0.0 0.0 0.0 0.0 0.0 0.0
0.0 0.0 0.0 0.0 0.0 0.0 0.0 0.0
0.0 0.0 0.0 0.0 0.0 0.0 0.0 0.0
00000000: f4fd 04bc 717a 40bc 2177 34bc 0702 48bc
00000010: c230 2cbc ac53 2abc c629 f7ba b743 4dbc
00000020: f76c 58bc 3716 adbc 925a 56bc 897c 25bc
00000030: 21c3 27bc 18cf 95bc ccd4 82bc 9625 20bc
00000040: e307 03ba 07e1 d3ba f958 90ba ed1d aeba
00000050: 92e6 93ba 654a 9cba b020 57b8 0e72 e7ba
00000060: 54e1 e3ba 46a3 cabb 0475 fbba e71e 55ba
00000070: b225 34ba f575 85bb 44ae 45bb c653 4fba
00000080: 0000 0000 0000 0000 0000 0000 0000 0000
00000090: 0000 0000 0000 0000 0000 0000 0000 0000
000000a0: 0000 0000 0000 0000 0000 0000 0000 0000
000000b0: 0000 0000 0000 0000 0000 0000 0000 0000
000000c0: 0000 0000 0000 0000 0000 0000 0000 0000
000000d0: 0000 0000 0000 0000 0000 0000 0000 0000
000000e0: 0000 0000 0000 0000 0000 0000 0000 0000
000000f0: 0000 0000 0000 0000 0000 0000 0000 0000
00000100: 0000 0000 0000 0000 0000 0000 0000 0000
00000110: 0000 0000 0000 0000 0000 0000 0000 0000
00000120: 0000 0000 0000 0000 0000 0000 0000 0000
00000130: 0000 0000 0000 0000 0000 0000 0000 0000
00000140: 0000 0000 0000 0000 0000 0000 0000 0000
00000150: 0000 0000 0000 0000 0000 0000 0000 0000
00000160: 0000 0000 0000 0000 0000 0000 0000 0000
00000170: 0000 0000 0000 0000 0000 0000 0000 0000
00000180: 0536 3535 f7de bf35 01c7 3636 f0cb db33
00000190: 23d6 a135 66ac e235 7501 a0b4 c159 2f36
000001a0: 297c 5635 7fb5 7436 3381 fc35 2d42 3534
000001b0: 77ad 9434 5b00 1836 ef3a 0936 1164 c235
000001c0: 368f e031 b79b 7433 d5cf 9534 4c4f bc33
000001d0: 637d 2f34 4901 7534 9464 45b2 764e 8334
000001e0: 12f1 c334 866c 8135 819d b634 c4b2 0634
000001f0: d5b7 cab2 af7e ad34 d888 9734 03a1 2534
00000200: 0000 0000 0000 0000 0000 0000 0000 0000
00000210: 0000 0000 0000 0000 0000 0000 0000 0000
00000220: 0000 0000 0000 0000 0000 0000 0000 0000
00000230: 0000 0000 0000 0000 0000 0000 0000 0000
00000240: 0000 0000 0000 0000 0000 0000 0000 0000
00000250: 0000 0000 0000 0000 0000 0000 0000 0000
00000260: 0000 0000 0000 0000 0000 0000 0000 0000
00000270: 0000 0000 0000 0000 0000 0000 0000 0000
00000280: c01e 3bb9 edce 29b9 b850 0cb9 db2f 15b9
00000290: 71cb 0eb9 45a4 b6b8 f054 bab8 a941 12b9
000002a0: 007c 52b9 b80d 87b9 3342 41b9 59ad 34b9
000002b0: 06ce c7b8 d580 a8b9 506b 78b9 f7fc c3b8
000002c0: c324 3eb7 b0e9 95b7 a30a 26b7 62cb 19b7
000002d0: 05e7 3eb7 f14c 45b7 59cf 56b6 d7f9 acb7
000002e0: ea71 f6b7 400c 88b8 fb39 c3b7 f3be 18b7
000002f0: e6b0 dbb6 fa60 64b8 dd75 22b8 c24c 23b7
00000300: ca2e d235 2a7e af35 024b 2b35 a094 7335
00000310: 24ab 9535 0d47 9a35 0000 0000 bc3b 3035
00000320: 9ae3 ef35 6f68 fc35 7e60 c535 c9e8 8c35
00000330: bda9 2335 1a3e f835 fb29 d035 e8cc 8c35
00000340: 5407 8333 a6af 1734 1c4c 2633 0b25 5533
00000350: 3f4a 1334 6f27 2c34 0000 0000 17c2 c933
00000360: 12cb 6034 cb54 dc34 dd45 6634 9a3a 8e33
00000370: 92d2 f532 6ae5 fc34 cb7e 9834 ad55 a033
00000380: 0000 0000 0000 0000 0000 0000 0000 0000
00000390: 0000 0000 0000 0000 0000 0000 0000 0000
000003a0: 0000 0000 0000 0000 0000 0000 0000 0000
000003b0: 0000 0000 0000 0000 0000 0000 0000 0000
000003c0: 0000 0000 0000 0000 0000 0000 0000 0000
000003d0: 0000 0000 0000 0000 0000 0000 0000 0000
000003e0: 0000 0000 0000 0000 0000 0000 0000 0000
000003f0: 0000 0000 0000 0000 0000 0000 0000 0000

exp_avg_sq f4 [32, 32]
2.0903628e-06 4.6575715e-06 4.0942264e-06 4.757407e-06 3.348934e-06 3.1963734e-06 1.3814304e-07 4.8815064e-06
5.090377e-06 1.364563e-05 5.055079e-06 2.863378e-06 3.488266e-06 9.977282e-06 7.596745e-06 2.8196598e-06
9.261235e-09 9.94839e-08 4.663984e-08 6.2056856e-08 3.6919946e-08 3.8770512e-08 1.1058054e-10 1.0764057e-07
8.2435776e-08 1.0892608e-06 1.0238317e-07 1.750637e-08 1.656463e-08 4.7056352e-07 2.5595173e-07 1.6767526e-08
0.0 0.0 0.0 0.0 0.0 0.0 0.0 0.0
0.0 0.0 0.0 0.0 0.0 0.0 0.0 0.0
0.0 0.0 0.0 0.0 0.0 0.0 0.0 0.0
0.0 0.0 0.0 0.0 0.0 0.0 0.0 0.0
0.0 0.0 0.0 0.0 0.0 0.0 0.0 0.0
0.0 0.0 0.0 0.0 0.0 0.0 0.0 0.0
0.0 0.0 0.0 0.0 0.0 0.0 0.0 0.0
0.0 0.0 0.0 0.0 0.0 0.0 0.0 0.0
1.1457428e-12 2.1133488e-12 2.9670242e-12 1.1529268e-12 3.2993669e-12 3.7853024e-12 1.6663749e-14 5.004398e-12
3.1100066e-12 9.166043e-12 5.924405e-12 2.8734452e-12 5.000409e-13 4.268317e-12 6.4381395e-12 1.5337731e-12
4.8101934e-15 3.4365045e-14 2.6731001e-14 1.0984126e-14 4.2770966e-14 7.926718e-14 2.4766507e-17 6.021736e-14
7.208298e-14 6.860443e-13 1.177436e-13 1.3223237e-14 1.4087914e-15 3.7850495e-13 2.3114846e-13 1.7208769e-14
0.0 0.0 0.0 0.0 0.0 0.0 0.0 0.0
0.0 0.0 0.0 0.0 0.0 0.0 0.0 0.0
0.0 0.0 0.0 0.0 0.0 0.0 0.0 0.0
0.0 0.0 0.0 0.0 0.0 0.0 0.0 0.0
2.8025315e-09 2.1581763e-09 2.4180709e-09 1.80117e-09 1.5507015e-09 6.6737926e-10 8.754608e-10 1.5487802e-09
3.1353518e-09 5.1363678e-09 2.7699798e-09 2.3899471e-09 7.182123e-10 8.345244e-09 4.891565e-09 8.2654394e-10
1.2263143e-11 2.73844e-11 1.4192874e-11 6.414183e-12 9.827547e-12 1.04031835e-11 1.2758269e-12 3.2789448e-11
6.596782e-11 3.2823186e-10 4.1165668e-11 6.3111244e-12 3.2675728e-12 2.3794644e-10 1.1471756e-10 7.315715e-12
2.4523046e-13 1.7096176e-13 4.071922e-14 8.233899e-14 1.2434868e-13 1.321252e-13 0.0 4.31019e-14
3.194487e-13 3.5366027e-13 2.162584e-13 1.1021982e-13 3.7172475e-14 3.4208403e-13 2.4054231e-13 1.1004951e-13
3.7228252e-16 1.995685e-15 1.4991693e-16 2.4628012e-16 1.881685e-15 2.5706008e-15 0.0 8.826784e-16
4.3829525e-15 1.6842727e-14 4.5992386e-15 4.3864787e-16 8.189619e-17 2.2189356e-14 8.0681345e-15 5.574362e-16
0.0 0.0 0.0 0.0 0.0 0.0 0.0 0.0
0.0 0.0 0.0 0.0 0.0 0.0 0.0 0.0
0.0 0.0 0.0 0.0 0.0 0.0 0.0 0.0
0.0 0.0 0.0 0.0 0.0 0.0 0.0 0.0
00000000: 2948 0c36 3c48 9c36 2361 8936 d1a1 9f36
00000010: 3fbe 6036 4781 5636 7854 1434 d2cb a336
00000020: 01ce aa36 89ef 6437 cc9e a936 7628 4036
00000030: f417 6a36 1a64 2737 8be7 fe36 6339 3d36
00000040: 581b 1f32 daa3 d533 0c51 4833 1e44 8533
00000050: e991 1e33 a184 2633 4f2b f32e 0728 e733
00000060: 8c07 b133 b732 9235 bedd db33 ea60 9632
00000070: 024a 8e32 c2a1 fc34 bd69 8934 2e08 9032
00000080: 0000 0000 0000 0000 0000 0000 0000 0000
00000090: 0000 0000 0000 0000 0000 0000 0000 0000
000000a0: 0000 0000 0000 0000 0000 0000 0000 0000
000000b0: 0000 0000 0000 0000 0000 0000 0000 0000
000000c0: 0000 0000 0000 0000 0000 0000 0000 0000
000000d0: 0000 0000 0000 0000 0000 0000 0000 0000
000000e0: 0000 0000 0000 0000 0000 0000 0000 0000
000000f0: 0000 0000 0000 0000 0000 0000 0000 0000
00000100: 0000 0000 0000 0000 0000 0000 0000 0000
00000110: 0000 0000 0000 0000 0000 0000 0000 0000
00000120: 0000 0000 0000 0000 0000 0000 0000 0000
00000130: 0000 0000 0000 0000 0000 0000 0000 0000
00000140: 0000 0000 0000 0000 0000 0000 0000 0000
00000150: 0000 0000 0000 0000 0000 0000 0000 0000
00000160: 0000 0000 0000 0000 0000 0000 0000 0000
00000170: 0000 0000 0000 0000 0000 0000 0000 0000
00000180: bc3f a12b b5b6 142c 28c9 502c 9142 a22b
00000190: 1c2c 682c f92e 852c fd17 9628 9c13 b02c
000001a0: e6d8 5a2c 3040 212d 4c72 d02c 6333 4a2c
000001b0: bfbf 0c2b 952d 962c 9b85 e22c 00dc d72b
000001c0: 344e ad27 33c4 1a29 7ec5 f028 57df 4528
000001d0: 919f 4029 6b7e b229 436e e423 f298 8729
000001e0: 0251 a229 b41a 412b 4891 042a 6b35 6e28
000001f0: 3b07 cb26 5014 d52a 0120 822a b800 9b28
00000200: 0000 0000 0000 0000 0000 0000 0000 0000
00000210: 0000 0000 0000 0000 0000 0000 0000 0000
00000220: 0000 0000 0000 0000 0000 0000 0000 0000
00000230: 0000 0000 0000 0000 0000 0000 0000 0000
00000240: 0000 0000 0000 0000 0000 0000 0000 0000
00000250: 0000 0000 0000 0000 0000 0000 0000 0000
00000260: 0000 0000 0000 0000 0000 0000 0000 0000
00000270: 0000 0000 0000 0000 0000 0000 0000 0000
00000280: a896 4031 0a4f 1431 272b 2631 098d f730
00000290: 7520 d530 a472 3730 14a5 7030 dcdc d430
000002a0: b175 5731 f87b b031 005a 3e31 653c 2431
000002b0: b36b 4530 c55e 0f32 a912 a831 dc32 6330
000002c0: 49bc 572d 30e0 f02d 06af 792d d3ad e12c
000002d0: 56e3 2c2d c603 372d 828e b32b a335 102e
000002e0: 9510 912e 8772 b42f 6c0c 352e 8e0d de2c
000002f0: 5cef 652c fccf 822f 3f44 fc2e 0db3 002d
00000300: 6f0d 8a2a 5f7c 402a 1062 3729 3269 b929
00000310: 1101 0c2a 7fc2 142a 0000 0000 1b1d 4229
00000320: 69d5 b32a d117 c72a 3d7c 732a 6631 f829
00000330: f268 2729 8193 c02a cd69 872a 39cf f729
00000340: 349b d625 e4cd 0f27 abd7 2c25 88f8 8d25
00000350: f696 0727 373b 3927 0000 0000 2c6a 7e26
00000360: 9ae9 9d27 afb4 9728 7db4 a527 00dd fc25
00000370: fad6 bc24 2cdd c728 b457 1128 88ab 2026
00000380: 0000 0000 0000 0000 0000 0000 0000 0000
00000390: 0000 0000 0000 0000 0000 0000 0000 0000
000003a0: 0000 0000 0000 0000 0000 0000 0000 0000
000003b0: 0000 0000 0000 0000 0000 0000 0000 0000
000003c0: 0000 0000 0000 0000 0000 0000 0000 0000
000003d0: 0000 0000 0000 0000 0000 0000 0000 0000
000003e0: 0000 0000 0000 0000 0000 0000 0000 0000
000003f0: 0000 0000 0000 0000 0000 0000 0000 0000

exp_avg f4 [32]
-0.019265968 0.0 0.0 1.8867013e-06 0.0 -0.00026255508 1.733036e-06 0.0
-0.03240401 -0.025318075 0.000119545766 0.016301405 0.0005117365 2.2301176e-05 -0.036643706 0.0
0.02995783 0.0 -0.020878177 -0.007330253 0.0 -0.00013906443 0.0 0.01641897
0.006992046 -0.028982008 0.0011800724 -0.0002592462 0.029767437 5.1424254e-06 0.0 -0.005792303
00000000: aad3 9dbc 0000 0000 0000 0000 903a fd35
00000010: 0000 0000 8ca7 89b9 aa9a e835 0000 0000
00000020: 11ba 04bd da67 cfbc a5b4 fa38 868a 853c
00000030: 0e26 063a 6913 bb37 b617 16bd 0000 0000
00000040: 206a f53c 0000 0000 b608 abbc 9e32 f0bb
00000050: 0000 0000 d3d1 11b9 0000 0000 1381 863c
00000060: 881d e53b ad6b edbc a9ac 9a3a 70eb 87b9
00000070: d7da f33c 198d ac36 0000 0000 5ccd bdbb

exp_avg_sq f4 [32]
1.1508769e-05 0.0 0.0 7.455226e-12 0.0 5.5886735e-09 3.003414e-13 0.0
3.6371966e-05 1.8761999e-05 1.1468163e-09 8.39029e-06 9.112709e-09 1.0757553e-10 4.3434233e-05 0.0
2.7216278e-05 0.0 1.4213992e-05 1.5025978e-06 0.0 3.3366225e-09 0.0 1.0200873e-05
2.0858613e-06 2.599425e-05 9.0323e-08 2.2242213e-09 2.7757602e-05 4.961094e-12 0.0 8.361744e-07
00000000: c915 4137 0000 0000 0000 0000 5a27 032d
00000010: 0000 0000 7e06 c031 c213 a92a 0000 0000
00000020: 1a8e 1838 1663 9d37 039e 9d30 05c4 0c37
00000030: 1e8e 1c32 a48f ec2e 272d 3638 0000 0000
00000040: 834e e437 0000 0000 a178 6e37 deac c935
00000050: 0000 0000 7c4a 6531 0000 0000 6a24 2b37
00000060: d3fa 0b36 3a0e da37 98f7 c133 ead8 1831
00000070: ffd8 e837 908d ae2c 0000 0000 7875 6035

exp_avg f4 [1, 32]
-0.11450493 0.0 0.0 4.823612e-05 0.0 -0.00012352275 -2.3027004e-08 0.0
-0.023682196 -0.023332166 -2.064274e-05 -0.033122912 -0.00021160195 -8.113398e-05 -0.05030267 0.0
-0.056090478 0.0 -0.078221574 -0.058678467 0.0 -3.5620012e-06 0.0 -0.009587985
-0.0023118102 -0.030777918 -0.0018561282 -0.0029464972 -0.110330924 2.5828285e-06 0.0 -0.0079745315
00000000: 9081 eabd 0000 0000 0000 0000 2451 4a38
00000010: 0000 0000 e385 01b9 ebcc c5b2 0000 0000
00000020: 2a01 c2bc 1923 bfbc f229 adb7 e4ab 07bd
00000030: 77e1 5db9 7926 aab8 2c0a 4ebd 0000 0000
00000040: 21bf 65bd 0000 0000 a232 a0bd d558 70bd
00000050: 0000 0000 b70a 6fb6 0000 0000 ed16 1dbc
00000060: bd81 17bb f921 fcbc 5449 f3ba 051a 41bb
00000070: 2ef5 e1bd a854 2d36 0000 0000 9ca7 02bc

exp_avg_sq f4 [1, 32]
0.00037525396 0.0 0.0 5.04621e-10 0.0 1.5086016e-09 5.302429e-17 0.0
1.6085702e-05 1.3865902e-05 5.2486834e-11 4.3112053e-05 2.1049469e-09 1.2727467e-09 7.24525e-05 0.0
0.00011804852 0.0 0.00018363206 9.8021505e-05 0.0 2.2166242e-12 0.0 3.5775902e-06
2.6328507e-07 2.4758354e-05 2.8538574e-07 2.67072e-07 0.000384322 1.2515051e-12 0.0 1.6257193e-06
00000000: bcbd c439 0000 0000 0000 0000 8cb5 0a30
00000010: 0000 0000 3357 cf30 0888 7424 0000 0000
00000020: c8ef 8637 98a1 6837 ecd6 662e 37d3 3438
00000030: 9ea6 1031 cbec ae30 a4f1 9738 0000 0000
00000040: d190 f738 0000 0000 5b8d 4039 e590 cd38
00000050: 0000 0000 27fb 1b2c 0000 0000 8816 7036
00000060: a059 8d34 29b0 cf37 1e37 9934 1962 8f34
00000070: d37e c939 3922 b02b 0000 0000 4a33 da35
