tests/_logs/test_fit/multitask/checkpoints/epoch=0-step=6-v7.ckpt (torch, 36777 bytes, 18 tensors)

convnet.module.0.weight f4 [16, 4, 16]
000000 f3 08 d1 bc 0f 8b ec bd cc 15 b9 3d 51 a7 e3 bd
       -0.025516963 -0.11549961 0.090373605 -0.111158974
000010 45 6a 42 bd b1 26 a8 bd 2b 33 41 3d 92 e7 29 3d
       -0.047464628 -0.08210505 0.04716794 0.04148061
000020 3f 2f 0c bd fc 30 44 bc 7b 9e 4c 3d cd 89 3c bd
       -0.034224745 -0.011974569 0.049955826 -0.046029855
000030 6f 2a 72 bd 57 ec 0c bc f3 bc d2 bd 73 bd c3 bd
       -0.0591225 -0.00860127 -0.102899455 -0.09557619
000040 8b fb 8f 3d 67 84 d3 bc 94 cc 3e bc 62 2e 71 bc
       0.070304 -0.02581997 -0.011645455 -0.014720531
000050 13 61 a5 3b fe 86 61 3d 84 46 01 bd 01 f0 c8 3d
       0.0050469725 0.05506038 -0.03156139 0.09811402
000060 71 94 9f bc 5b 43 fc 3d 3b e7 a6 3d 97 3e f7 bb
       -0.019479962 0.123175345 0.081495725 -0.007545303
000070 62 92 99 bd e9 7c a2 3d ef 4d 09 3d 85 96 1f 3d
       -0.074986234 0.07933981 0.03352159 0.038961906
000080 41 ac cf 3d 83 46 cb bd 93 ff e9 bd df d3 cd 3d
       0.10140277 -0.099255584 -0.114257 0.10050177
000090 ec e4 3a 3c 2b c9 8d 3c 44 32 db bd 7f e0 10 bc
       0.011407118 0.017307838 -0.10702947 -0.008842587
0000a0 12 a5 8e 3d 00 34 02 3e 21 42 97 bd a1 bd fb bc
       0.069650784 0.12715149 -0.0738566 -0.03073007
0000b0 75 3f e1 bd 26 7f a3 3c 8a 5a 05 3e ba 87 d3 bc
       -0.109984316 0.01995809 0.13022819 -0.025821555
0000c0 fa 9e 53 bd 1c 6a 04 3e 68 10 94 3d 06 a7 bc bd
       -0.051665284 0.12931103 0.07229692 -0.09211545
0000d0 cc 5b 99 bc 6a b6 ee 3d 04 43 30 3d 1b 5e 91 3d
       -0.01872053 0.116558865 0.04303266 0.07098027
0000e0 94 47 17 3d 32 a5 dd 3c 1e 1a 21 bb 28 ba 5b 3d
       0.036933497 0.02705631 -0.0024582217 0.05364433
0000f0 d3 6c 3e bc 82 57 27 bd 05 7c b4 bd 8c 41 6b bd
       -0.011622625 -0.04085494 -0.08812717 -0.057435557
000100 b4 d4 81 3d 05 2e 1e 3d cf c2 85 bd 3c 07 d0 3d
       0.06339398 0.038618106 -0.065312974 0.1015763
000110 cf ea 70 bd 29 d7 ac 3d 22 88 66 3d 0a 3c 83 bd
       -0.05881768 0.08439476 0.05628217 -0.06407936
000120 7d ec 95 3d 6c 2a e7 3d ad 66 68 3c d6 4f 36 bd
       0.07320497 0.11287388 0.014184636 -0.04450973
000130 08 85 d4 3d b3 f0 85 3c 57 53 1b 3d 7f 2b f7 bd
       0.10376936 0.016350126 0.037921276 -0.12068843
000140 30 ce 55 3d 76 cf e1 3c 29 0b da 3c 89 cb f0 3d
       0.05219859 0.027564745 0.02661665 0.11757571
000150 f4 fa 17 bd 31 60 66 3c ad 80 52 3c 24 2e ac 3d
       -0.037104562 0.01406102 0.0128480615 0.08407238
000160 00 92 92 bd 0d 15 94 3c 45 cd 01 be 3a ba e5 bd
       -0.071567535 0.018076444 -0.1267596 -0.112171605
000170 46 26 36 3d 5a ea 6c 3d 08 5e d3 bd 2e b2 ad 3d
       0.044470094 0.057840683 -0.103206694 0.08481251
000180 72 79 12 3b d5 ec cc 3d 75 8f b5 bc cb 85 a3 3d
       0.002235022 0.100061096 -0.022163132 0.07984503
000190 76 c3 93 bd db f1 71 3d 0a 29 e3 3d 69 e6 cf 3d
       -0.072150156 0.059068542 0.11091812 0.10151369
0001a0 51 0f fd 3b e7 16 03 be cd fe b5 bd c3 28 92 bd
       0.007722773 -0.12801705 -0.0888649 -0.07136681
0001b0 01 93 59 3d bb 8e 9b bd 54 2a ba 3c 67 80 f5 bd
       0.05311871 -0.07595583 0.022725262 -0.119873814
0001c0 d1 ac 92 3d 03 a7 c7 3b ae d7 4c bd 0f bd d1 3d
       0.07161868 0.0060929074 -0.050010376 0.10241138
0001d0 9a 60 cd 3d 14 02 c6 bd 7a cc 9e 3c 8b 5b 0e 3c
       0.10028191 -0.09668365 0.019384611 0.008688818
0001e0 11 04 15 3d f8 3c 8b 3d 4e 3b 6b 3c 26 a8 4a 3c
       0.03638083 0.06798738 0.014357401 0.012369191
0001f0 f6 17 9e bd 10 64 df 3d 31 fe e7 bd 2e fa 94 3b
       -0.07719414 0.10907757 -0.1132778 0.0045464253
000200 e0 92 c3 3d d3 d9 f6 3d 06 ad 14 3d 2a 9a b0 3d
       0.095494986 0.120532654 0.03629782 0.086231545
000210 07 43 06 3e 38 ff a5 3d 16 ab db bc e4 03 90 bd
       0.13111506 0.0810532 -0.026814979 -0.07031992
000220 20 69 ef bd c7 26 19 3d c8 bc ec bd e5 ae 9d bc
       -0.11689973 0.037390497 -0.11559445 -0.019248435
000230 db 1e c5 bd e5 b8 5a bd 2c f2 c3 bc 1a fe d8 bd
       -0.09625026 -0.053398985 -0.023919187 -0.10595341
000240 ef 4d 9c bc 24 87 4d 3d 4e 3f 5a bd 28 80 ce bd
       -0.01908013 0.05017771 -0.05328303 -0.100830376
000250 75 ad bb 3d 73 ed cb bd 44 72 03 3d 48 70 f5 3b
       0.09163944 -0.09957399 0.032091394 0.0074901916
000260 b3 e4 70 3d 3a 81 f8 3d 0d e0 a5 bd b5 08 75 3c
       0.058811855 0.12134023 -0.08099375 0.014955689
000270 cd 26 ec 3d 0e cf 09 bd 2e c6 9b 3d a3 e8 85 bd
       0.11530838 -0.03364473 0.07606159 -0.065385126
000280 24 ce d0 3b 6d cc 04 3e fa 36 97 3d e7 a4 e4 3d
       0.00637223 0.12968607 0.07383533 0.11164265
000290 6b 72 c9 bd 0c 53 65 bd cf 53 f2 3d 96 85 e2 3d
       -0.098362766 -0.055987403 0.118323915 0.11060636
0002a0 ff eb c8 bd d0 f0 cb bd 7b 8d f2 3d 8a a9 ba 3c
       -0.09810638 -0.09958041 0.118433915 0.02278592
0002b0 35 ca 54 bd b6 df ab bd f8 6a 16 3d f7 4d 8c 3d
       -0.051950652 -0.08392279 0.036723107 0.06850808
0002c0 b4 fc c4 3d 15 06 8b 3a fd 2a 96 bc 8f bb ce 3d
       0.09618512 0.0010606671 -0.018331045 0.10094368
0002d0 45 24 b1 3c 5c b7 e9 3d 5f b5 c7 bd b3 6c 7f bd
       0.02162374 0.11411926 -0.09751391 -0.062359523
0002e0 87 9a 89 3d d1 9c c7 bd f5 73 37 3d 7d 3a 19 3d
       0.06718927 -0.09746707 0.04478832 0.037409294
0002f0 9f 8f 99 3d 92 8f f1 3d bf 52 af 3d bb 79 f2 3d
       0.07498097 0.11794962 0.085607044 0.118396245
000300 92 02 3f 3c 5e 88 e8 3d c2 df 01 bd c1 64 41 bd
       0.011658328 0.11354135 -0.031707533 -0.047215227
000310 c8 e8 56 bc 8b af 50 bd 1f 0a 7d bc 19 56 ed bd
       -0.013117023 -0.05094866 -0.015444308 -0.115886874
000320 ad 1c 60 bd 8c 8a 59 bd 46 85 d1 3c ae d6 3f 3c
       -0.054714847 -0.053110644 0.025576245 0.0117088985
000330 0a 2f b9 bd 01 e5 a8 bd ab 3f 34 3b f8 3c a2 bc
       -0.09042175 -0.08246804 0.002750377 -0.019804463
000340 fa 0a 71 3d 7e 4e 2b bd e9 14 e1 bb 72 48 f5 bd
       0.05884836 -0.041822903 -0.0068689478 -0.119767085
000350 0b b2 b9 3d bb c1 21 3d ad 7b f4 bd 48 3a 0f 39
       0.09067162 0.039491396 -0.11937652 0.00013659254
000360 0b 06 4b 3d d6 3c 47 3c c4 08 f8 bd a1 e8 20 bd
       0.04956631 0.0121605005 -0.12111047 -0.039284352
000370 2f ef ea 3d d2 cc 04 be 10 13 84 3d db 24 86 bd
       0.11471402 -0.12968758 0.064489484 -0.065499984
000380 28 b2 8d 3b f2 56 14 bd 47 61 6e 3c 55 5d 9b bd
       0.0043242164 -0.03621573 0.01454956 -0.07586161
000390 87 16 d1 3d 07 f4 a1 bd ef 64 6a bc 40 c6 98 3c
       0.10209375 -0.07907873 -0.014306291 0.01864922
0003a0 64 22 be 3d 49 3e 77 bd 2b 4d 38 3d 6a 61 aa 3d
       0.09283903 -0.060362134 0.044995468 0.083193615
0003b0 54 93 9d 3d f8 1f bd 3d d7 a5 a1 3d 81 ae cd bd
       0.07694116 0.09234613 0.078929596 -0.100430496
0003c0 7f 1b 36 bd 96 78 34 bc 79 58 f1 bc 14 6c fc bd
       -0.044459816 -0.011015078 -0.029461132 -0.12325302
0003d0 0a 23 54 3d ab 06 66 3d 34 a8 47 3d 8d 3b 73 3d
       0.05179123 0.056158703 0.048744395 0.059382964
0003e0 3e 1b 25 bc 96 74 c4 ba 18 40 03 be 5b 1e 39 bd
       -0.010077296 -0.0014988359 -0.12817419 -0.045194965
0003f0 d7 5d e4 bd 1f 37 80 bd 36 d4 cb 3d 53 bb e1 bd
       -0.11150711 -0.062605135 0.099525854 -0.110220574

convnet.module.0.bias f4 [16]
000000 2b b2 cc bd 67 98 35 bc 7d 5c db 3c c9 c6 e5 bd
       -0.0999492 -0.011083699 0.0267775 -0.11219556
000010 e5 60 95 bd 2e e3 37 bd c7 d5 e9 3b ff 28 67 bc
       -0.07293872 -0.04489439 0.00713608 -0.014108895
000020 06 19 bb bb 5b 35 e2 bc bb 62 d2 3d 07 fa 22 3c
       -0.00570977 -0.027613332 0.102727376 0.0099473065
000030 ea 7e bd bd 7c de f7 3c d0 98 26 3d 3d 41 6a 3d
       -0.092527226 0.030257456 0.040673077 0.057191122

fcn.module.0.weight f4 [32, 32]
000000 90 96 a5 3d 16 b8 0d 3e cc f2 a1 3b 49 85 86 bc
       0.08085358 0.13839754 0.0049422737 -0.016420977
000010 17 af bc 3c 7f 8d 9f 3d 77 88 be bd e9 a9 1e be
       0.023032708 0.0779066 -0.09303372 -0.15494503
000020 57 ba d2 bd 6e 39 04 3e 48 c8 98 3c 15 69 0f 3e
       -0.10289448 0.12912533 0.018650189 0.1400493
000030 35 ee 7a bd fd c4 4c 3c 5d d8 2c be 71 e4 1a bc
       -0.06126233 0.012498138 -0.16879411 -0.009453879
000040 d5 23 ad bd 74 68 a5 bd 50 8c 2b 3e 7d 8c d5 bd
       -0.084541 -0.080765635 0.16752744 -0.10427187
000050 ca e3 bd bd 11 09 20 be ff c7 66 bc 5a d8 61 3d
       -0.09271963 -0.15628459 -0.014085769 0.05513797
000060 43 14 a7 3d 92 96 da 3d 0c ff b1 bd 17 6a 62 3d
       0.081581615 0.1067325 -0.086912245 0.055276956
000070 be 5f 06 be 2a 7d 04 3e a4 11 f5 3d 51 9d 78 bc
       -0.1312246 0.12938371 0.11966255 -0.015174226
000080 90 68 45 bd 48 b5 53 bd 80 92 06 3d ba 46 e5 bd
       -0.04819542 -0.051686555 0.032854557 -0.11195131
000090 48 aa 08 3e 2c 72 19 3d 4f a8 0a 3e c3 e0 34 be
       0.13346207 0.0374624 0.13540767 -0.17663865
0000a0 3f 94 1e 3e dd 0c c3 3d 3b 11 2e 3d 55 60 b3 3d
       0.15486239 0.09523938 0.0424969 0.08758608
0000b0 58 b6 cc 3d 8e eb 93 bc 4c 02 39 be cf 64 88 3d
       0.09995717 -0.018056657 -0.18067282 0.06659853
0000c0 e0 d2 53 3d 2c 31 30 bd 20 c5 28 be 1b ef a9 bb
       0.051714778 -0.043015644 -0.16481447 -0.0051859743
0000d0 61 30 71 bd cc ba 0c 3e b0 a8 26 3d ad 6f c5 3d
       -0.05888403 0.13743132 0.040688217 0.09640441
0000e0 d3 f5 02 3d ef fa 91 bb 78 cc 18 bd bd 2c 7a bd
       0.031972717 -0.0044549624 -0.03730437 -0.061077822
0000f0 0b 83 ef bd b4 df 29 3d 1e 38 47 bd c8 81 03 be
       -0.11694916 0.041473106 -0.048637502 -0.12842476
000100 c3 bf 04 3e 8f af 17 bd 5e 09 8b bd de d9 80 3d
       0.12963776 -0.03703266 -0.06788896 0.06291555
000110 7a 49 16 bc eb 04 0f be 6d 23 a2 3c 24 a2 87 3c
       -0.009172792 -0.1396672 0.019792283 0.016556807
000120 4f bb d9 bd df e7 c8 3d fa d4 36 3e 1e 7d 7e 3d
       -0.106314294 0.09809851 0.17854682 0.06213104
000130 63 07 46 3c 86 3a 8d 3d ce af 00 3e 26 76 79 bd
       0.012086722 0.06895928 0.12567064 -0.06090369
000140 f5 79 9f bc f2 4a 9f bd 47 4b 40 bd 52 6c 67 bd
       -0.019467333 -0.077779666 -0.04694679 -0.056499787
000150 e1 2b 26 be f7 8f 1b bd a4 b2 cd bd b5 6b 9d bd
       -0.16227676 -0.037979092 -0.100438386 -0.07686559
000160 a2 0e d7 bd c6 22 1b 3e 2b e7 0c 3e 78 b4 11 bd
       -0.10500838 0.15149984 0.13760059 -0.0355725
000170 1d 3a 96 ba fb 04 a6 bd 79 31 8e 3c 9e ca f3 bd
       -0.0011461411 -0.08106419 0.017357575 -0.119038805
000180 63 1c c0 bd b0 ba a0 3d 81 a3 83 3d 58 49 11 3e
       -0.09380414 0.07848108 0.0642767 0.14188135
000190 2d 1d 8d bd ec a2 24 be 7f 72 b8 3c 54 b4 ba 3d
       -0.068903305 -0.16077775 0.022515533 0.09116426
0001a0 8b ac 3b 3e be d5 13 3e 75 1b 62 3c 63 ae f3 bd
       0.18327539 0.14437005 0.013800492 -0.11898496
0001b0 32 13 2c 3e e3 1e b5 bc 7a df 2d 3d cf bd d9 bd
       0.16804197 -0.022109454 0.042449452 -0.10631906
0001c0 de ea 94 bd 86 af 07 3e 5a fb 83 3c bf 92 0c be
       -0.0727136 0.1325055 0.016111065 -0.13727854
0001d0 96 20 de bd e7 57 23 be 90 d3 dd 3d 32 a0 da 3d
       -0.10846059 -0.15951501 0.10831368 0.10675086
0001e0 6c bb c0 bc 5a 0e 59 3b 43 69 0f be ea 44 0c bd
       -0.02352687 0.0033120126 -0.14004998 -0.03424541
0001f0 01 7f 50 bd 85 a2 fc bd 96 67 97 3d 21 01 2d 3e
       -0.05090237 -0.12335686 0.07392804 0.16894962
000200 af 1a e9 bd 78 5c 8c 3c d1 40 e2 3d f1 df 7f bd
       -0.113820426 0.017133936 0.11047519 -0.062469427
000210 ee 68 19 be 0a 0d bb 3d 94 62 41 3d 1a 8d 8d bb
       -0.14981434 0.091333464 0.047213152 -0.004319799
000220 a0 3e c3 3d 2b f2 f9 3d df b2 53 bd e2 ec 1c 3e
       0.09533429 0.12204393 -0.051684257 0.15324739
000230 db 9d 1b be 09 a8 ab bc f2 0f 29 be cf 59 0e be
       -0.15196936 -0.020954149 -0.16509989 -0.13901447
000240 81 c5 80 bd 1f 28 d6 bd a2 6c 1e be 67 07 91 3d
       -0.06287671 -0.10456871 -0.15471128 0.0708149
000250 b3 22 51 bd e4 4c d4 bd d7 26 9d bb 9f 2d fe bd
       -0.051058482 -0.10366228 -0.00479589 -0.12411045
000260 7e c6 6d bc 8e dc 82 bc 06 48 9a 3c 48 a2 89 3d
       -0.014512656 -0.01597431 0.018833172 0.06720406
000270 12 ac 91 bd e3 73 c2 3d b8 3b cc bd 01 56 a8 3d
       -0.07112898 0.0949476 -0.09972328 0.08219529
000280 d5 71 d9 3c 26 c7 1a be c4 6a d2 3d d7 2a eb 3d
       0.026543537 -0.15115032 0.1027427 0.114827804
000290 2c 2d f9 bd be 7d 07 3e d0 f6 1b 3e d6 d3 7a bc
       -0.12166819 0.1323156 0.1523087 -0.015309295
0002a0 4c 16 18 be 60 d8 78 3d fa 02 04 3d be a8 ab bd
       -0.14852256 0.060753226 0.0322294 -0.083817944
0002b0 aa 54 76 bc dc b0 33 be 32 77 2f be 44 6f 15 be
       -0.015034834 -0.17547935 -0.17135313 -0.14593226
0002c0 2b 7f f4 bd 6b a6 ba bd 00 86 6f bc 46 21 f5 3d
       -0.11938318 -0.09113773 -0.01461935 0.11969237
0002d0 81 13 31 be a6 10 48 3d 4f 78 dd bc 52 c9 0c 3d
       -0.17292596 0.048844002 -0.027034907 0.03437168
0002e0 bd 1b 01 3e 4b 79 c1 3c 2e 58 b7 3d f9 bd d6 bc
       0.12608238 0.023617407 0.08952366 -0.026213633
0002f0 ad 5f dc 3c 3c 2f 84 3d 1f 10 ae 3d 7b d4 02 3e
       0.02690109 0.06454322 0.084991686 0.12776367
000300 5a e4 39 3e ab 95 43 bd 96 29 35 3d fa 39 81 3d
       0.18153515 -0.047750156 0.044229113 0.06309886
000310 e3 14 f5 bd 7f 8f f3 3c 4a 2a 20 3d 15 10 21 be
       -0.119668745 0.02973151 0.03910283 -0.15728791
000320 08 d2 f4 3d 60 c9 d6 3d 9f 34 20 be 9c dd e1 bd
       0.11954123 0.10487628 -0.15645073 -0.11028597
000330 84 9d 2b be eb b1 8a bd 57 96 0f 3e 6b be a9 3d
       -0.16759306 -0.067722164 0.14022194 0.082882725
000340 ff 90 5e 3d 33 15 17 3e 3b 52 20 3e 36 92 50 3d
       0.054337498 0.1475418 0.15656368 0.050920688
000350 3b 3c 09 be 5a 75 03 3e 5c 1d 15 be 86 69 9c bd
       -0.13401882 0.12837735 -0.14561981 -0.076373145
000360 a2 30 e6 bc 3f ef 23 bb 66 a4 17 be e4 ed 2c bd
       -0.028099362 -0.0025014428 -0.14808807 -0.042219058
000370 3a 4c 13 3e 96 1e 1c 3e 0a 61 e1 bd 71 4a a9 bd
       0.14384547 0.15246043 -0.11004837 -0.08266152
000380 7b 3f ff 3d 0f 1e 34 be 55 29 ce bd 62 e2 1b 3e
       0.1246328 -0.17589591 -0.10066477 0.15223077
000390 6f 6c 8a bc 63 a1 8d bc 5c 4d 28 3e 08 16 d0 bd
       -0.016897408 -0.01728887 0.1643576 -0.10160452
0003a0 c5 a4 ce bd 41 1f 03 be 1a 78 67 3d 40 b2 e0 bd
       -0.10090021 -0.12804891 0.056511022 -0.109714985
0003b0 48 a2 67 bd 7f 2d 6c 3d 21 ab 21 be 82 a4 25 3e
       -0.056551248 0.057660576 -0.15787937 0.16176036
0003c0 19 2f fd 3d 63 a7 29 be 35 2d c2 bd 86 b5 13 be
       0.12362499 -0.16567759 -0.09481279 -0.14424714
0003d0 88 f7 b5 3c b3 b0 9e 3a c9 ef a4 3d 75 6a ef 3d
       0.022212759 0.0012107104 0.08053548 0.11690227
0003e0 ef 16 be bd 63 7e bf bd dd c2 f0 bd ff 97 df bd
       -0.09281718 -0.09350278 -0.11755917 -0.10917663
0003f0 88 22 a1 bd 43 68 98 bd b5 5a c6 bd cc b6 44 bd
       -0.078679144 -0.07441761 -0.0968527 -0.04802589

fcn.module.0.bias f4 [32]
000000 bf 20 a5 bd 6a 62 76 3d 37 91 2b be fd b5 9d bd
       -0.080628864 0.06015245 -0.16754614 -0.07700727
000010 96 10 ae bd 90 77 8a bd 6a f4 32 bd 11 c3 c3 bd
       -0.08499257 -0.06761086 -0.043690123 -0.0955869
000020 1c e1 b8 bb 85 4a db bd 43 68 10 3e d1 2e 2c 3e
       -0.0056420695 -0.10707573 0.14102273 0.16814734
000030 f3 3b 9a bd 6d 0b 03 3d 6d 86 1a 3e f9 06 28 be
       -0.07530966 0.03199332 0.15090342 -0.1640891
000040 d3 b1 89 bd 6c 56 19 be ce d3 a5 bb e4 b9 1c be
       -0.067233704 -0.14974374 -0.0050606495 -0.15305287
000050 e4 41 e6 bd fa 15 26 bc 83 9a 18 3e 26 33 27 3e
       -0.112430364 -0.010137076 0.14902692 0.16328105
000060 7e ec 06 be 12 aa 25 be 11 77 a2 bd 16 0e 13 3d
       -0.13176152 -0.16178158 -0.07932866 0.035902105
000070 b2 bc 23 3c d7 3c f2 bd 87 28 01 bd 35 78 2e 3e
       0.009993719 -0.118280105 -0.03153279 0.17038043

fcn.module.3.weight f4 [10, 32]
000000 8b 8f 35 3e 4e d5 04 be 93 9a 83 bd 5e 7b 42 bc
       0.17730539 -0.12971994 -0.06425967 -0.011870233
000010 8b d7 f7 bc b2 fc 10 3e b3 f9 37 3e 22 58 2b 3e
       -0.030254146 0.14158896 0.17966346 0.16732839
000020 90 89 dd 3c b7 54 cd 3d bb 3b b5 3c 55 06 b2 bd
       0.027043134 0.10025924 0.022123208 -0.08692614
000030 2f 94 05 3e 5d a1 85 bd 6f 26 b2 3d 74 8c d0 bd
       0.13044809 -0.06524918 0.08698737 -0.10183039
000040 5d 28 12 be 0a ff 85 bd 95 b6 2d 3d c2 15 32 bc
       -0.1427321 -0.065427855 0.042410452 -0.010869445
000050 5a 54 0d be ae fc 1e 3e dd 11 c8 bd a6 a6 08 be
       -0.13801709 0.15526077 -0.09769032 -0.13344821
000060 8f bd 02 3e cb a4 1a be 20 20 ad 3c 1b 3b c8 3d
       0.12767623 -0.15101926 0.021133482 0.097768985
000070 ef 88 07 bc 40 7d 00 3d f3 46 fe 3d fc f2 aa bd
       -0.008272394 0.031369448 0.12415876 -0.08347127
000080 5f ec 7a bd fb d3 d6 bd ef 63 1e 3d 89 61 a0 3c
       -0.061260577 -0.10489651 0.038669523 0.019577758
000090 aa 8a 0d be e3 c4 63 3d 95 37 2b 3d d8 1b 5f ba
       -0.13822427 0.055607688 0.041801054 -0.0008510924
0000a0 8c 8e 13 bc ac 01 0d 3e f4 3d f0 3c fb 56 1c be
       -0.009006154 0.13770169 0.029326417 -0.15267555
0000b0 39 8d 71 bc 3c 2c f4 3d dc eb d1 3c b9 23 f9 3d
       -0.014743143 0.119224995 0.025625162 0.12165017
0000c0 4e 79 95 3d 5d ec ee 3d 2a 98 14 bc ad 33 27 be
       0.07298528 0.116661765 -0.009069482 -0.16328306
0000d0 e9 6a fc 3c 3b bb 52 3d ec 58 bf bd 75 24 37 3e
       0.030812697 0.05144809 -0.093431324 0.17885001
0000e0 2a d2 5b 3d 29 3c 16 3e 8c be 8f bc 43 16 3c bc
       0.053667225 0.14671387 -0.017546915 -0.011479917
0000f0 8d 54 b2 3d c3 2d 37 3e 96 bc 21 3e d8 89 31 3e
       0.08707533 0.1788855 0.15794596 0.1733774
000100 4d ae 00 bc 48 47 b9 bd bf 13 08 be bb 72 7b bd
       -0.007854057 -0.09046799 -0.13288783 -0.061388712
000110 02 10 5d bd b4 ea 05 3d cd 8f c3 bd 4b 95 b8 bb
       -0.053970344 0.032694533 -0.09548912 -0.0056330315
000120 6e d6 7e bd 95 fc 03 3e 02 db 1b be e8 20 97 3d
       -0.062216215 0.12889321 -0.15220264 0.07379323
000130 5d 4d d1 bd 30 e5 21 be d3 c8 1f be e0 14 e6 ba
       -0.10219834 -0.15810084 -0.15603952 -0.0017553829
000140 3b bc 27 be b7 c3 29 3e 0e 6b e4 3c 6a b4 e6 bd
       -0.16380398 0.16578566 0.027883079 -0.1126488
000150 10 1d 0b be f2 31 15 3e e4 18 12 be 06 b9 47 3d
       -0.13585305 0.14569834 -0.14267308 0.048760436
000160 df 11 2d be 30 45 02 bc 3a 53 ed bd a4 4c 8e 3d
       -0.16901349 -0.007951066 -0.1158814 0.06948212
000170 e2 e9 41 3b 51 ba 21 3e 3c 7d 75 3c 7a 17 6f bd
       0.0029588868 0.1579373 0.0149834715 -0.058372
000180 12 b4 01 3e b1 25 a9 bd 6e 8b 93 3d 1f dc da 3d
       0.12666348 -0.08259142 0.072043285 0.10686516
000190 40 28 1e 3e 83 18 33 be 32 0e 39 bc 4d 39 28 bd
       0.15445042 -0.17489819 -0.011294888 -0.04107027
0001a0 23 ad a3 3d cc 9d f8 3b 30 e0 13 be b9 a8 a3 bd
       0.079920076 0.00758717 -0.1444099 -0.07991166
0001b0 e1 c4 1b be c6 cf 1f 3d 62 ad 96 bd f6 0b c3 bd
       -0.15211822 0.039016508 -0.07357289 -0.09523766
0001c0 54 22 0d bd 99 28 d7 bc e0 58 02 be 06 6e 38 3e
       -0.034456566 -0.026264476 -0.12729216 0.1801072
0001d0 06 df b9 bc 45 63 96 bc 71 fd 58 3d 55 50 1c be
       -0.022689354 -0.018357882 0.052976076 -0.15265019
0001e0 df 1e e5 bd 23 6a 1d be 3b d3 19 3e 1b 13 2a 3e
       -0.11187529 -0.15372519 0.15021984 0.1660885
0001f0 ac ab 00 be 10 39 d7 3d 09 c4 18 bc 99 3e 15 be
       -0.12565488 0.10508931 -0.009324082 -0.1457466
000200 f9 86 6c 3c 92 b0 c1 bd 92 74 03 3e 2d 1d 1b 3d
       0.014436477 -0.09457506 0.12837437 0.03786962
000210 d3 21 92 bd b4 46 de bd 25 30 0a 3e 5c c6 1e be
       -0.07135358 -0.10853329 0.13494928 -0.15505356
000220 8d 09 21 be 9c 79 8d 3d fb ad 7c 3d 25 58 b5 3d
       -0.157263 0.06907961 0.06168936 0.08854703
000230 53 94 9e bd b6 41 2e 3e 99 26 17 be 7f 27 20 be
       -0.07743134 0.17017254 -0.14760818 -0.15640067
000240 8b 9e ff 3d 95 f1 0c be 2b 84 ef 3d 34 2d 59 3d
       0.124814115 -0.13764031 0.11695131 0.053021625
000250 ae 6f 90 bc 59 43 28 be bb aa f8 3d c7 ef 17 be
       -0.017631378 -0.16431941 0.12141939 -0.14837562
000260 e6 37 8c ba 25 84 0a 3e 92 9e 06 be c8 92 24 be
       -0.0010697811 0.13526972 -0.13146427 -0.16071618
000270 4c 39 55 3a d5 69 17 be 72 67 34 3e e8 01 ac 3d
       0.0008133843 -0.14786465 0.17617586 0.08398801
000280 01 a4 19 3d a3 e6 21 3e 5e f1 0a 3e 98 3d 98 bd
       0.037509922 0.15810637 0.13568637 -0.07433623
000290 dd 2d aa 3c db 31 45 bc 20 1a 7e 3a 30 32 a1 bd
       0.020773822 -0.012035812 0.0009693224 -0.07870901
0002a0 a8 60 6b b9 a5 4c 48 bc 82 c7 21 be 6d 3d d0 3d
       -0.00022447354 -0.012225305 -0.15798762 0.10167966
0002b0 c4 23 ce bc 1e d0 2e be 79 ca 35 bd 34 bc 39 3e
       -0.025163539 -0.17071578 -0.044382546 0.181382
0002c0 a2 a8 f6 b9 0b 75 c5 bd ee ff 3d bd 7d e1 ef bd
       -0.00047046418 -0.09641465 -0.04638665 -0.1171293
0002d0 5a d5 ed 3d 1f 59 9f bc 3c ea ba 3d c0 da 1e bd
       0.11612959 -0.019451676 0.09126708 -0.038782835
0002e0 b6 87 d8 3d 83 21 11 be ce ae b9 bd c4 b0 52 bd
       0.1057276 -0.1417294 -0.090665445 -0.051438108
0002f0 5e 5a 5a bd 26 14 8a 3c a1 e6 b5 3d d4 b0 8f 3c
       -0.053308837 0.01685531 0.088818796 0.017540373
000300 24 55 90 3c 8b 34 34 3e 14 93 ad 3c 13 30 2b be
       0.017618723 0.17598169 0.021188296 -0.16717558
000310 28 17 df bd d8 73 cc bd e5 f8 97 bc d6 d5 6f bd
       -0.108930886 -0.09983033 -0.0185513 -0.05855354
000320 11 ce 3a 3e 8e c9 23 bd 0e 76 38 3d 72 9d 33 3c
       0.1824267 -0.03998714 0.04503446 0.010962831
000330 e7 e1 08 3e bb 72 f3 3c 1c 15 15 3e 71 c4 14 be
       0.13367425 0.029717794 0.14558834 -0.14528061
000340 55 63 23 bd 25 16 b3 bb b3 19 2c bd c3 ea be bd
       -0.039889652 -0.0054652863 -0.042016696 -0.09322121
000350 2d 49 b0 bd 95 fa a8 3d 42 28 93 3c 54 8a 21 3e
       -0.08607707 0.0825092 0.017963532 0.15775424
000360 3e b5 11 3e e6 0f 4c bd 0d e9 ba bd 53 bf 21 3e
       0.14229295 -0.04981985 -0.09126482 0.1579564
000370 39 c6 22 be 48 6e 7c 3c d8 ef e2 3d a7 fd fa 3d
       -0.15895928 0.0154071525 0.11080903 0.122554116
000380 51 02 a0 bc f4 96 e6 bd 89 3c e7 3c 5c 96 13 3d
       -0.019532355 -0.11259261 0.028227108 0.036032066
000390 1d 79 12 3e c6 08 0e be 2c 9e 78 bd 59 a5 e2 bd
       0.14304014 -0.13870534 -0.06069772 -0.11066694
0003a0 53 58 19 bc ee 35 2e bb 10 3e f7 bc 2d 7a 60 bd
       -0.009359437 -0.0026582438 -0.03018096 -0.054804016
0003b0 e1 5f eb 3d ef be 0f be 5b 5f ef 3c 24 a1 d1 3d
       0.11492897 -0.14037679 0.029220274 0.10235813
0003c0 27 31 89 bd 5f 47 19 be 85 27 1a be c8 8a 38 3e
       -0.06698828 -0.14968632 -0.15054138 0.18021691
0003d0 6e b2 60 bd c8 f0 fa 3c f1 80 c5 bd 45 83 a2 3d
       -0.054857664 0.030632392 -0.09643734 0.07935194
0003e0 3b ab 33 bd b7 a6 15 bd 5a e3 0c 3e 27 2e bb bc
       -0.04386447 -0.036535945 0.13758603 -0.022849156
0003f0 21 f6 8f bd 17 6a dc bc 51 08 71 bd e5 f6 96 bd
       -0.07029367 -0.026906056 -0.05884582 -0.0737131

fcn.module.3.bias f4 [10]
000000 38 f3 f4 bd b8 5a 1b 3e c0 a6 11 be 89 a7 79 bd
       -0.11960453 0.15171325 -0.14223766 -0.06095079
000010 85 02 0b bd 92 d0 07 3e 02 60 a7 3d 66 67 8e bd
       -0.03393795 0.13263157 0.08172609 -0.069533154
000020 3b 64 fc 3d ff ba da bd
       0.12323805 -0.10680198

exp_avg f4 [16, 4, 16]
000000 df 82 91 ba 74 3b 01 ba 13 89 75 bb 26 bb 4b ba
       -0.0011101625 -0.00049298187 -0.0037465736 -0.0007771723
000010 86 2d be ba 7e 01 47 ba 7e 7a 53 bb 9c 3b f2 ba
       -0.0014509417 -0.000759147 -0.0032269056 -0.00184809
000020 6f 8e d3 ba 75 01 47 ba a4 c4 40 bb f8 08 ad ba
       -0.0016140471 -0.00075914647 -0.0029414082 -0.0013201525
000030 85 48 0d bb ea 95 b4 ba 72 93 4f ba 94 7e 87 ba
       -0.0021558118 -0.0013777588 -0.00079183944 -0.0010337406
000040 fc 16 26 bb c0 4c b9 ba 75 63 9c ba 22 43 05 bb
       -0.002534329 -0.0014137253 -0.0011931496 -0.0020334204
000050 f2 d2 15 bb 1b 72 19 bb 73 f8 ae ba 8a 34 49 bb
       -0.002286133 -0.002341396 -0.001334919 -0.0030701482
000060 1d 4e c8 ba 99 ff 65 bb 29 d2 4d bb f6 4b fc ba
       -0.0015282069 -0.0035094975 -0.0031405783 -0.0019248712
000070 36 b4 c1 ba df 33 6e bb ea 9c 03 bb 85 74 64 bb
       -0.0014778438 -0.0036346836 -0.0020082542 -0.003485949
000080 a9 aa 74 bb 67 59 09 ba c5 c8 32 ba 67 78 a0 bb
       -0.0037333167 -0.0005239457 -0.0006820078 -0.0048971656
000090 b1 04 2c bb 7f 59 cf ba 1a bd 31 ba c0 25 ab ba
       -0.0026247913 -0.0015819519 -0.00067801925 -0.0013057515
0000a0 3a be 35 bb 7d 42 39 bb 41 0d 24 ba e9 9f e8 ba
       -0.0027731792 -0.002826839 -0.00062580785 -0.0017747852
0000b0 f3 45 c0 ba 5d f9 0c bb bc 77 9a bb b8 a0 21 bb
       -0.0014669284 -0.0021510937 -0.0047139805 -0.0024662446
0000c0 79 53 69 ba 2e 46 bf bb f5 6a 2d bb e6 d4 12 ba
       -0.0008900683 -0.0058372235 -0.0026461456 -0.00056011823
0000d0 19 d3 f9 ba b8 f8 6a bb f5 71 46 bb bb f2 05 bb
       -0.0019060104 -0.0035853814 -0.0030280326 -0.0020438868
0000e0 73 2b 1a bb ff aa 99 ba ab 7b cc ba 87 dd 54 bb
       -0.0023524433 -0.0011723934 -0.0015600821 -0.0032480673
0000f0 57 92 4f bb 85 bf 90 ba c3 9a 45 ba d8 06 a8 ba
       -0.0031672919 -0.0011043405 -0.0007538015 -0.0012819422
000100 1c 75 2c 3b 57 0e 14 3b 0f 57 17 3b 4a 98 17 3b
       0.002631492 0.0022591555 0.0023092662 0.0023131543
000110 a8 09 ea 3a 63 0a 65 3b 59 85 14 3b cf 41 cc 3a
       0.0017855661 0.0034948818 0.002266249 0.0015583577
000120 0f be 5a 3b 1c 3b 71 3b bb ba 51 3b fa e9 1a 3b
       0.0033377444 0.0036808914 0.003200217 0.0023637996
000130 03 5a 6f 3b 41 66 0e 3b 5e 6f 50 3b 68 23 ce 3a
       0.0036522157 0.0021728429 0.0031804661 0.0015727105
000140 81 6a 1b 3b 50 69 17 3b 55 fe 40 3b 40 db 2d 3b
       0.0023714604 0.0023103543 0.0029448469 0.0026528388
000150 38 be 0e 3b 92 b8 0c 3b a8 e2 06 3b c1 7a 34 3b
       0.002178086 0.0021472317 0.0020581875 0.0027538987
000160 5c ff d8 3a 74 bb 09 3b c0 1f ce 3a 62 54 e9 3a
       0.0016555595 0.0021016272 0.0015726015 0.0017801637
000170 64 7f 13 3b 85 44 38 3b 50 ca e2 3a f1 90 87 3b
       0.002250635 0.0028117013 0.0017302725 0.0041371514
000180 94 2e 10 3b 93 fe 58 3b a2 0d 1c 3b 8b 76 17 3b
       0.002200042 0.0033110722 0.0023811837 0.0023111429
000190 7d 7c 04 3b b4 20 3c 3b 30 15 76 3b 20 24 62 3b
       0.0020215802 0.0028706016 0.003754925 0.0034506395
0001a0 c6 b4 12 3b 9a e1 a8 3a 31 ae 0e 3b 0b 67 2a 3b
       0.0022385581 0.0012884617 0.0021771307 0.002600136
0001b0 f0 e9 31 3b 20 cc cd 3a 66 91 60 3b 5a dd d8 3a
       0.0027147494 0.0015701093 0.0034266352 0.001654546
0001c0 ec e4 2f 3b e4 7c 03 3b 17 90 13 3b 07 09 2b 3b
       0.002683933 0.0020063454 0.0022516304 0.002609791
0001d0 94 b3 7f 3b e5 1e b4 3a da eb ec 3a 55 33 0b 3b
       0.003901695 0.0013742117 0.001807566 0.0021240313
0001e0 98 00 2e 3b c2 8b 38 3b 51 7a 40 3b e7 f7 4d 3b
       0.0026550647 0.0028159474 0.0029369781 0.003142828
0001f0 89 5f a6 3a 47 62 5a 3b 63 1a cb 3a d8 50 25 3b
       0.0012693267 0.0033322738 0.0015495535 0.0025225189
000200 0b 64 05 bb 7e 34 dd ba 83 cb d0 ba 1b ca e0 ba
       -0.002035382 -0.0016876606 -0.0015929792 -0.0017150076
000210 00 36 ce ba 99 e3 e2 ba b6 c2 02 bb e1 f0 f7 ba
       -0.0015732646 -0.0017310261 -0.0019952483 -0.0018916392
000220 d7 b9 fa ba f1 27 ed ba 0b cc f0 ba 18 48 f3 ba
       -0.0019128871 -0.0018093569 -0.0018371356 -0.0018560914
000230 eb 4b e0 ba ef 84 f3 ba eb c7 ef ba 28 8c d9 ba
       -0.0017112469 -0.0018579046 -0.0018293833 -0.0016597556
000240 d4 2a dc ba 4d 53 f7 ba 34 bd eb ba 4d 10 db ba
       -0.0016797432 -0.001886943 -0.0017985464 -0.0016713232
000250 8e 5a ea ba aa 0e e6 ba 45 47 ee ba 19 34 f9 ba
       -0.0017879771 -0.0017551978 -0.0018179199 -0.0019012719
000260 db 7a d2 ba 04 48 b6 ba 5c 9a ec ba 04 e6 e7 ba
       -0.0016058342 -0.001390696 -0.0018051374 -0.0017692451
000270 a9 46 e5 ba 63 f7 fc ba b2 69 db ba 79 32 03 bb
       -0.0017492372 -0.0019299801 -0.0016739874 -0.0020019098
000280 0f 0e e0 ba 63 43 f4 ba 1a 5c 07 bb 99 07 07 bb
       -0.0017094034 -0.0018635805 -0.0020654262 -0.0020603894
000290 25 44 ef ba 2b e4 05 bb 14 30 c5 ba f8 3a c7 ba
       -0.0018254562 -0.0020430188 -0.0015044236 -0.0015200069
0002a0 b6 34 05 bb 11 43 0b bb 1b 6c d2 ba 54 27 e4 ba
       -0.0020325608 -0.0021249691 -0.0016053946 -0.001740674
0002b0 fa c6 fe ba 06 b5 00 bb 6a 7d f3 ba d9 b6 02 bb
       -0.0019437962 -0.0019639148 -0.0018576805 -0.0019945411
0002c0 3f 2b e2 ba 0b 61 e0 ba 4b eb dd ba 9c 42 df ba
       -0.001725532 -0.0017118765 -0.0016931085 -0.0017033401
0002d0 c2 ab 00 bb 9c 71 d4 ba 72 2f f0 ba 44 cc f0 ba
       -0.0019633626 -0.0016208175 -0.0018324687 -0.0018371423
0002e0 1a 8e d1 ba 1f 36 ef ba b5 59 f9 ba c8 d6 e9 ba
       -0.0015987784 -0.0018250382 -0.0019023927 -0.0017840499
0002f0 a5 d2 e4 ba d7 45 b7 ba 2e 7d ea ba 6d cd c3 ba
       -0.0017457796 -0.0013982606 -0.001789009 -0.0014938541
000300 6f 9c 3a 3a 52 b8 aa 3a 49 90 0a 3a d6 ad 58 3a
       0.00071186473 0.0013024902 0.00052857824 0.00082656497
000310 5e 46 b7 39 8f ae c9 39 d9 c4 48 3a f2 a0 99 b7
       0.00034956908 0.00038467764 0.0007658727 -1.8313967e-05
000320 01 41 0f 39 69 57 97 39 7c 57 8f 3a b0 02 1c 3a
       0.00013661759 0.0002886609 0.0010936107 0.0005951328
000330 e8 fc 29 39 a8 e4 f4 39 09 5e 82 39 76 46 2b 3a
       0.00016211311 0.0004670967 0.00024865594 0.0006533632
000340 fd 38 32 3a f1 d7 a7 39 8b 7a 35 3a 6f b5 00 3a
       0.0006798653 0.0003201361 0.00069228624 0.0004909848
000350 e5 60 31 3a 35 58 71 3a a7 84 6d 39 fa 93 1b 3a
       0.00067664526 0.0009206564 0.00022651498 0.0005934831
000360 f8 68 5e 3a b0 5a 6e 3a 24 96 58 39 77 27 b1 39
       0.00084842695 0.0009092493 0.00020655297 0.00033789474
000370 c4 80 b1 3a 32 90 63 39 c1 1d 3f 3a 02 8e 52 3a
       0.0013542403 0.00021702124 0.00072905055 0.0008032025
000380 67 c4 59 3a 74 23 a3 39 61 29 56 3a 39 a3 38 3a
       0.00083071593 0.00031116197 0.0008169618 0.0007043365
000390 df a5 75 3a 2b fa 1e 39 35 4e 42 3a 57 35 32 3a
       0.0009370725 0.00015161249 0.00074121665 0.00067981094
0003a0 cb 7b 84 3a d8 bf e6 39 e0 a1 8b 3a d2 c4 94 3a
       0.0010107694 0.00044011953 0.0010653101 0.0011350161
0003b0 53 04 72 3a 05 8b c0 3a ec 70 39 3a 29 fb f9 39
       0.0009232212 0.0014689869 0.00070740166 0.0004768011
0003c0 70 1b 82 39 35 b9 0c 3a ab e6 e2 39 1e 42 eb 39
       0.00024815975 0.0005368174 0.0004327794 0.00044871954
0003d0 99 fd 04 3a c2 dc 84 3a 51 33 41 3a a0 55 9f 3a
       0.00050731894 0.0010136592 0.00073700125 0.0012156256
0003e0 78 ed f8 39 3c 41 5a 3a 49 7a dc 38 f8 0e d3 39
       0.00047479174 0.0008325761 0.00010513195 0.0004025621
0003f0 87 27 02 38 3e 76 a6 39 da e9 4d 3a 7e d5 0c 3a
       3.1031228e-05 0.00031750085 0.0007854976 0.0005372389

exp_avg_sq f4 [16, 4, 16]
000000 61 68 16 33 72 37 ed 31 48 43 be 34 73 f5 8f 32
       3.501953e-08 6.903911e-09 3.543921e-07 1.6759008e-08
000010 2f 38 6d 33 0f a6 87 32 76 e5 90 34 41 df cb 33
       5.523196e-08 1.5791583e-08 2.6989045e-07 9.493534e-08
000020 a7 df 97 33 33 64 9f 32 95 ed 6e 34 cc 50 46 33
       7.0721676e-08 1.8555601e-08 2.2251909e-07 4.617395e-08
000030 e7 1a 01 34 65 18 65 33 ef a7 c2 32 2a 89 09 33
       1.2023848e-07 5.3340404e-08 2.266094e-08 3.2022548e-08
000040 e8 4d 34 34 0a b2 6c 33 5a 28 22 33 ca 83 de 33
       1.6792148e-07 5.5109957e-08 3.7755264e-08 1.0361653e-07
000050 ea 91 10 34 59 54 1a 34 a4 06 46 33 96 67 84 34
       1.3464128e-07 1.4373053e-07 4.6106507e-08 2.4662285e-07
000060 1f 3a 89 33 d3 9d a4 34 10 3d 8a 34 89 b4 d5 33
       6.390132e-08 3.0662213e-07 2.5748932e-07 9.9514246e-08
000070 ab ab 8a 33 f2 b2 b2 34 e6 8f e0 33 76 27 a4 34
       6.457352e-08 3.3285284e-07 1.0456988e-07 3.0576092e-07
000080 ae d0 bb 34 f2 cd 13 32 1b 68 61 32 b8 08 27 35
       3.49833e-07 8.603353e-09 1.31203945e-08 6.2225035e-07
000090 83 36 3c 34 73 ae a5 33 9e 9e 4b 32 58 b4 43 33
       1.7528696e-07 7.7151434e-08 1.18522205e-08 4.5565997e-08
0000a0 c6 35 51 34 c1 89 5f 34 d2 8c 5b 32 48 96 ac 33
       1.9484204e-07 2.0818608e-07 1.2779497e-08 8.03671e-08
0000b0 7f 37 71 33 e2 45 fc 33 93 fb 20 35 47 23 28 34
       5.616266e-08 1.1747376e-07 5.9970733e-07 1.5659053e-07
0000c0 91 84 ad 32 e3 d2 64 35 c6 31 45 34 3f 55 1a 32
       2.0200135e-08 8.52435e-07 1.8365162e-07 8.9833625e-09
0000d0 42 58 d0 33 37 13 ab 34 fc dd 7f 34 55 a1 ec 33
       9.701809e-08 3.1865213e-07 2.3829483e-07 1.10189525e-07
0000e0 a1 38 1e 34 33 7f 1a 33 b5 b8 8a 33 37 ed 90 34
       1.4735498e-07 3.5971606e-08 6.459724e-08 2.6994687e-07
0000f0 e2 26 88 34 0c fc 11 33 cc a7 8d 32 d7 7c 3c 33
       2.5360265e-07 3.398968e-08 1.6490866e-08 4.3885702e-08
000100 79 cc 52 34 74 52 2c 34 57 37 2a 34 2f 93 32 34
       1.9632161e-07 1.6048745e-07 1.5852616e-07 1.6631087e-07
000110 78 d6 e4 33 ad a8 cc 34 0b 02 31 34 b7 63 99 33
       1.0656089e-07 3.812069e-07 1.6485153e-07 7.142756e-08
000120 0e 66 b2 34 fd 29 db 34 ea 36 a9 34 5e e6 40 34
       3.3229338e-07 4.082248e-07 3.1518658e-07 1.79652e-07
000130 d5 48 de 34 f1 74 1d 34 e9 1a a8 34 41 87 94 33
       4.1403715e-07 1.4664307e-07 3.1312018e-07 6.9163896e-08
000140 a1 c0 4a 34 5a 21 24 34 a0 0a 96 34 56 a8 7e 34
       1.8882794e-07 1.5285823e-07 2.7947408e-07 2.3716834e-07
000150 63 6f 12 34 f8 c9 14 34 31 95 14 34 e6 30 8f 34
       1.3637832e-07 1.385705e-07 1.383785e-07 2.6671404e-07
000160 3b bc cd 33 5d fa 24 34 8d f9 a9 33 56 32 d6 33
       9.580295e-08 1.5364772e-07 7.915069e-08 9.9743076e-08
000170 84 0c 23 34 21 e9 87 34 2e ae c5 33 a4 d1 1c 35
       1.5185111e-07 2.5315333e-07 9.2052105e-08 5.8419596e-07
000180 88 60 23 34 a3 c7 ca 34 74 4a 45 34 e3 93 2f 34
       1.5215676e-07 3.7770687e-07 1.837414e-07 1.6351946e-07
000190 5b 82 04 34 64 6c 8f 34 00 b2 e6 34 e1 15 be 34
       1.2340881e-07 2.671469e-07 4.297035e-07 3.5406177e-07
0001a0 9d 10 3a 34 a7 c4 48 33 7c 31 1a 34 fc 13 56 34
       1.7328644e-07 4.6744983e-08 1.436037e-07 1.9937573e-07
0001b0 a8 09 6e 34 25 4b 9d 33 e1 05 c9 34 b9 da a7 33
       2.216899e-07 7.324551e-08 3.7443445e-07 7.816329e-08
0001c0 10 33 7a 34 f6 c9 f9 33 83 13 20 34 eb 39 54 34
       2.3301641e-07 1.16317025e-07 1.490826e-07 1.9765109e-07
0001d0 b5 f9 03 35 cf b9 6e 33 43 d8 d6 33 bc 5e 13 34
       4.9164674e-07 5.5582685e-08 1.0004489e-07 1.3724906e-07
0001e0 a8 8c 5e 34 af c8 86 34 e4 bd 98 34 a2 d2 a8 34
       2.0726532e-07 2.5105462e-07 2.845037e-07 3.1445694e-07
0001f0 82 0d 6e 33 4b a5 b6 34 e0 dd 93 33 07 05 4b 34
       5.542598e-08 3.4020408e-07 6.88558e-08 1.8907677e-07
000200 bf 5d dc 33 a6 54 9c 33 86 8a 8f 33 c3 7d 9e 33
       1.02616006e-07 7.2797135e-08 6.684154e-08 7.380324e-08
000210 c9 20 8e 33 0c 80 a1 33 0c 81 dd 33 bf 0d c7 33
       6.618354e-08 7.520438e-08 1.0314588e-07 9.26916e-08
000220 fe e4 c2 33 b8 f5 b2 33 13 bb b7 33 78 f4 bf 33
       9.0754824e-08 8.333467e-08 8.55563e-08 8.938599e-08
000230 ef 72 9f 33 52 bf ba 33 cf e0 b5 33 0c 0f 9d 33
       7.424921e-08 8.696101e-08 8.469362e-08 7.313619e-08
000240 bb 34 9c 33 4e df c4 33 ea 29 b1 33 63 10 9e 33
       7.273908e-08 9.16758e-08 8.249829e-08 7.360429e-08
000250 0a ed ab 33 97 d2 aa 33 36 f5 af 33 9c 15 c7 33
       8.005925e-08 7.954548e-08 8.193676e-08 9.27059e-08
000260 89 8e 8b 33 c3 0f 55 33 48 4f b0 33 c1 4e aa 33
       6.498619e-08 4.9607262e-08 8.21006e-08 7.930567e-08
000270 2f 64 a8 33 e9 49 cf 33 62 e0 9e 33 35 78 d6 33
       7.841333e-08 9.652633e-08 7.398263e-08 9.987017e-08
000280 c8 26 a0 33 12 21 c1 33 5c 2c ec 33 f9 d7 e5 33
       7.457635e-08 8.993278e-08 1.0997675e-07 1.0702929e-07
000290 0f 52 b7 33 65 32 e2 33 01 73 83 33 d2 4f 7a 33
       8.536528e-08 1.0533112e-07 6.121082e-08 5.8280257e-08
0002a0 89 79 df 33 74 ff f4 33 df b7 8b 33 d3 7a a5 33
       1.0406354e-07 1.1408602e-07 6.506138e-08 7.705753e-08
0002b0 45 a6 cd 33 aa 1f d2 33 94 ae bd 33 93 ba d9 33
       9.5763006e-08 9.784647e-08 8.832754e-08 1.01387876e-07
0002c0 bd f5 a1 33 aa 7b 9d 33 c2 48 9c 33 49 cc 9d 33
       7.541846e-08 7.3333766e-08 7.277551e-08 7.3480415e-08
0002d0 7e 86 cd 33 e9 80 8e 33 6c a4 b2 33 df 02 b6 33
       9.5705204e-08 6.635839e-08 8.318679e-08 8.475558e-08
0002e0 cb c9 8e 33 87 57 b5 33 35 2b c9 33 bc f6 ab 33
       6.649096e-08 8.4443904e-08 9.367651e-08 8.007689e-08
0002f0 22 c4 a9 33 33 e8 6a 33 d8 86 ae 33 5b 84 74 33
       7.905352e-08 5.4693555e-08 8.127034e-08 5.6931054e-08
000300 72 87 96 32 76 ac 88 33 f0 e3 34 32 cb e1 db 32
       1.7523892e-08 6.364364e-08 1.0529206e-08 2.5597634e-08
000310 ac e7 64 31 9d db d3 31 25 62 a8 32 b3 03 e5 30
       3.3310057e-09 6.1658754e-09 1.9602405e-08 1.6662994e-09
000320 41 8a 12 31 91 f1 03 32 ad 6d 1b 33 e7 9b 97 32
       2.1324384e-09 7.680129e-09 3.61885e-08 1.764961e-08
000330 ff 3a 86 30 ca 36 e2 31 c0 de 81 31 c4 35 84 32
       9.766551e-10 6.5836945e-09 3.779718e-09 1.5391272e-08
000340 12 41 23 33 4a 7c c0 31 42 9b a2 32 03 ec 38 32
       3.8010576e-08 5.6020655e-09 1.8929885e-08 1.07638725e-08
000350 08 bf c8 32 08 55 f4 32 68 34 02 31 60 6b a9 32
       2.3369935e-08 2.8444006e-08 1.894728e-09 1.9723018e-08
000360 60 81 c8 32 b0 80 da 32 e7 aa 3e 31 82 bb af 31
       2.3341897e-08 2.543706e-08 2.7745786e-09 5.1144875e-09
000370 5d 74 85 33 af 69 11 31 13 7b 98 32 d9 fe d5 32
       6.2144615e-08 2.1160351e-09 1.7751097e-08 2.4912355e-08
000380 f0 ea bd 32 a3 b8 a7 31 77 2d 0a 33 1d 26 97 32
       2.2109333e-08 4.8813305e-09 3.217198e-08 1.7596046e-08
000390 b8 05 06 33 52 3c ff 30 bb 8c 95 32 85 d5 b8 32
       3.1204507e-08 1.8570836e-09 1.740988e-08 2.1517517e-08
0003a0 a3 7c 36 33 e7 62 22 32 cc f0 30 33 6e 0b 38 33
       4.2488534e-08 9.452129e-09 4.1197197e-08 4.2851234e-08
0003b0 a9 e1 0d 33 d7 1f b6 33 98 ee af 32 00 d8 4f 32
       3.3034357e-08 8.480827e-08 2.0481181e-08 1.20980985e-08
0003c0 4e cc 37 31 fd d5 52 32 78 74 da 31 d2 77 2c 32
       2.6746139e-09 1.2272264e-08 6.357876e-09 1.0038962e-08
0003d0 3e 6d 13 32 cb 1a 28 33 9e 29 fb 32 e2 8c 3a 33
       8.581365e-09 3.9139916e-08 2.9239171e-08 4.3434632e-08
0003e0 7a 43 2d 32 d9 47 02 33 97 f2 25 31 b3 d1 a9 31
       1.0085268e-08 3.033333e-08 2.4148556e-09 4.9423874e-09
0003f0 da 4c 3f 30 9b 0f 79 31 48 40 fb 32 95 2d 2a 32
       6.959461e-10 3.624314e-09 2.9249478e-08 9.9056665e-09

exp_avg f4 [16]
000000 fe 75 07 bc ca fc 21 3c 10 4b ea bb e3 e9 21 3b
       -0.008267878 0.00988693 -0.0071500614 0.0024706058
000010 6a 9d 85 bb b9 85 ee 3a 4f fc 24 37 c6 1a 22 bc
       -0.004077603 0.0018197811 9.833907e-06 -0.009894079
000020 7a fa 16 3c 81 1b 11 3b c8 01 98 3b a8 eb a1 ba
       0.009214992 0.0022141638 0.004638884 -0.0012353556
000030 da 62 4a 3b cd cb 7b 3b 9a 6f 61 bb 6e 26 5d 3c
       0.0030881674 0.0038421035 -0.0034398795 0.013497932

exp_avg_sq f4 [16]
000000 27 8d e7 35 a3 ec 48 36 9f 5b ab 35 c6 a8 60 34
       1.7251922e-06 2.9940063e-06 1.2767158e-06 2.0923025e-07
000010 89 f7 e2 34 b6 ac 42 34 0a c0 7a 31 96 00 33 36
       4.2275886e-07 1.813049e-07 3.648895e-09 2.667342e-06
000020 79 b4 1f 36 62 24 bc 34 8b ff 3c 35 2a 4e 5a 33
       2.3797895e-06 3.50442e-07 7.040732e-07 5.082817e-08
000030 bb f7 9c 34 09 81 f1 34 43 72 b0 34 67 d0 a7 36
       2.9237512e-07 4.4983634e-07 3.286569e-07 5.001249e-06

exp_avg f4 [32, 32]
000000 8c 5b 02 bc 21 19 57 bc bb fa 82 bc 70 3f 88 bb
       -0.007956397 -0.01312855 -0.015988698 -0.004157953
000010 87 19 12 bc b3 20 b9 bb 2f a2 ea bb ab 55 66 bb
       -0.008917219 -0.00564965 -0.007160447 -0.0035146277
000020 3e a5 fc bb 40 b7 02 bc 2f 51 18 bc ea c9 2d bc
       -0.007710128 -0.0079782605 -0.009296699 -0.010607222
000030 fe 05 11 bb 73 ea 27 bc f1 08 33 bc f9 4b 58 bc
       -0.0022128816 -0.010248768 -0.010927425 -0.013201707
000040 17 cb 35 ba c5 69 4c bb 00 04 74 bb 94 81 66 b9
       -0.0006934865 -0.0031190973 -0.003723383 -0.00021982781
000050 85 f1 7d ba 12 39 d0 b9 d3 bb 2c ba 52 bb 36 b9
       -0.00096871733 -0.00039715372 -0.0006589267 -0.00017426655
000060 68 7a 2c ba a2 53 38 ba c8 4d 98 ba 84 ee ca ba
       -0.0006579519 -0.0007031505 -0.001161986 -0.001548246
000070 c2 91 a7 b8 2c 65 b6 ba b1 7e e8 ba 91 d5 57 bb
       -7.99033e-05 -0.001391565 -0.0017737952 -0.0032933692
000080 b6 24 a8 3c 7a 29 10 3d e9 67 31 3d cd 36 46 3c
       0.020525318 0.035195805 0.043311987 0.012098026
000090 d6 5c bf 3c 60 45 84 3c 3a 5c a9 3c 32 cf 26 3c
       0.023359697 0.016146362 0.02067386 0.010181235
0000a0 2e bf b8 3c 79 3b ab 3c 74 c5 cf 3c e1 10 e3 3c
       0.0225521 0.020902382 0.025362708 0.02771801
0000b0 56 bb e7 3b 50 b5 e6 3c 69 6f fd 3c 3e 29 16 3d
       0.0070718927 0.028162628 0.030936914 0.036660425
0000c0 b6 87 e6 3a d4 a0 0f 3c 08 ed 1f 3c 81 ad 34 3a
       0.0017588052 0.008766372 0.0097611025 0.0006892309
0000d0 88 88 1f 3b 77 62 9d 3a da 2c f7 3a f1 05 fa 39
       0.0024342854 0.0012007494 0.0018857971 0.00047688143
0000e0 48 d5 01 3b 10 6d fc 3a 69 26 5b 3b 27 9a 85 3b
       0.0019810963 0.0019258577 0.0033439642 0.0040772143
0000f0 0e 82 87 39 91 a1 80 3b 82 f1 98 3b 15 ba 16 3c
       0.00025846105 0.00392551 0.004667462 0.009199639
000100 9c 97 bd b9 72 04 0b ba 5f c6 2d ba 6d 32 49 b9
       -0.00036161847 -0.00053030916 -0.0006628986 -0.00019187639
000110 05 c9 fb b9 87 3e 72 b9 94 33 a6 b9 fc fd 50 b9
       -0.00048024222 -0.00023102212 -0.00031700416 -0.00019931042
000120 e5 45 90 b9 95 ae af b9 ba 12 ff b9 f2 71 02 ba
       -0.00027517896 -0.00033508675 -0.00048651343 -0.00049760856
000130 0f 58 a5 b8 a6 51 08 ba 2e 3d 1a ba 4e 3b 08 ba
       -7.884215e-05 -0.0005200155 -0.000588375 -0.00051968254
000140 43 7b 13 b8 6a 37 f7 b8 69 65 2e b9 f1 59 3c b7
       -3.5162328e-05 -0.000117881995 -0.00016631711 -1.1226614e-05
000150 e9 b7 53 b8 b6 29 8f b7 6c 6a e7 b7 60 5c 15 b7
       -5.04776e-05 -1.7066352e-05 -2.7586902e-05 -8.9026e-06
000160 38 59 c3 b7 d4 6f ef b7 bb 86 50 b8 9c fd 92 b8
       -2.3287357e-05 -2.8543094e-05 -4.9716542e-05 -7.009061e-05
000170 ff bd 1e b6 3c d3 78 b8 1b f6 ac b8 a4 7a fd b8
       -2.3654427e-06 -5.9324535e-05 -8.24744e-05 -0.00012086824
000180 75 87 f8 ba 77 37 5e bb 10 ad 89 bb 77 47 95 ba
       -0.0018961268 -0.0033907571 -0.004201539 -0.0011389096
000190 34 89 16 bb c1 2e b7 ba 5d 0d 09 bb d8 e8 8d ba
       -0.0022969963 -0.0013975726 -0.0020912506 -0.0010826839
0001a0 c5 1a 15 bb 70 e5 ff ba 1f 58 1c bb 77 af 2b bb
       -0.0022751552 -0.0019523334 -0.0023856235 -0.0026197114
0001b0 0b 18 34 ba 80 90 2f bb ee cb 4b bb d6 0d 67 bb
       -0.0006870038 -0.002678901 -0.0031096893 -0.003525605
0001c0 c7 18 2b b9 b0 d5 5c ba 7c 46 72 ba 58 4f 85 b8
       -0.00016317061 -0.0008424176 -0.00092420704 -6.356713e-05
0001d0 a1 68 81 b9 1f 4a d3 b8 70 b4 49 b9 0c cd 5c b8
       -0.00024682752 -0.0001007507 -0.00019236072 -5.2643052e-05
0001e0 32 c1 52 b9 df 7f 3f b9 99 41 a0 b9 c1 8d d4 b9
       -0.00020099132 -0.00018262815 -0.00030566452 -0.00040541406
0001f0 61 28 ce b7 bf 2d c5 b9 ae 43 ee b9 d2 5e 66 ba
       -2.4575917e-05 -0.00037608852 -0.00045445323 -0.0008787933
000200 00 00 00 00 00 00 00 00 00 00 00 00 00 00 00 00
       0.0 0.0 0.0 0.0
000210 00 00 00 00 00 00 00 00 00 00 00 00 00 00 00 00
       0.0 0.0 0.0 0.0
000220 00 00 00 00 00 00 00 00 00 00 00 00 00 00 00 00
       0.0 0.0 0.0 0.0
000230 00 00 00 00 00 00 00 00 00 00 00 00 00 00 00 00
       0.0 0.0 0.0 0.0
000240 00 00 00 00 00 00 00 00 00 00 00 00 00 00 00 00
       0.0 0.0 0.0 0.0
000250 00 00 00 00 00 00 00 00 00 00 00 00 00 00 00 00
       0.0 0.0 0.0 0.0
000260 00 00 00 00 00 00 00 00 00 00 00 00 00 00 00 00
       0.0 0.0 0.0 0.0
000270 00 00 00 00 00 00 00 00 00 00 00 00 00 00 00 00
       0.0 0.0 0.0 0.0
000280 00 00 00 00 00 00 00 00 00 00 00 00 00 00 00 00
       0.0 0.0 0.0 0.0
000290 00 00 00 00 00 00 00 00 00 00 00 00 00 00 00 00
       0.0 0.0 0.0 0.0
0002a0 00 00 00 00 00 00 00 00 00 00 00 00 00 00 00 00
       0.0 0.0 0.0 0.0
0002b0 00 00 00 00 00 00 00 00 00 00 00 00 00 00 00 00
       0.0 0.0 0.0 0.0
0002c0 00 00 00 00 00 00 00 00 00 00 00 00 00 00 00 00
       0.0 0.0 0.0 0.0
0002d0 00 00 00 00 00 00 00 00 00 00 00 00 00 00 00 00
       0.0 0.0 0.0 0.0
0002e0 00 00 00 00 00 00 00 00 00 00 00 00 00 00 00 00
       0.0 0.0 0.0 0.0
0002f0 00 00 00 00 00 00 00 00 00 00 00 00 00 00 00 00
       0.0 0.0 0.0 0.0
000300 66 38 a8 ba 35 60 02 bb bb 1c 2b bb de 93 32 ba
       -0.0012834191 -0.001989377 -0.0026109654 -0.0006812195
000310 fa 8b a2 ba 5a 0f 56 ba 53 7c a3 ba ad 3c 40 ba
       -0.0012401335 -0.000816574 -0.0012472965 -0.000733326
000320 8a d6 ac ba c5 29 85 ba f1 74 b7 ba 66 15 d1 ba
       -0.0013186496 -0.0010159543 -0.0013996643 -0.0015951812
000330 2a d0 cc b9 d6 f9 c2 ba 2a cb ff ba d6 c3 0c bb
       -0.00039065006 -0.0014875482 -0.0019515504 -0.0021479032
000340 e7 be f8 b8 4f aa f2 b9 53 c2 1b ba 41 e0 1a b8
       -0.0001186112 -0.00046284727 -0.00059417373 -3.6925314e-05
000350 05 de 1f b9 b3 be 69 b8 f2 2c e3 b8 98 fc 24 b8
       -0.0001524613 -5.572913e-05 -0.00010832575 -3.9335893e-05
000360 b7 f2 dc b8 56 29 c2 b8 91 8c 2c b9 ea 50 79 b9
       -0.00010535627 -9.25834e-05 -0.00016455563 -0.00023776633
000370 8e 24 58 b7 2e 7a 4b b9 22 68 96 b9 92 2a 01 ba
       -1.2883114e-05 -0.00019405104 -0.00028687814 -0.0004927303
000380 00 00 00 00 00 00 00 00 00 00 00 00 00 00 00 00
       0.0 0.0 0.0 0.0
000390 00 00 00 00 00 00 00 00 00 00 00 00 00 00 00 00
       0.0 0.0 0.0 0.0
0003a0 00 00 00 00 00 00 00 00 00 00 00 00 00 00 00 00
       0.0 0.0 0.0 0.0
0003b0 00 00 00 00 00 00 00 00 00 00 00 00 00 00 00 00
       0.0 0.0 0.0 0.0
0003c0 00 00 00 00 00 00 00 00 00 00 00 00 00 00 00 00
       0.0 0.0 0.0 0.0
0003d0 00 00 00 00 00 00 00 00 00 00 00 00 00 00 00 00
       0.0 0.0 0.0 0.0
0003e0 00 00 00 00 00 00 00 00 00 00 00 00 00 00 00 00
       0.0 0.0 0.0 0.0
0003f0 00 00 00 00 00 00 00 00 00 00 00 00 00 00 00 00
       0.0 0.0 0.0 0.0
