tests/_logs/test_fit/multitask/checkpoints/epoch=0-step=6-v5.ckpt (torch, 36713 bytes, 18 tensors)

convnet.module.0.weight f4 [16, 4, 16]
00000000: 5176 fe3d e4b1 b8bb 2ca7 8ebc b83a b23d
00000010: 5add 013e 2aea 13bd 46f8 83bc f3e7 823d
00000020: adc7 aebb d1ba 75bd 09fe dcbd b11a 6abd
00000030: 9bea 0a3d adee b53d 824b 023e a613 4ebd
00000040: 070e 81bc b0f9 30bd 89e2 853d 5c88 a0bd
00000050: 36ff fd3d b068 d6bd 24e8 9e3d 1ec4 7bbc
00000060: 6aad 953d 94fa b53d 29aa f43d 60ca efbc
00000070: 7922 9cbd b2f0 c33d c23b 423d 7b42 e33c
00000080: 17b1 71bd 8e83 e73d 7a1f 653d 3e32 5e3c
00000090: bc2a 77bd 1f51 2f3d 7f45 b2bd c51f 133d
000000a0: e7fc c4bd 474e aabc 20c4 b6bc 8f11 cdbc
000000b0: 6dd0 d6bd 3e5b e3bd d60b d0bc 0f7b e03c
000000c0: d26f c13d 0bf9 fb3d f241 1e3d 8ab5 d4bd
000000d0: 1071 f0bd fa0f 31bd c91b 7cbd f23c a13c
000000e0: 68f1 0fbd c3d0 94bd 9a55 c2bd 3a45 183d
000000f0: 08d7 e03d 460d 72bd d9ac e0bd d011 f63d
00000100: f63e a6bd 8944 953d 6a04 e63c c735 c43d
00000110: f336 4fbd c070 7e3d 31bd 953d d5a9 943d
00000120: 40aa babd 0056 203d 16d5 933d b721 c8bd
00000130: d175 833d c186 1b3d faf8 b2bc 48c6 06bb
00000140: 107d 283d c74f d1bd 9e70 f0bc c723 adbd
00000150: 8e49 17bd 5b91 89bd ab84 46bd c0da cf3d
00000160: 1f24 c73d 538b b93d 99ed c43d 6592 a3bd
00000170: 0da0 d6bd 1ff1 c13b 6868 bbbd 7c0d ef3d
00000180: ad75 bc3d 6686 083d b3dc 243d 7e3d 5fbd
00000190: 30fa ce3b 4b51 673c 1476 173d 362d 073d
000001a0: ef22 fc3d 0d7e 46bd 8a59 933d 2280 ae3c
000001b0: d83c c6bd c810 8b3d 4bf4 cd3d 47dd 033e
000001c0: cb0b 063d 6418 97bc 220a 47bd 1293 c63d
000001d0: 04dc a8bd e202 92bd 3942 f23d c089 8e39
000001e0: 97b8 903d eae2 b53c 981f 0dbd 7d8d b33c
000001f0: d388 9e3d 6b28 24ba 45ab 5ebc 9cec e6bc
00000200: dd0f 00be 6800 013d 44e1 1fbd 36e7 dbbd
00000210: 06d2 d73d 1004 6d3d 524c cd3b d4bd 7fbd
00000220: 0f42 70bc 2238 a93d 361c 23bd 6826 853d
00000230: bdef 1bbb 8661 e93d 938a fcbd 96f6 2e3d
00000240: b9fa 00be 465b f53d f182 543d 5e21 cf3d
00000250: dd6c db3c 7500 033e 2563 023e 90dc 0dbc
00000260: b054 d83d 857e 0a3d 1891 d5bd 4ad4 7c3d
00000270: 3b9a d03c 8bad 963d 0f31 003d 0ca7 253c
00000280: d376 92bd 4ed8 263d 09a7 04bd f358 3a3d
00000290: 6192 013e f0fd f33d 25ed b43c e182 20bc
000002a0: fa1b b9bc 2638 d13d 226a 873d 60c8 58bb
000002b0: 8339 fa3d ff5d 5a3c d7ce f73d 896f b2bd
000002c0: 0fb4 31bc d375 003e 36ac fe3d dd54 053d
000002d0: b59f 27bd 9073 74bd 5ff8 633c a1c2 ee3c
000002e0: 4def d9bd cb2b 743d affd a43d 6600 ea3d
000002f0: 56c9 b9bb 7438 fcbd ecd8 d2bc 398b be3b
00000300: 44a5 e8bc d5e0 dc3d a4e7 3abd ae67 a2ba
00000310: 3623 b4bd 5af4 353c c68c 2bbd 3c1c 94bd
00000320: f7cd ca3d 35d1 6b3d b03d bfbd ed5c e2bd
00000330: d807 ac3d 043e 0c3d 927c 9e3c be66 823d
00000340: 6502 8d3c 9ada a93d a6d2 3c3d f358 b03d
00000350: 483e b1bd d9d4 d6bd b42a 7dbd 46d8 ba3d
00000360: 9e97 893c 2fe3 013e e22f c63d 720e 003d
00000370: 58df 243d 8cb4 a33d b91e 4e3c e8a6 a93d
00000380: be58 383d 6d0b e4bd 8aea 833d 4065 b93d
00000390: 91f3 c2bc 0bbc 6c3d e37f 2bbd bc5f 6e3d
000003a0: f69f dfbd f540 0e3d 124e 84bc 738c 983d
000003b0: 79d6 f33d 35b0 1bbc b960 be3c b541 063c
000003c0: b013 43bc a4dc 27bd 25d3 913c eb35 bbbd
000003d0: d67b b4bd ccbb 31bd 256f 81bd 3c3a 963d
000003e0: 4721 88bc 9b8f f73d c75f 9b3d db7f 093d
000003f0: 2227 51bc ec0f 8b3d a00f ec3b 49e3 5d3d
0.12424911 -0.0056364406 -0.017413698 0.08702606 0.12682095 -0.036111988 -0.016109597 0.06391897
-0.005333862 -0.059992615 -0.10790641 -0.05715436 0.033915143 0.088834144 0.12724116 -0.050311707
-0.01575376 -0.04320687 0.06537349 -0.078385085 0.12402193 -0.10469186 0.07759121 -0.015366582
0.07308467 0.088856846 0.11946518 -0.029271305 -0.07623763 0.09567393 0.04742027 0.027741661
-0.059006777 0.11304389 0.05593822 0.013561783 -0.06034349 0.042801972 -0.087046616 0.03591897
-0.0961855 -0.020789279 -0.022310317 -0.025032787 -0.10488973 -0.111013874 -0.025396269 0.027402429
0.09445156 0.123033606 0.03863711 -0.10386188 -0.11740315 -0.043228127 -0.061549935 0.019682381
-0.035142332 -0.07266381 -0.094889835 0.037175395 0.10978514 -0.05909469 -0.10970468 0.12015116
-0.081174776 0.07288463 0.028078277 0.0958057 -0.050589513 0.062119246 0.07311476 0.072589554
-0.09114504 0.039144516 0.07218377 -0.097720556 0.06418956 0.03797031 -0.021847237 -0.0020564962
0.041134894 -0.102202944 -0.029350575 -0.084540896 -0.03693538 -0.067171775 -0.048466366 0.10149145
0.097236864 0.09059777 0.09615631 -0.07986907 -0.10479746 0.0059186365 -0.09150773 0.11672494
0.092021324 0.033331297 0.040249538 -0.054502003 0.006316446 0.014118503 0.036977842 0.0330021
0.123113506 -0.048460055 0.071948126 0.021301333 -0.09679574 0.0679031 0.10056361 0.1287738
0.03272609 -0.018444248 -0.048593648 0.0969602 -0.0824509 -0.07129456 0.11829037 0.00027186982
0.07066458 0.022202928 -0.03445396 0.021918053 0.07740941 -0.0006262126 -0.0135906385 -0.028188996
-0.12506051 0.031494528 -0.03903319 -0.10737459 0.10538106 0.057865202 0.0062652016 -0.062436894
-0.014664187 0.082626596 -0.039821826 0.06501466 -0.0023794018 0.11395554 -0.123311184 0.04271563
-0.12595643 0.119803 0.051882688 0.10113786 0.026785308 0.12793143 0.12733133 -0.008658543
0.10563028 0.033812065 -0.10428065 0.061725892 0.025464168 0.073573194 0.031296786 0.010110628
-0.0715157 0.040733628 -0.03238586 0.045494985 0.12653495 0.11913669 0.022085736 -0.009796829
-0.022596348 0.102157876 0.0661204 -0.0033078417 0.12218001 0.0133280745 0.120999984 -0.0871268
-0.010846152 0.12544946 0.124351904 0.032551635 -0.040923793 -0.05968052 0.013914197 0.02914554
-0.10641346 0.059612077 0.08056199 0.11425857 -0.005669753 -0.12315455 -0.025738202 0.0058149365
-0.028399117 0.10785071 -0.045631066 -0.0012390518 -0.087957785 0.011105621 -0.0418823 -0.07231948
0.09902566 0.057572562 -0.09337938 -0.110528804 0.083999336 0.03423883 0.01934651 0.06367253
0.017213056 0.08293648 0.046099328 0.08610716 -0.08654457 -0.10489816 -0.061808303 0.09123282
0.01679593 0.1268432 0.09677102 0.031263776 0.04025206 0.07993421 0.012580567 0.08283788
0.045006506 -0.11134992 0.06441219 0.09052515 -0.023797782 0.05779652 -0.04187001 0.05819677
-0.10919182 0.034729917 -0.016150508 0.074486636 0.11906142 -0.00950246 0.02323948 0.008194377
-0.011906549 -0.040981904 0.017800877 -0.091411434 -0.08812682 -0.043391988 -0.06320027 0.07335326
-0.01661743 0.120879374 0.075866275 0.033569198 -0.012765678 0.06790146 0.007204011 0.054171834

convnet.module.0.bias f4 [16]
00000000: 7988 1cbc c345 e43c 7661 d13b 4c29 9fbd
00000010: abea d8bd 806b 983d de1d f03d ed96 30bb
00000020: 012c aabd ed16 a2bb e123 20bd ddd6 9f3d
00000030: c4d5 f53d 8d5f 913d 77c4 9b3d 48cb 153d
-0.009554022 0.027865296 0.006389792 -0.07771549 -0.10591634 0.07442379 0.11724447 -0.0026945428
-0.08309174 -0.0049465806 -0.039096717 0.07804654 0.12003663 0.07098303 0.07605832 0.036570817

fcn.module.0.weight f4 [32, 32]
00000000: f03c 5fb9 ac22 9439 b4c7 373e 4ffc 2f3e
00000010: 206f 12be 1dbf 1ebe b9c5 ad3d 2709 9f3d
00000020: 5451 103e d5cd 1e3e e98b 1a3e ff75 4abd
00000030: 2a6f ab3d 425c c4bd 252e ecbd ae97 d7bc
00000040: 30f5 523d d3c9 0c3e bfd2 babd 8f7b d3bd
00000050: 11c9 1dbe 4342 273c bfe0 8b3d 7401 d4bd
00000060: e0ea bfbd 22de 2f3d 9259 2a3e dc31 21bc
00000070: 9832 883a 4e3d 953d cba2 26be 7d49 a63d
00000080: e3e0 26be be9c f93d ae23 15be f7b8 e13d
00000090: b35b 82bd 87e2 bfbc 3366 5fbc 0a04 203e
000000a0: a76f 0abe f782 aa3c 0b89 05bc 3ec4 183d
000000b0: a865 313e c5aa 723d 9930 17be dfa9 b53d
000000c0: 98da 19bd 1285 2bbe f990 0a3e 2699 dd3d
000000d0: 4db5 32be 9d24 f6bd a136 203e aa86 a4bd
000000e0: a956 0a3e 32e0 2f3e be84 2d3e 6e98 0f3e
000000f0: 14c6 2b3e 1c0e 843d 7586 a13d 4219 e339
00000100: 8bd9 08bc 3a2c 04be cd97 cfbd 2da5 063e
00000110: 6e0f 96bd e5fa 8e3d b149 073e 29a9 5a3d
00000120: f8eb a7bd d819 283e 6395 2ebe 5111 68bd
00000130: 471b fd3d 741a 903d 07ca bfbd de8b 34be
00000140: 2cbd df3d ee65 e03c acf6 253e a168 bcbd
00000150: e03f 1ebd b024 19be c667 39be d4fb 0f3e
00000160: a309 f3bc 642f 973d 7255 22be 699d 0c3d
00000170: 27eb 1cbc a97f f53d 9f35 c9bd befb 66bd
00000180: e62b 93bd 0dcb 82bc 2509 16be 0677 04be
00000190: 9af9 b43d 7311 043e 18ea 4fbd 0ef3 d33d
000001a0: c8fe 93bc d65b fc3d bee6 c9bd d419 e83b
000001b0: 7079 d63d 3e95 b1bd 0cca 08be e2cd 97bc
000001c0: 4b42 133e 6292 a2bd f730 21be 926c 7f3d
000001d0: 1f4e 13be b7e1 99bc 279f 31be 3c6b d73d
000001e0: 9e85 abbd 7e7d 34be 94ac f43d fded 413d
000001f0: 8acc 01bd 6fcd 4fbd 81ae e9bd 5e6a 69bd
00000200: a88b d13d 59e1 1ebe 472b 10be 0ce4 673d
00000210: 8362 da3d 371b a83d 9efd 303e 07e9 25bd
00000220: e66e f13c 67ca e53c caab 0ebd 505a 343c
00000230: f1d3 1c3e 62c5 1abe 40e5 29bd e000 bf3b
00000240: ca69 a63d f0d6 26be 9900 f5bd 49e2 01bd
00000250: d617 7ebd 35ca 00be f3aa a33d 15de 8abd
00000260: 6ba6 243e 9335 acbd 40f5 cd3d d8a7 db3d
00000270: 8700 253e c272 55bd 59ae d4bd 49ca 8f3d
00000280: 4cf3 d63c a873 2ebd 48dd 6ebd 3328 0b3e
00000290: 7423 59bb 20d4 0a3e 7f7b 6f3d 5745 11be
000002a0: bf8a 823d f177 d03d 94ab df3d b492 f13b
000002b0: 2abe c0bc 342c 15be 048a 493c f5da 6bbc
000002c0: 9e06 c7bb efd8 8e3d d4e7 20bd caea 4fbd
000002d0: ac4a 4ebc 867d 06be e9e4 ed3c d8a3 263e
000002e0: eee1 aabd 2d04 033e 8e84 133d 9dfb 84bd
000002f0: 3ce8 a83d b0e8 11bb f4b5 bfbd e29d a53d
00000300: 7d16 eabd 5f35 dabd 7d09 f73c f3d2 093e
00000310: 8776 8c3d c8d7 04be 008a 673d 1547 8cbd
00000320: 63ed 24be 3500 293e 72d0 c6bd d0b9 a93d
00000330: 2761 0dbe c177 a6bd 5c7d 333e c72e e73c
00000340: 683e 9cbc 8800 f33d 01a0 ba3c f648 2abd
00000350: 7b82 143e 7177 f1bd c68c 0ebe 8808 10be
00000360: 2b5e c83d 70b3 88bd 8351 21be 7552 2ebe
00000370: c2b9 f73d 09da 103c 47d8 ff3d 9211 f0bd
00000380: 416f c73d 2584 113e f552 0a3e fe62 1cbe
00000390: 5477 df3d 5cbc 383e f0e3 f33d 6566 92bd
000003a0: fe99 333e 4301 ce3d 7a39 143d 8a3e af3c
000003b0: b626 afbd 0ce6 c4bd 61ac ee3d 8f4c b43c
000003c0: 7f61 26be c0c5 d13d a09d 383e fd08 013e
000003d0: 9e76 4abd c054 4fbd 52d7 133e e851 adbd
000003e0: 841f 683d 80a8 5b3d d6cd e5bd a3cc 28be
000003f0: 6583 353e 25a8 a63d c900 db3c 4cfa eb3d
-0.00021289638 0.00028254592 0.17947274 0.17186092 -0.14300203 -0.15502591 0.08484978 0.077654175
0.14093524 0.15508206 0.15092434 -0.049428936 0.08370812 -0.09587909 -0.11532239 -0.026317444
0.05150336 0.13748865 -0.09122228 -0.10326301 -0.15408732 0.010208669 0.06829976 -0.1035184
-0.09370971 0.04293645 0.16635731 -0.009838548 0.0010391055 0.072870836 -0.16273038 0.081194855
-0.16296725 0.12188099 -0.14564392 0.11021607 -0.063651465 -0.023423446 -0.013635206 0.15626541
-0.13519154 0.020814402 -0.008150349 0.037296526 0.17323935 0.05924489 -0.14764632 0.08870291
-0.037561983 -0.16749981 0.13531865 0.10820226 -0.17451973 -0.12018702 0.1564584 -0.08033498
0.1350962 0.17175367 0.16945168 0.14022991 0.1677478 0.06448004 0.07886974 0.00043315633
-0.008352648 -0.12907496 -0.101363756 0.13148947 -0.07327162 0.06981448 0.13211705 0.05338398
-0.08199304 0.16416109 -0.17049174 -0.05665714 0.12358718 0.070362955 -0.093647055 -0.1763148
0.109247535 0.027392354 0.16207379 -0.09199644 -0.038635135 -0.14955401 -0.18105993 0.14060909
-0.029667681 0.07382086 -0.15852907 0.034329806 -0.009577549 0.1198724 -0.098246805 -0.056392424
-0.07186107 -0.015965963 -0.14651926 -0.12936029 0.0883667 0.12897281 -0.05076036 0.103490934
-0.018065825 0.12322204 -0.09858464 0.007083157 0.10472381 -0.08671044 -0.13358325 -0.01853079
0.14380758 -0.079380766 -0.15741335 0.0623594 -0.1438527 -0.018784387 -0.17345868 0.105185
-0.08375095 -0.17625996 0.11946979 0.047346104 -0.031689204 -0.050733026 -0.11410237 -0.056986205
0.102317154 -0.15515651 -0.14079009 0.056613967 0.10663321 0.08208316 0.17284247 -0.040505435
0.029471826 0.028050615 -0.0348318 0.01100786 0.15315224 -0.15114358 -0.041478395 0.0058289617
0.081256464 -0.1629293 -0.119630046 -0.031709943 -0.06203445 -0.12577136 0.0799159 -0.0678064
0.16079108 -0.08408656 0.10056543 0.10725373 0.16113482 -0.052111395 -0.10384817 0.07021005
0.02623906 -0.042590767 -0.0583165 0.13589554 -0.0033132704 0.13557482 0.058467384 -0.14186607
0.0637412 0.10179127 0.10921398 0.0073722247 -0.023528177 -0.14567643 0.012300972 -0.014395465
-0.006073787 0.069749705 -0.03928359 -0.05076102 -0.012591045 -0.13133821 0.029039817 0.16273439
-0.08343874 0.12794562 0.036015086 -0.06493304 0.0824742 -0.0022263937 -0.09360877 0.080867544
-0.114300705 -0.10654711 0.030155892 0.13459377 0.06858545 -0.12972939 0.05652809 -0.06849495
-0.16106181 0.16503985 -0.097077265 0.08287394 -0.13806592 -0.0812831 0.1752829 0.028220547
-0.019072726 0.11865336 0.022781374 -0.041573487 0.145029 -0.1179036 -0.13920888 -0.14065754
0.09783586 -0.0667485 -0.1575375 -0.17023642 0.12095977 0.008841046 0.124924235 -0.11722101
0.09738017 0.14210565 0.13508208 -0.15272138 0.10911432 0.18040603 0.1190871 -0.071484365
0.17539212 0.100588344 0.036187626 0.021392126 -0.085523054 -0.096141905 0.116539724 0.022009162
-0.1624813 0.10242796 0.18028879 0.12601085 -0.04942953 -0.050617933 0.14437607 -0.08462888
0.05667068 0.05362749 -0.11220901 -0.16484313 0.17725904 0.0813754 0.026733773 0.1152235

fcn.module.0.bias f4 [32]
00000000: 0e98 57bd 1de3 82bd 50de f03d ae09 97bd
00000010: 21c3 5bbb 1cb1 10be 87dd 08be 5b13 d3bd
00000020: 5d60 88bc 4903 e7bc f13c 09be ffe2 b43d
00000030: fe1b f73d 2ed9 063e e712 e33d 998f f2bd
00000040: 4e3a 58bd 8904 fa3c 0f57 26be 8f9a 86bc
00000050: 9aff f73d 90da bc3c a364 f63d 0765 e1bd
00000060: 62c0 f33d f17b cabd c5d1 e83d 11ee 31be
00000070: 0bbf a43d 5328 463d fd4d 04be 06f1 483d
-0.052635245 -0.06390975 0.11761153 -0.07374893 -0.0033533054 -0.14130062 -0.13365756 -0.10306426
-0.016647512 -0.028199809 -0.13402154 0.088323586 0.12065886 0.13168785 0.1108759 -0.11843795
-0.05278998 0.03051974 -0.16244148 -0.016431121 0.12109299 0.023053437 0.12030914 -0.110055976
0.119019285 -0.09886921 0.11368135 -0.17375971 0.08044251 0.0483783 -0.12920375 0.049057983

fcn.module.3.weight f4 [10, 32]
00000000: 8aa2 22bd d7e6 123d 0780 48bc 1039 d13d
00000010: c03b 1abe 6aba 78bc 68fc ce3d c398 473d
00000020: f657 f13d e268 89bd 010b 1f3e 2265 223e
00000030: f3e8 c23c f455 633c 4d22 a0bc ac8e bfbd
00000040: c272 f53c 2d7a 0bbe 5de7 d83d aa4a 92bd
00000050: 30df f73d b181 e8bd 97bc 8bbd 1c1c e5bd
00000060: 53cb af3d 4f49 273e 0cbd 973c 619f 36bd
00000070: 2997 ce3d 4a87 ce3d b8f7 78bd b731 a03d
00000080: 6d49 343e c24a 0e3d 5715 14bd 9a06 a1bd
00000090: a545 1ebe cf45 093d d49a 25be c8ec 65bd
000000a0: 5f38 6f3d 72c7 babd db7c ea3c 5337 18be
000000b0: 4f27 d23d 5d3d c53d 9bcf 3dbd 4862 963d
000000c0: 870f 133e 8702 143e 10ed 2d3e 7f6b cdbc
000000d0: 9397 ccbc 20fd 17bd 8b25 1bbe 7e06 c93d
000000e0: 5e73 fbbb 7c13 75bd e358 8ebd 82e0 e5bd
000000f0: 7ed0 bebd 3baa 13be 401e 23be 3452 ecbc
00000100: 523d 9b3d 18f5 adbb bae5 bf3d f312 8dbd
00000110: cd82 3f3d 71a2 6cbc c4aa d7bd f53b d93d
00000120: b098 6ebd 1bee 453d ed7a 39bc 4b24 c6bd
00000130: 1a24 9f3d 3632 bfbd f71c 043e 183d 55bd
00000140: 64be dfbd 3917 25be ba04 03bd 24a9 36bb
00000150: 3824 d6bb 5292 833d 7651 283e 70f0 9e3d
00000160: c789 153e c5b6 2fbe 1f39 283e 32ab 593c
00000170: d847 65bc b03f 9b3d f726 47bd 23cf 4cbd
00000180: b16f f33d b40a 8dbd cd4d 383e bfe9 c1bd
00000190: b667 31bd 9be7 363e 952a 2e3e c3c6 b93d
000001a0: 54e1 133e 2e63 013e 5bf3 93bd 079a c63d
000001b0: 5c1f 24be 2014 29be 309b f63d ffa7 643d
000001c0: 7353 8e3d 9e72 643d 0f04 893d d040 26be
000001d0: dcba fdbd 3915 313e 2c86 85bc 59b4 ae3d
000001e0: 2540 20be 8864 b33d e038 18be 9873 22be
000001f0: 69ee 2abe f359 c93d d38f 03be 03c1 f4bd
00000200: 99e8 07bd 7fb3 c4bd 3535 d9bd d977 0b3e
00000210: b8cb c63d e2de cebd 89d2 963d 8ef2 00bd
00000220: 8136 ddbc 64b2 6abd f6c9 c93d 6a87 28ba
00000230: 0c4d ad3d 4b48 a0bd 092f 8fbd f80b 283e
00000240: 6c9f 543d 2238 a43d 4a70 01bd f9e7 73bd
00000250: 9c83 25be bfc5 413d c908 cc3d 7aa0 ea39
00000260: 32f6 133e eb59 32be 2633 debd 0638 92bd
00000270: 2504 f93d 823a cb3d 04cf 44bd 22af 213e
00000280: 02a2 40bd c31d 95bd 0df3 853d 9f21 f03d
00000290: e214 003e 3eb5 dabd 980f 0c3d 79cd 343e
000002a0: d117 7f3d c1f7 21be 7fd3 1cbe 1f7f 3ebc
000002b0: 9aea 4d3d f2e8 c53d 9442 a9bd 8706 843d
000002c0: 8100 5abc 3bee cebb 2e29 23bd 2756 993d
000002d0: e1cb 50bc 0c69 c63c ae72 fdbd f05c 87bd
000002e0: eee2 9abd 4144 68bd 78f6 d7bc 41fd 39bd
000002f0: 4676 a6bd 645e 7e3d 73cd 393e ff6d 2a3e
00000300: 8616 10bd 2310 c83d 6ca6 cdbd c6db 103d
00000310: eaee 79bd 0852 7a3d 81a6 9fbd 4ca3 043e
00000320: 3f1b 213e 418a e7bd 2a21 23be 407a 01bc
00000330: 03b8 e53d 6628 653d c7e3 eb3d 9e2d b3bd
00000340: 2115 093e 2140 21be 52d3 a93d 51dd aebc
00000350: c6c8 85bd 85c3 24be 1ffd 873d 2a66 03be
00000360: f09e 0a3e a499 e33c e6b4 003d cd15 cc3d
00000370: 2f45 fa3d 4a06 083e 1934 9a3d 5f49 0e3e
00000380: e2ad 19be f607 1b3e dc62 25be 0088 99bd
00000390: 979b c73d a0ef a7bd 9b9c 0a3d ccaf 9ebd
000003a0: 84ce a1bd 36f5 973d 3844 273e c50b 43bd
000003b0: 6a89 11be bf05 263e 653f 563d 1671 353e
000003c0: ace6 353e fa8d cb3d 03c2 003e f69f edbd
000003d0: 16ce 2d3e 844d aabd 10be e33d 3cb1 32be
000003e0: 610a 173c 99cf e6bd c9a0 e2bc 7edb 153e
000003f0: 5eb6 6e3d d650 ef3c 2c0a 0c3e 3d6c 063e
-0.03970579 0.035864677 -0.012237555 0.10215962 -0.15061855 -0.015181163 0.101067364 0.04872967
0.11784355 -0.06709458 0.15531541 0.15858892 0.02379272 0.013875473 -0.019547606 -0.093533844
0.029961947 -0.13620825 0.10591004 -0.07143147 0.121031165 -0.11352862 -0.0682308 -0.11187002
0.08583703 0.16336559 0.018522762 -0.04458559 0.10087425 0.10084398 -0.060783118 0.07821982
0.17606135 0.034739263 -0.036153164 -0.07862587 -0.15456255 0.03351384 -0.16172343 -0.056134015
0.05840337 -0.091200724 0.028623989 -0.14864855 0.10261404 0.09630845 -0.046340566 0.073429644
0.14361392 0.14454089 0.16984963 -0.025075672 -0.02497462 -0.037106633 -0.1515104 0.098156914
-0.007673665 -0.059833035 -0.069505475 -0.11224462 -0.093171105 -0.14420407 -0.15929508 -0.028847791
0.07580055 -0.0053087585 0.09369989 -0.0688838 0.0467556 -0.014443026 -0.10530618 0.10607139
-0.058251083 0.04832278 -0.011320812 -0.09674891 0.07770558 -0.09335749 0.12901674 -0.052060217
-0.10924986 -0.1612214 -0.03198693 -0.0027871812 -0.0065350793 0.06424393 0.16437325 0.077607036
0.14603339 -0.17159565 0.1642804 0.013285445 -0.01399418 0.07580507 -0.048621144 -0.05000223
0.11886538 -0.06886807 0.17998429 -0.09468412 -0.043311797 0.17861788 0.17008431 0.09071114
0.14441425 0.1263549 -0.07224151 0.09697347 -0.16027588 -0.16511583 0.120413184 0.055824276
0.069495104 0.05577337 0.06690227 -0.16235662 -0.12389156 0.17293252 -0.01629933 0.08530492
-0.15649469 0.08759409 -0.14865446 -0.15864408 -0.16692509 0.098316096 -0.12847833 -0.119508766
-0.033180807 -0.09604549 -0.106058516 0.13619937 0.09706825 -0.10101105 0.07364375 -0.03148132
-0.027003529 -0.057299033 0.09852974 -0.00064288697 0.08461961 -0.07826289 -0.06991393 0.16410816
0.05190985 0.08018519 -0.031601228 -0.0595474 -0.16163486 0.047307726 0.09962613 0.00044751522
0.14449385 -0.17417113 -0.108495995 -0.07139592 0.12158994 0.09923269 -0.048048988 0.15789464
-0.047029503 -0.07281067 0.06540499 0.11725163 0.12507966 -0.106791005 0.03419456 0.17656507
0.062278572 -0.15817167 -0.15315054 -0.011626988 0.05027256 0.096635714 -0.08264652 0.064465575
-0.013305784 -0.0063150204 -0.039834194 0.074871354 -0.012743921 0.024220012 -0.12375389 -0.06609523
-0.07562815 -0.056705717 -0.026362643 -0.045407537 -0.081280276 0.062101737 0.18144779 0.16643523
-0.03517773 0.09768703 -0.10041508 0.035365842 -0.06101886 0.061113387 -0.0779543 0.12952918
0.1573305 -0.11305667 -0.1593062 -0.007902682 0.11216738 0.05594673 0.115180545 -0.08748935
0.13386966 -0.1574712 0.08292259 -0.021345766 -0.06532435 -0.1609021 0.06640076 -0.12831941
0.13537192 0.027783222 0.03142252 0.09965096 0.12220227 0.13283649 0.07529468 0.13895176
-0.15007737 0.15139756 -0.16150993 -0.07496643 0.09746473 -0.08200002 0.033840757 -0.07748374
-0.07900718 0.07419817 0.16334617 -0.047618646 -0.14212576 0.1621313 0.05230655 0.1771892
0.17763776 0.09939189 0.1257401 -0.11602776 0.16973147 -0.08315566 0.11120236 -0.17450422
0.009218783 -0.11270065 -0.027664559 0.14634511 0.058279388 0.02921335 0.13675755 0.13127227

fcn.module.3.bias f4 [10]
00000000: ccc4 d8bd 1c9a f539 86fc 953d 8719 2b3d
00000010: 1b42 073e ce5f 853d 6e74 213e 3906 22be
00000020: a121 0fbd 2ce9 5a3c
-0.10584411 0.00046844862 0.07323556 0.04177239 0.13208811 0.06512414 0.1576707 -0.15822686
-0.03494418 0.013361257

exp_avg f4 [16, 4, 16]
00000000: d9f1 1abb 6e4c 54ba 260f 94ba c412 2cbb
00000010: 0445 30bb 20c3 d6ba 9ae2 c8ba 8ec8 0dbb
00000020: 7f3c c8ba 6ca8 67ba 41a2 26ba 71d0 85ba
00000030: 6202 daba 727f 17bb 30e4 4fbb 1846 5fba
00000040: ea03 44ba 2ed2 31ba 26d8 f6ba c90a 79ba
00000050: 040c 32bb 74d4 1fba 33e8 51bb 8f1d 92ba
00000060: c07a 39bb 74f6 2fbb 0095 61bb 85f9 d9ba
00000070: 52d5 4dba 95ed 2abb e410 deba bda9 c5ba
00000080: 6e5d 5bba 624a 23bb 6eba f9ba 989b 03bb
00000090: 890c 26ba 58b4 32bb c6b4 7bba 35c5 c8ba
000000a0: f27d 79ba dedc deba 6c49 b7ba 4bdb cdba
000000b0: 5481 29ba 312d 3dba 8dc1 70ba 530a c2ba
000000c0: 2437 25bb 4a2f 23bb ee60 cbba 1641 68ba
000000d0: 4269 e1b9 9cec c3ba 88ea 4aba c88e d9ba
000000e0: b311 98ba ad64 9dba 1a3e 82ba b42e 11bb
000000f0: 7b2a 5dbb fd23 59ba 3591 33ba c555 2cbb
00000100: 8107 1bba aa04 bcba e5ec 9bba 02ad a6ba
00000110: 2002 81ba 1384 edba ee81 9fba fbe7 63ba
00000120: beb5 d0b9 18b3 5aba 08f1 81ba 0b5f 0dba
00000130: 3a6b c8ba 564b 75ba d033 23ba ce5f 1fba
00000140: 15ad 8bba 468b c8b9 5bf9 99ba 63e8 1bba
00000150: d18e a8ba 143f 09ba 397d d3b9 eb5e b6ba
00000160: 1484 75ba da1c e0ba 9cfc b9ba 2782 2eba
00000170: d268 d6b9 9a38 83ba 9e64 4fba 467f 83ba
00000180: e5cc c4ba a84c 9fba b2eb 67ba 2e06 fab9
00000190: d146 97ba 2172 68ba f04e 50ba 983e 5aba
000001a0: 1f91 d5ba ae20 03ba b965 92ba 2960 c7ba
000001b0: 8cbc 27ba 6f46 a9ba 562d cfba 0808 d9ba
000001c0: 434d 63ba 3930 82ba 8990 4bba 9c81 dcba
000001d0: 3799 1dba 648f 52ba a81b d3ba 4e64 74ba
000001e0: c523 8bba a19d 80ba ffa1 02ba 9d53 aaba
000001f0: aac0 bdba 52ff 50ba ce2a 87ba 4fda 46ba
00000200: 82c9 deb7 ccd7 1639 2203 3c38 999e 0239
00000210: dfd0 6cb9 8daf 80b8 0d91 9437 6851 a2b8
00000220: a8f6 46b9 7b65 27b9 3c10 7738 e0d1 3cb9
00000230: 23ba 5ab9 a7eb a7b9 f7cf 3b39 6849 d8b9
00000240: 7b5e 9d37 0429 94b9 280f 9bb8 8883 05ba
00000250: 3454 a138 3fc9 c5b8 0f00 0dba adfc 6ab9
00000260: 6f70 0bba 4906 b9b8 f67d a138 e9da 5b37
00000270: aead 6139 3e6f b0b9 59b8 3735 b885 70b8
00000280: aa45 04b8 4bbe 7238 b0dd 94b8 afcc 31b9
00000290: 7b3b fbb9 f1d4 05ba c4cd 4e38 ce52 f037
000002a0: 6e2b bd38 e556 84b9 0b93 b2b9 98bc 83b8
000002b0: 4aed 22ba 87ab 08b7 06bd 31ba c555 4e38
000002c0: 64aa f7b9 74e4 e1b9 f6ce d7b9 90a2 3238
000002d0: 5714 f438 93fc 2139 d563 2bb8 8d78 7ab9
000002e0: 371e fb38 b2d2 3fb7 44f8 a0b9 8bd0 93b9
000002f0: 145c d838 f2ac 2039 d272 62b7 90e9 beb8
00000300: 44a4 31ba dd00 e6ba fbb4 a4b9 a2a5 2aba
00000310: 74b3 69ba 6c82 9cba 8718 84ba 1eb7 acb9
00000320: deda 03bb e437 46ba 2ce3 96b9 fbb9 bcb9
00000330: 1010 9cba af4f 60ba 2255 7dba 9631 70ba
00000340: 2278 76ba b929 a6ba e72e 9cba 4f33 a6ba
00000350: 0baf 6dba 8069 8cb9 68a0 2fba 4560 82ba
00000360: 1a96 0eba 9ea1 a1ba 72ce d1ba ad86 8eba
00000370: 7caa 20ba 3c97 91ba d391 e3b9 cc00 97ba
00000380: 465a a5ba 510f 2cb9 81cc a6ba 6df4 b9ba
00000390: c70f 9bba 0024 bbba fae2 8eba 86f1 64ba
000003a0: 90cb 96b9 ed81 06ba e8b9 edb9 cd61 b3ba
000003b0: f597 b3ba f594 09ba 7a3e 81ba eb4d 3bba
000003c0: b5aa 47ba 4a45 eeb9 562a 62ba 160d 9fb9
000003d0: 96f9 2cba 0cfa 44ba 3ae4 64ba 0337 bdba
000003e0: 4914 51ba 4d3f 95ba 1b48 aaba b44d 58ba
000003f0: 4502 f5b9 45b4 96ba 5370 a4ba 8dfa 60ba
-0.0023642688 -0.0008098547 -0.0011296018 -0.0026256302 -0.0026896605 -0.0016385056 -0.0015326322 -0.0021634432
-0.0015276818 -0.00088370475 -0.0006356575 -0.0010209215 -0.001663279 -0.0023116735 -0.0031721704 -0.00085172197
-0.000747739 -0.00067833334 -0.0018832728 -0.00095002033 -0.0027167806 -0.00060970266 -0.003202927 -0.0011147725
-0.0028301924 -0.0026849778 -0.0034421086 -0.0016630149 -0.00078519166 -0.0026081551 -0.001694229 -0.0015080493
-0.0008368109 -0.0024916162 -0.0019052753 -0.0020081755 -0.00063342653 -0.0027268138 -0.00096018275 -0.0015317561
-0.00095173635 -0.0017003079 -0.0013983673 -0.0015705613 -0.000646611 -0.0007216512 -0.0009184115 -0.0014804102
-0.0025209868 -0.0024900013 -0.0015516558 -0.0008859796 -0.00042993767 -0.0014947834 -0.00077406364 -0.0016598338
-0.0011601954 -0.0012008153 -0.0009936721 -0.0022153081 -0.0033747244 -0.0008283256 -0.00068499456 -0.002629624
-0.0005913899 -0.0014344652 -0.0011896162 -0.0012716355 -0.0009842552 -0.0018121026 -0.0012169459 -0.00086939306
-0.0003980826 -0.0008342727 -0.0009913752 -0.00053928857 -0.0015290745 -0.0009357234 -0.0006225677 -0.00060796447
-0.0010656441 -0.0003825074 -0.0011747287 -0.0005947409 -0.0012859945 -0.00052355346 -0.00040338354 -0.0013913786
-0.00093656895 -0.0017098442 -0.0014189663 -0.00066569675 -0.00040895358 -0.0010011375 -0.00079114165 -0.0010032437
-0.0015014677 -0.0012153583 -0.0008847072 -0.0004768832 -0.0011541491 -0.0008867104 -0.0007946333 -0.0008325367
-0.001629386 -0.0005002123 -0.0011169232 -0.0015211153 -0.000639864 -0.0012914668 -0.0015806358 -0.001655818
-0.00086708757 -0.0009932584 -0.0007765373 -0.0016823295 -0.00060119055 -0.0008032231 -0.0016106265 -0.0009322808
-0.0010615519 -0.0009812602 -0.0004983246 -0.0012994889 -0.0014476974 -0.0007972616 -0.0010312439 -0.0007585631
-2.6558297e-05 0.00014385505 4.482561e-05 0.00012456848 -0.00022584524 -6.1362145e-05 1.771052e-05 -7.739925e-05
-0.00018974638 -0.00015964166 5.890451e-05 -0.00018007262 -0.00020859441 -0.00032028297 0.00017911183 -0.00041253422
1.8759854e-05 -0.0002825932 -7.393799e-05 -0.0005093147 7.692762e-05 -9.431177e-05 -0.0005378732 -0.00022410108
-0.0005319183 -8.822658e-05 7.70054e-05 1.3104386e-05 0.00021522373 -0.00033652218 6.8441074e-07 -5.7344994e-05
-3.1536132e-05 5.787452e-05 -7.0984825e-05 -0.00016956286 -0.00047918767 -0.0005105278 4.930586e-05 2.8648788e-05
9.020312e-05 -0.00025241743 -0.0003406036 -6.281695e-05 -0.00062151684 -8.1461685e-06 -0.0006780181 4.9194106e-05
-0.00047238462 -0.00043085555 -0.00041162194 4.2589905e-05 0.00011638615 0.00015448248 -4.0862553e-05 -0.00023886767
0.000119742406 -1.14335435e-05 -0.0003070255 -0.00028193402 0.000103168335 0.00015323216 -1.3497383e-05 -9.1034104e-05
-0.00067764916 -0.0017547865 -0.00031415359 -0.00065096666 -0.0008914985 -0.0011940724 -0.001007811 -0.0003294283
-0.0020119469 -0.0007561429 -0.00028779486 -0.0003599672 -0.0011906642 -0.00085567957 -0.000966387 -0.00091626623
-0.00094020565 -0.0012677229 -0.0011915833 -0.0012680086 -0.0009066916 -0.00026781484 -0.00066996226 -0.0009946903
-0.0005439237 -0.0012331491 -0.001600696 -0.0010873877 -0.000612892 -0.0011107693 -0.00043405461 -0.0011520623
-0.0012615405 -0.00016408904 -0.0012725742 -0.0014187224 -0.0011830264 -0.0014277697 -0.0010901385 -0.00087334996
-0.00028761895 -0.0005131055 -0.00045342674 -0.0013685763 -0.0013701903 -0.00052483316 -0.0009860538 -0.00071450946
-0.0007616685 -0.00045446522 -0.00086275244 -0.00030336593 -0.00065984705 -0.00075140665 -0.0008731518 -0.001443595
-0.000797574 -0.0011386663 -0.001299146 -0.0008251325 -0.00046731732 -0.0011497816 -0.0012545682 -0.0008582257

exp_avg_sq f4 [16, 4, 16]
00000000: 79c9 1a34 f710 9032 1247 1133 6bac 4d34
00000010: 441a 4634 1dba 9233 7b1f 8633 9a5b f933
00000020: 055b 8133 b093 ae32 c3d5 5932 680a f032
00000030: a18d 9633 766c 1534 993e 8734 c1a6 a432
00000040: 3e35 9932 598f 6032 d982 bf33 524b c732
00000050: e89b 4534 84b7 4732 1fab 8734 c230 1233
00000060: d055 5434 e86d 4c34 2880 9d34 0772 a133
00000070: ac79 8832 f63f 3634 2ec5 9933 ea66 8033
00000080: 08b1 9832 c2e6 2a34 1aeb c733 38a6 dc33
00000090: c863 3a32 880f 4c34 3fa3 c832 2d3c 8733
000000a0: 71ce c732 1eab 9b33 4e97 6633 02cc 9433
000000b0: 5f59 4332 5dd1 7132 a45f dd32 ad58 7a33
000000c0: 3115 2b34 7215 2834 4e8c 8d33 0e39 aa32
000000d0: 47fb ad31 de9d 7333 e473 8832 5ea8 9333
000000e0: f1ac 1233 28e9 1f33 caed db32 847d 0334
000000f0: c457 9934 1fe1 a832 15c1 6832 0640 3d34
00000100: af10 3d32 d859 7733 0124 4833 32c0 4933
00000110: b186 ef32 f93e d833 28b3 5233 a99d d832
00000120: 178e 9c31 6552 1933 a8c5 4533 f186 2a32
00000130: 81e7 8533 d49b df32 cd97 e032 a8fb 5e32
00000140: 23b0 2c33 5103 1232 889c 1633 bc64 1f32
00000150: e8c4 3433 4af6 3c32 343b f731 e3b1 9933
00000160: 39f3 2333 9fe3 b033 a159 7033 aa17 8a32
00000170: e116 e431 08c5 ef32 3b41 8d32 40f0 4833
00000180: 02e2 9833 c073 3d33 befc 3433 5ecf 1432
00000190: bba6 2033 9afc d232 9eba ab32 9aaf 9d32
000001a0: ce73 b633 78a2 0e32 1068 2333 2387 8a33
000001b0: 1cea 5432 4225 5533 836b af33 1ede a733
000001c0: adc8 b632 15d0 f932 36de 9832 3f74 c033
000001d0: b9fb c232 902d 9832 133d 9133 c75f d032
000001e0: bce9 f132 1e25 d432 2292 0e32 ed73 6c33
000001f0: 1a72 a533 2666 e932 1b62 ff32 1830 9832
00000200: 7b08 cf30 4e3f 1431 8749 3331 5467 9030
00000210: 1330 2232 fbb9 2e31 e687 a430 92ba fa30
00000220: eef2 1631 c27c 8b31 bd2d 7530 b798 db31
00000230: a58e a231 1a59 1d32 c64c 0e31 4797 3332
00000240: 56f9 3730 b5b4 0332 9b90 3531 935e 8132
00000250: 611b c230 69b1 db31 ca33 4232 5fdd 7e31
00000260: 16ef aa32 407f 6931 1c8c 2430 900a 3931
00000270: a9ca 7231 798d 2d32 ed96 3031 1384 7531
00000280: e160 b031 15ff 6430 07cd 9a31 3297 0c32
00000290: 33c8 1e32 c0e3 1432 610f 3231 17ee 0731
000002a0: ddc1 4b30 a51d dd31 e59e c631 f03f a830
000002b0: 5c75 9b32 b43d 5a31 c404 c232 a501 d330
000002c0: 07ed 4432 d992 6832 0d42 1532 f3eb 2d31
000002d0: 4f54 0731 3a87 3031 4649 4731 5eb9 8531
000002e0: 4386 da30 765b 7331 1eb7 9932 dcb4 a031
000002f0: 7cbf 3230 eebe e630 bb8f 7d30 9312 ab30
00000300: 1941 7532 3f5f ad33 bbef ab31 01e5 4632
00000310: 6e43 c232 76d8 2b33 9ee5 f332 4eb3 5c31
00000320: d4a5 e233 339a 9532 35fd 4e31 15fc 9431
00000330: f488 4633 3511 b532 1f9e eb32 cc95 f032
00000340: 7f32 cf32 39c0 3933 c83e 3433 f389 3a33
00000350: c9c4 ba32 452f 2631 f035 8832 4234 1533
00000360: b7c4 0732 53f4 2a33 4db9 9033 d02e 0833
00000370: 8414 3832 3f41 1c33 5a6d 3932 717b 1133
00000380: 412b 3833 077a bf30 a452 3233 28a0 8033
00000390: a28b 5133 c2e4 6733 3a82 0c33 1c76 bb32
000003a0: ba7f 4531 c019 1132 16d1 e031 ff9c 4a33
000003b0: 09f2 4f33 d9c4 3632 3d2f f632 fbc6 6832
000003c0: 4b1b 8332 cfb3 ec31 0dbf ae32 40c4 6431
000003d0: b1ac 5b32 a9e1 8032 95ae b232 e744 6b33
000003e0: e5e3 9432 1d5b 1333 a137 4f33 0fe3 bb32
000003f0: 08f8 de31 6966 1133 c5cf 3033 1fbe c032
1.4415663e-07 1.6771521e-08 3.382508e-08 1.9154838e-07 1.8449742e-07 6.8325086e-08 6.2455875e-08 1.1611628e-07
6.023587e-08 2.0323426e-08 1.2679666e-08 2.794441e-08 7.0106815e-08 1.3916164e-07 2.5191255e-07 1.9167944e-08
1.7835756e-08 1.30711095e-08 8.9179316e-08 2.32009e-08 1.8403773e-07 1.1625051e-08 2.5270216e-07 3.403762e-08
1.9775257e-07 1.9038964e-07 2.9336775e-07 7.517888e-08 1.5887814e-08 1.697334e-07 7.1604845e-08 5.9791844e-08
1.7775633e-08 1.5916433e-07 9.309424e-08 1.0274783e-07 1.0849313e-08 1.9004631e-07 2.33573e-08 6.297373e-08
2.3260528e-08 7.248876e-08 5.368866e-08 6.928896e-08 1.13708145e-08 1.407565e-08 2.5771278e-08 5.828831e-08
1.5933325e-07 1.5654021e-07 6.5913454e-08 1.981655e-08 5.0635296e-09 5.6721426e-08 1.5885185e-08 6.875847e-08
3.4150563e-08 3.7232127e-08 2.560309e-08 1.2245988e-07 2.856233e-07 1.9660147e-08 1.3548079e-08 1.7625288e-07
1.1005041e-08 5.759088e-08 4.6598874e-08 4.697376e-08 2.7884512e-08 1.00697385e-07 4.9057377e-08 2.5217405e-08
4.5563513e-09 3.5698026e-08 4.6047404e-08 9.9259845e-09 6.2354054e-08 2.603148e-08 2.6146063e-08 1.2979321e-08
4.0207066e-08 8.499073e-09 3.506696e-08 9.277922e-09 4.20886e-08 1.099904e-08 7.1953767e-09 7.156975e-08
3.8172605e-08 8.237043e-08 5.596087e-08 1.6076076e-08 6.6382744e-09 2.7912861e-08 1.6444224e-08 4.6784635e-08
7.119162e-08 4.4110266e-08 4.2139384e-08 8.661884e-09 3.7404543e-08 2.4562087e-08 1.9991884e-08 1.835706e-08
8.4961e-08 8.302429e-09 3.804604e-08 6.450707e-08 1.2393254e-08 4.9626813e-08 8.168629e-08 7.8169464e-08
2.1278845e-08 2.908204e-08 1.7796179e-08 8.961842e-08 2.2699043e-08 1.7715848e-08 6.763198e-08 2.4257941e-08
2.8162383e-08 2.4696927e-08 8.298715e-09 5.5053466e-08 7.704166e-08 2.7171222e-08 2.973052e-08 1.7717e-08
1.5063643e-09 2.157282e-09 2.6089724e-09 1.0506747e-09 9.440572e-09 2.542605e-09 1.1971195e-09 1.824292e-09
2.1965962e-09 4.0596158e-09 8.919548e-10 6.3911005e-09 4.7310373e-09 9.158862e-09 2.070736e-09 1.0453568e-08
6.692934e-10 7.666292e-09 2.6421165e-09 1.5060584e-08 1.4123139e-09 6.393908e-09 1.1304062e-08 3.70877e-09
1.9899328e-08 3.3978296e-09 5.986196e-10 2.6927047e-09 3.5330834e-09 1.01020925e-08 2.5697162e-09 3.5727268e-09
5.133288e-09 8.330841e-10 4.505299e-09 8.18345e-09 9.2423305e-09 8.666518e-09 2.591115e-09 1.9780424e-09
7.4126466e-10 6.4353167e-09 5.7806226e-09 1.2241781e-09 1.8097744e-08 3.175825e-09 2.258674e-08 1.5352738e-09
1.1462595e-08 1.3537567e-08 8.68796e-09 2.5308935e-09 1.969301e-09 2.5688238e-09 2.8999962e-09 3.8918833e-09
1.5899747e-09 3.5413144e-09 1.7894816e-08 4.677174e-09 6.502814e-10 1.6788968e-09 9.2245117e-10 1.2447167e-09
1.4275678e-08 8.0732654e-08 5.004009e-09 1.1577186e-08 2.2615236e-08 4.001091e-08 2.8393341e-08 3.2116136e-09
1.0554109e-07 1.7416005e-08 3.0120877e-09 4.3360253e-09 4.6225026e-08 2.1078998e-08 2.7429506e-08 2.8007797e-08
2.4120935e-08 4.3248495e-08 4.1966615e-08 4.3431964e-08 2.1742737e-08 2.418305e-09 1.5857012e-08 3.4739294e-08
7.902762e-09 3.980342e-08 6.7392286e-08 3.1707543e-08 1.0714874e-08 3.638092e-08 1.0793281e-08 3.3872713e-08
4.2880178e-08 1.3931761e-09 4.1519016e-08 5.989597e-08 4.87886e-08 5.3991933e-08 3.271473e-08 2.1823375e-08
2.8739877e-09 8.445966e-09 6.5430283e-09 4.7174577e-08 4.8416073e-08 1.0638552e-08 2.865965e-08 1.354942e-08
1.5262819e-08 6.888946e-09 2.0343146e-08 3.3289922e-09 1.2786743e-08 1.500378e-08 2.0801318e-08 5.4777868e-08
1.7333102e-08 3.430897e-08 4.8246537e-08 2.187292e-08 6.4892482e-09 3.3853585e-08 4.116716e-08 2.2438199e-08

exp_avg f4 [16]
00000000: a900 d4bb 19e9 83bb e524 06ba ea9e 6ebb
00000010: 3b3b e6bb bf2d 2cbb abc3 4cbb 20d8 283b
00000020: f43d 2dbb 0180 c8bb e94c 4aba 3df9 313c
00000030: 510e 55ba f083 eebb 011f 54bc ba3c 1dbc
-0.0064698053 -0.00402559 -0.0005117192 -0.0036410638 -0.007026104 -0.0026272384 -0.0031244557 0.0025763586
-0.0026434632 -0.006118775 -0.0007717149 0.010862646 -0.00081274385 -0.007278912 -0.012946845 -0.009596998

exp_avg_sq f4 [16]
00000000: 16aa 8b35 6870 f934 9468 0133 389a b534
00000010: 5a20 c335 f11e 6b34 260f 8834 36db 8034
00000020: ed81 4534 194e 8a35 4bee 0633 4a96 5836
00000030: 00f3 a433 8220 be35 29c1 9d36 d824 2936
1.0405809e-06 4.646165e-07 3.0130266e-08 3.3826086e-07 1.4538048e-06 2.1897337e-07 2.5342996e-07 2.4001355e-07
1.8394321e-07 1.0304531e-06 3.1416032e-08 3.2273988e-06 7.6810466e-08 1.4165564e-06 4.7014514e-06 2.5204408e-06

exp_avg f4 [32, 32]
00000000: b97f 88bb b1e1 9abb 91ab c0bb ca44 71bb
00000010: c468 37bb 2d6d 8dbb c2d1 a3bb 804e 74bb
00000020: 0b5f 8cbb c77a b8bb 840a 26bb 0402 77bb
00000030: 0eb3 3cbb 1842 8fbb 4738 cfbb 6ca1 9fbb
00000040: 6dbd 0fba 10b5 96ba ded2 f2ba c236 43ba
00000050: 958b 70b9 d977 75ba b358 6eba 7ce1 13ba
00000060: 2908 6fba b98b c7ba 72b5 79b9 7539 2cba
00000070: 39d5 89b9 c069 5eba 0d9c 17bb 9f8f 91ba
00000080: 15dc 8ab9 7bc4 dbb9 4a57 0aba cd93 a2b9
00000090: 3f93 0bb9 b7d2 dcb9 97ca 02ba f441 84b9
000000a0: d174 f8b9 bc45 f3b9 7f22 67b9 849d 9fb9
000000b0: 8d37 85b9 2bad cbb9 012e 02ba b2f3 e1b9
000000c0: 9ec8 17b8 4430 14b9 def0 17b9 6173 82b8
000000d0: a26f 6cb7 995b e6b8 c466 adb8 ee9c d8b7
000000e0: e622 bfb8 7748 07b9 b4d3 91b7 1c1b 35b8
000000f0: a732 b0b7 1948 ccb8 6455 5bb9 cc98 edb8
00000100: 1bb0 1f3b aec6 323b 7a82 673b d301 093b
00000110: da60 b83a 964c 2d3b 527d 4c3b 0704 193b
00000120: 36bb 2d3b 88ea 623b 1913 c43a d08f 253b
00000130: 4d52 f53a f4b0 283b 7349 763b f79e 343b
00000140: 1b7d 9639 48a8 283a b728 923a 907b c639
00000150: 462d db38 e446 0e3a a616 073a c47d c739
00000160: 942e 0e3a 1f20 663a 3e91 0b39 e509 f539
00000170: 0a02 2d39 2af8 f839 f7a7 a83a 2240 1f3a
00000180: 0000 0000 0000 0000 0000 0000 0000 0000
00000190: 0000 0000 0000 0000 0000 0000 0000 0000
000001a0: 0000 0000 0000 0000 0000 0000 0000 0000
000001b0: 0000 0000 0000 0000 0000 0000 0000 0000
000001c0: 0000 0000 0000 0000 0000 0000 0000 0000
000001d0: 0000 0000 0000 0000 0000 0000 0000 0000
000001e0: 0000 0000 0000 0000 0000 0000 0000 0000
000001f0: 0000 0000 0000 0000 0000 0000 0000 0000
00000200: c0de 88b9 70f2 39b9 563b 72b9 1459 4fb9
00000210: 4458 3fb9 af14 69b9 e6f0 82b9 d794 1db9
00000220: c166 29b9 4048 88b9 e823 04b9 f40d 5eb8
00000230: 1e5f bfb8 b3b6 38b9 5289 9bb9 af8b 8ab9
00000240: cc3d 2ab8 7ba4 35b8 f615 afb8 adc4 40b8
00000250: 4bf2 a8b7 a43f 18b8 f4e2 4db8 f4b5 c4b7
00000260: 6d86 21b8 2fa6 8fb8 4bdb 3ab7 b3fb 5bb7
00000270: 9d94 c5b6 f322 0bb8 d5c2 ceb8 7191 50b8
00000280: 04b4 5b3b d9b0 803b 23d1 9e3b 6fdd 473b
00000290: 0194 003b ba9a 683b e0f2 863b 154b 473b
000002a0: a817 713b 021f 983b 0f6f 123b dae0 553b
000002b0: ff11 213b 21bb 623b e8cf aa3b 98b6 813b
000002c0: e98e d939 422f 753a 8e18 ca3a 1dcf 1b3a
000002d0: c057 1839 6722 413a 9afa 423a 30a7 ff39
000002e0: d754 463a 5bcb a43a 9aee 6039 e4af 163a
000002f0: 81e2 5139 bbe1 3c3a 42ce f03a b744 6d3a
00000300: 8dd2 c3b7 67c3 02b8 d486 2db8 1cbb 1cb8
00000310: 57d3 b1b7 60e4 ecb7 10d1 37b8 ae13 04b8
00000320: c187 06b8 f721 61b8 60f4 62b7 989e 0fb8
00000330: 68f9 c0b7 24a1 d1b7 4b09 72b8 ec92 25b8
00000340: 335c 97b6 a080 10b7 dadf 65b7 2641 e1b6
00000350: c16e 32b6 f8ab 0cb7 a453 0fb7 c5c1 87b6
00000360: 2d35 fcb6 a5d2 60b7 13b0 cbb5 75be b9b6
00000370: c6ac 21b6 7074 98b6 df41 9bb7 f680 0bb7
00000380: 6784 0eba 939c 13ba 9ed5 5eba ffd2 06ba
00000390: 3f98 e5b9 860f 2bba 66b2 1cba d80b 2aba
000003a0: e78d 1dba 0a2e 37ba 1917 edb9 abfa 22ba
000003b0: b1c1 bdb9 812f 1cba dd7d 80ba 66f2 3fba
000003c0: b29f a6b8 8fae 3cb9 ab48 81b9 253e bdb8
000003d0: ac2c 02b8 7278 44b9 60bc 0ab9 ad7f b6b8
000003e0: f972 f0b8 17d6 58b9 03ef 01b8 4485 f7b8
000003f0: bf40 3ab8 54b5 d4b8 6a93 b4b9 ca14 24b9
-0.0041656164 -0.0047266115 -0.0058798273 -0.0036814683 -0.002798603 -0.0043159933 -0.0049993703 -0.0037278235
-0.004283791 -0.0056298706 -0.0025335858 -0.003769041 -0.0028793248 -0.0043718927 -0.0063238475 -0.004871538
-0.0005483244 -0.0011498053 -0.0018525978 -0.0007446819 -0.00022940182 -0.0009363867 -0.00090921967 -0.0005641205
-0.00091183424 -0.0015224136 -0.00023814084 -0.0006569841 -0.0002628954 -0.0008484386 -0.0023133785 -0.0011105424
-0.00026485385 -0.00041917324 -0.00052772893 -0.00031009168 -0.00013310926 -0.00042118665 -0.00049892947 -0.0002522614
-0.0004738928 -0.00046400528 -0.00022042728 -0.00030444202 -0.00025409125 -0.00038848197 -0.00049659616 -0.0004309691
-3.6188045e-05 -0.0001413236 -0.00014490212 -6.220374e-05 -1.4092688e-05 -0.00010984316 -8.2684244e-05 -2.5822283e-05
-9.11409e-05 -0.00012901599 -1.7383929e-05 -4.317901e-05 -2.1004422e-05 -9.740907e-05 -0.00020917278 -0.00011329501
0.0024366442 0.0027279067 0.0035325573 0.0020905628 0.001406695 0.0026443354 0.0031202626 0.0023348348
0.0026509291 0.0034624655 0.0014959305 0.002526272 0.0018716544 0.0025740238 0.00375804 0.002756057
0.0002870344 0.0006433767 0.001115105 0.00037857564 0.000104511666 0.00054274336 0.0005153216 0.0003804994
0.0005423811 0.000877859 0.0001331018 0.00046737414 0.00016499325 0.00047487143 0.001286744 0.0006074925
0.0 0.0 0.0 0.0 0.0 0.0 0.0 0.0
0.0 0.0 0.0 0.0 0.0 0.0 0.0 0.0
0.0 0.0 0.0 0.0 0.0 0.0 0.0 0.0
0.0 0.0 0.0 0.0 0.0 0.0 0.0 0.0
-0.00026105903 -0.0001773329 -0.00023101023 -0.00019774243 -0.00018248061 -0.00022228317 -0.00024975016 -0.00015028134
-0.00016155375 -0.00025993772 -0.00012601877 -5.294192e-05 -9.125307e-05 -0.00017615668 -0.00029666215 -0.00026425484
-4.058871e-05 -4.3306947e-05 -8.348741e-05 -4.5959536e-05 -2.0139987e-05 -3.6298894e-05 -4.9087175e-05 -2.344975e-05
-3.8510585e-05 -6.8497255e-05 -1.1137522e-05 -1.31120205e-05 -5.8883584e-06 -3.317273e-05 -9.859136e-05 -4.9726517e-05
0.0033524046 0.003927332 0.0048467084 0.0030496975 0.0019619467 0.0035492615 0.0041183084 0.0030409743
0.0036787782 0.0046423683 0.0022344028 0.0032635243 0.0024577377 0.00345964 0.0052127726 0.0039585344
0.00041495942 0.000935305 0.0015418695 0.0005943643 0.00014528539 0.0007367492 0.0007437855 0.00048761955
0.00075657427 0.0012572812 0.0002145119 0.00057482556 0.00020016172 0.00072052673 0.0018372016 0.0009051072
-2.3343857e-05 -3.1176398e-05 -4.1371983e-05 -3.7367558e-05 -2.1198457e-05 -2.8239738e-05 -4.3825305e-05 -3.148958e-05
-3.207452e-05 -5.3675813e-05 -1.3527548e-05 -3.424156e-05 -2.3004322e-05 -2.4989778e-05 -5.770595e-05 -3.9475897e-05
-4.510884e-06 -8.613017e-06 -1.3701583e-05 -6.713107e-06 -2.6588534e-06 -8.38469e-06 -8.542938e-06 -4.0458713e-06
-7.5163757e-06 -1.3400485e-05 -1.5175923e-06 -5.5356018e-06 -2.4091437e-06 -4.543508e-06 -1.8508113e-05 -8.315072e-06
-0.00054365996 -0.00056309364 -0.00085004594 -0.0005143135 -0.00043791716 -0.00065254455 -0.0005977511 -0.000648675
-0.000601022 -0.00069877564 -0.00045221372 -0.0006217162 -0.000361932 -0.00059580064 -0.0009803135 -0.0007322192
-7.9452424e-05 -0.00017994105 -0.0002465894 -9.0237976e-05 -3.103602e-05 -0.00018736886 -0.0001323088 -8.702218e-05
-0.00011465507 -0.0002067912 -3.0978594e-05 -0.000118027005 -4.4406155e-05 -0.00010142723 -0.00034442107 -0.00015648003

exp_avg_sq f4 [32, 32]
00000000: 97a0 e834 0cff 1835 61b4 6d35 f551 b634
00000010: bdfd 5134 a226 fd34 f6a8 2a35 e9eb c234
00000020: c578 fb34 4541 5735 cc2a 2d34 4f9e c634
00000030: 1b87 6234 9d80 0435 69f7 8735 6174 2035
00000040: c7e6 0032 0773 0e33 86c2 bd33 4f24 6e32
00000050: d3e5 b730 ae0d bd32 3b8d b232 0f64 1532
00000060: 6bba b332 1235 7a33 971f c430 9c49 4d32
00000070: acb8 f430 38db 9c32 1a13 1034 29b1 0533
00000080: d737 0532 e96b 7a32 0354 c632 b483 1532
00000090: 900c 6331 6245 5832 b663 7d32 bdd4 1832
000000a0: 7591 6d32 8a8e b632 eb5d a131 212a 2632
000000b0: 0964 fd31 2ba9 7e32 b3ee cc32 434e 8832
000000c0: 6885 0c2f f374 a230 7a25 0b31 9a68 8c2f
000000d0: 2bb6 6d2d 633e 5a30 f603 1530 1caa 1d2f
000000e0: f120 2030 6fda d730 639d 112e c0bb ae2f
000000f0: 5c23 4f2e a0ba 3f30 75e5 6e31 1563 8830
00000100: bc9d a134 062e c534 e6bc 2835 90a4 6f34
00000110: 241c cf33 4d68 b834 0030 fb34 cba4 9f34
00000120: 22bc b434 7b1f 2435 67c1 fe33 9f8f b534
00000130: f64e 3634 fb50 b534 16c4 3e35 57da d434
00000140: 0d71 9331 8b8d b032 4bf1 8533 07bf fa31
00000150: 7513 0530 f040 7732 2efe 5732 5c79 0732
00000160: ef5c 6332 fd11 2333 fb0f 7130 790b 5032
00000170: 989d c830 1f87 3d32 2644 b033 4dea a032
00000180: 0000 0000 0000 0000 0000 0000 0000 0000
00000190: 0000 0000 0000 0000 0000 0000 0000 0000
000001a0: 0000 0000 0000 0000 0000 0000 0000 0000
000001b0: 0000 0000 0000 0000 0000 0000 0000 0000
000001c0: 0000 0000 0000 0000 0000 0000 0000 0000
000001d0: 0000 0000 0000 0000 0000 0000 0000 0000
000001e0: 0000 0000 0000 0000 0000 0000 0000 0000
000001f0: 0000 0000 0000 0000 0000 0000 0000 0000
00000200: 22a5 0b32 09ca b731 bbc0 1632 20f1 9831
00000210: b8b2 c531 1d75 9f31 c866 2f32 c1cf 9031
00000220: 123e b231 a721 1d32 daff 5b31 8a0d 4131
00000230: e2a2 1931 64b2 9a31 feeb 5232 49cd 2932
00000240: b403 272f c6bf 882f e8ec 8930 05ac 782f
00000250: 6fe9 952e 3ed6 542f 441f 9c2f 8aaa ee2e
00000260: 3cd9 802f 15bb 1a30 01c6 912d 8156 d82e
00000270: 0a13 bc2d 5b29 162f 17c4 d430 e30d a62f
00000280: 7b76 b834 18f4 0135 e06c 4735 a700 9c34
00000290: a2f8 0334 231c de34 b661 0e35 d23f ac34
000002a0: 1cc9 e834 f199 3735 a418 2534 a369 c334
000002b0: feb0 4b34 d3af cf34 8714 6935 5bd0 0635
000002c0: 5138 b631 f2b2 e332 ead5 a333 5ee8 2f32
000002d0: 3187 4a30 c2ae 9132 7390 8e32 b59d 0d32
000002e0: 5a66 9732 4f84 4d33 64fa b230 560a 4e32
000002f0: dcc8 c030 2652 8132 efab de33 8b0b cc32
00000300: f021 6c2e 5aba b22e 4ea7 2b2f bf26 0d2f
00000310: 4741 522e fc1a a92e 36de 322f 2690 bd2e
00000320: 1c75 c22e 0298 8c2f 0cb2 972d 772a 012f
00000330: 351b 6e2e 8067 732e b63d a12f 58bf 1a2f
00000340: 8c7b 002c 6111 db2c db6f a02d a887 812c
00000350: 2bd2 3c2b 84c9 e92c 081e dd2c 889a cb2b
00000360: 3d34 a62c 0fc7 8f2d 7349 612a cc17 4f2c
00000370: a0cc 3f2b ee13 e92b 45d2 082e d3e2 e22c
00000380: b573 ae32 5644 d732 8b8d 4133 75c9 8732
00000390: b345 2f32 70b1 1233 13f8 ec32 3a45 bf32
000003a0: 504b b932 1cb4 2933 3df3 0332 1b09 b832
000003b0: 8f58 3232 2d78 c732 56dd 7f33 54b2 0333
000003c0: 7cea ab2f d783 0131 43c8 9231 e818 1e30
000003d0: c32b 732e 9a3b f030 261c 8f30 4df3 fa2f
000003e0: c2b2 5030 17db 4831 b486 6b2e c8c0 3030
000003f0: eff4 f02e da2f 7a30 e4ac d731 ea44 ce30
4.3330212e-07 5.6995555e-07 8.8551866e-07 3.3959773e-07 1.9556951e-07 4.715303e-07 6.3575806e-07 3.6306963e-07
4.6840265e-07 8.018872e-07 1.612745e-07 3.699556e-07 2.1097041e-07 4.936099e-07 1.013029e-06 5.9774e-07
7.503053e-09 3.3166568e-08 8.836382e-08 1.3861679e-08 1.3380322e-09 2.2008717e-08 2.0786151e-08 8.695692e-09
2.0923116e-08 5.8255928e-08 1.4269855e-09 1.1949307e-08 1.7805823e-09 1.826048e-08 1.3417994e-07 3.1127602e-08
7.754315e-09 1.4576451e-08 2.3088438e-08 8.702887e-09 3.3039989e-09 1.2588631e-08 1.474921e-08 8.8959355e-09
1.3828289e-08 2.1252408e-08 4.696394e-09 9.672051e-09 7.374642e-09 1.482321e-08 2.3857273e-08 1.5868073e-08
1.2780321e-10 1.182029e-09 2.0248465e-09 2.5540176e-10 1.351234e-11 7.9396595e-10 5.4211513e-10 1.4339502e-10
5.8254473e-10 1.5705391e-09 3.310897e-11 3.178382e-10 4.7097756e-11 6.9750605e-10 3.476399e-09 9.923463e-10
3.0103354e-07 3.6727596e-07 6.285976e-07 2.2318477e-07 9.6443074e-08 3.434856e-07 4.6787318e-07 2.973596e-07
3.3664497e-07 6.114057e-07 1.18629764e-07 3.3818375e-07 1.6978797e-07 3.3772798e-07 7.106586e-07 3.964694e-07
4.2911155e-09 2.0553463e-08 6.237186e-08 7.297675e-09 4.841277e-10 1.4392057e-08 1.2572441e-08 7.885628e-09
1.323427e-08 3.7967755e-08 8.7698e-10 1.2109802e-08 1.4596706e-09 1.1031971e-08 8.208035e-08 1.8733e-08
0.0 0.0 0.0 0.0 0.0 0.0 0.0 0.0
0.0 0.0 0.0 0.0 0.0 0.0 0.0 0.0
0.0 0.0 0.0 0.0 0.0 0.0 0.0 0.0
0.0 0.0 0.0 0.0 0.0 0.0 0.0 0.0
8.128412e-09 5.3489697e-09 8.774971e-09 4.451195e-09 5.7537726e-09 4.6408233e-09 1.020971e-08 4.2145705e-09
5.1875384e-09 9.146254e-09 3.201413e-09 2.8092892e-09 2.2357018e-09 4.5022706e-09 1.2277267e-08 9.883771e-09
1.5189877e-10 2.487452e-10 1.0035395e-09 2.2616582e-10 6.817202e-11 1.9357402e-10 2.839845e-10 1.0853281e-10
2.343742e-10 5.6290733e-10 1.6572523e-11 9.837909e-11 2.138158e-11 1.3657113e-10 1.5480762e-09 3.020509e-10
3.4358877e-07 4.841145e-07 7.429171e-07 2.905774e-07 1.2290778e-07 4.1371194e-07 5.304131e-07 3.2083932e-07
4.3359694e-07 6.8396827e-07 1.5375787e-07 3.639844e-07 1.8970238e-07 3.8684684e-07 8.6829135e-07 5.0222087e-07
5.3032996e-09 2.6507653e-08 7.62919e-08 1.0239175e-08 7.367929e-10 1.6959692e-08 1.6596664e-08 8.243139e-09
1.7625258e-08 4.7850616e-08 1.302237e-09 1.1993128e-08 1.4026926e-09 1.5054933e-08 1.0368955e-07 2.3753975e-08
5.369033e-11 8.1276055e-11 1.5611798e-10 1.283764e-10 4.780645e-11 7.6900236e-11 1.6267951e-10 8.620331e-11
8.8429014e-11 2.557386e-10 1.7245781e-11 1.1747568e-10 5.41391e-11 5.534373e-11 2.9329578e-10 1.4074197e-10
1.8258476e-12 6.226284e-12 1.8239568e-11 3.6814614e-12 6.7082684e-13 6.644631e-12 6.284532e-12 1.4466909e-12
4.7238034e-12 1.6345618e-11 2.0009497e-13 2.942968e-12 6.8140805e-13 1.6561177e-12 3.1109577e-11 6.448489e-12
2.0308883e-08 2.506037e-08 4.5065047e-08 1.580768e-08 1.0202188e-08 3.4154652e-08 2.7586827e-08 2.2266807e-08
2.1571083e-08 3.9512187e-08 7.68051e-09 2.142456e-08 1.03810995e-08 2.3221299e-08 5.9573118e-08 3.0663003e-08
3.127133e-10 1.8846913e-09 4.2719264e-09 5.751546e-10 5.529067e-11 1.7479238e-09 1.041262e-09 4.564761e-10
7.592399e-10 2.9228369e-09 5.3552454e-11 6.4302386e-10 1.09574454e-10 9.101747e-10 6.276979e-09 1.5008059e-09

exp_avg f4 [32]
00000000: 7090 a8bb 9db3 d9b9 351a 4f3b 0000 0000
00000010: ece4 58b9 6e93 8b3b 2191 31b8 5d44 4fba
00000020: f4d4 07bc c7e2 ebb7 0000 0000 0000 0000
00000030: 8832 b939 2320 d7ba f8b9 8bbb 8ac0 88bc
00000040: dd5f 49bc 8894 9bbb 608a 65bc 42ee d53a
00000050: 0000 0000 a4ac 2f3b c62d 313a 0000 0000
00000060: 8ee9 05bc 0000 0000 1f73 8c3b 0000 0000
00000070: af0c a03a 0000 0000 61f8 4a39 35fd 3fbb
-0.0051441714 -0.00041523288 0.0031601314 0.0 -0.00020684645 0.0042595183 -4.233525e-05 -0.000790661
-0.008290518 -2.8119784e-05 0.0 0.0 0.00035323598 -0.0016412776 -0.0042641126 -0.016693372
-0.012290922 -0.004747931 -0.014010042 0.0016321617 0.0 0.0026805783 0.0006758835 0.0
-0.00817336 0.0 0.0042861844 0.0 0.0012210811 0.0 0.0001935675 -0.002929521

exp_avg_sq f4 [32]
00000000: 2b03 3635 2950 8f32 cf41 0735 0000 0000
00000010: 5f4f f931 b553 1c35 1c0e 3a2f 3da0 1333
00000020: 4d20 0636 b21a 232f 0000 0000 0000 0000
00000030: f01b 6d32 b2ec 2534 f38a f934 014c 0337
00000040: 836a 9036 f8f9 2835 dbba b036 bf0e 0934
00000050: 0000 0000 a89e 9c34 c776 0c33 0000 0000
00000060: 0a96 ed35 0000 0000 bc64 3c35 0000 0000
00000070: 2b69 b533 0000 0000 b3ae 7f31 ecc2 f534
6.7804893e-07 1.6683844e-08 5.0387183e-07 0.0 7.2558772e-09 5.823634e-07 1.6921614e-10 3.437184e-08
1.9986358e-06 1.4834248e-10 0.0 0.0 1.3801568e-08 1.5452932e-07 4.6480963e-07 7.8259045e-06
4.303934e-06 6.294863e-07 5.2669616e-06 1.2764484e-07 0.0 2.9172702e-07 3.2704317e-08 0.0
1.7701543e-06 0.0 7.0182045e-07 0.0 8.447599e-08 0.0 3.7206689e-09 4.577663e-07
