tests/_logs/test_fit/multitask/checkpoints/epoch=0-step=6-v4.ckpt (torch, 36777 bytes, 18 tensors)

convnet.module.0.weight f4 [16, 4, 16]
0	0x3dfe7651	0.12424911
1	0xbbb8b1e4	-0.0056364406
2	0xbc8ea72c	-0.017413698
3	0x3db23ab8	0.08702606
4	0x3e01dd5a	0.12682095
5	0xbd13ea2a	-0.036111988
6	0xbc83f845	-0.016109595
7	0x3d82e7f3	0.06391897
8	0xbbaec7ad	-0.005333862
9	0xbd75bad1	-0.059992615
10	0xbddcfe09	-0.10790641
11	0xbd6a1ab1	-0.05715436
12	0x3d0aea9b	0.033915143
13	0x3db5eead	0.088834144
14	0x3e024b82	0.12724116
15	0xbd4e13a6	-0.050311707
16	0xbc810e07	-0.01575376
17	0xbd30f9b0	-0.04320687
18	0x3d85e289	0.06537349
19	0xbda0885c	-0.078385085
20	0x3dfdff36	0.12402193
21	0xbdd668b0	-0.10469186
22	0x3d9ee824	0.07759121
23	0xbc7bc41e	-0.015366582
24	0x3d95ad6a	0.07308467
25	0x3db5fa94	0.088856846
26	0x3df4aa29	0.11946518
27	0xbcefca60	-0.029271305
28	0xbd9c2279	-0.07623763
29	0x3dc3f0b2	0.09567393
30	0x3d423bc2	0.04742027
31	0x3ce3427b	0.027741661
32	0xbd71b117	-0.059006777
33	0x3de7838e	0.11304389
34	0x3d651f7a	0.05593822
35	0x3c5e323f	0.013561784
36	0xbd772abc	-0.06034349
37	0x3d2f511f	0.042801972
38	0xbdb2457f	-0.087046616
39	0x3d131fc5	0.03591897
40	0xbdc4fce6	-0.09618549
41	0xbcaa4e47	-0.020789279
42	0xbcb6c41f	-0.022310315
43	0xbccd118f	-0.025032787
44	0xbdd6d06d	-0.10488973
45	0xbde35b3e	-0.111013874
46	0xbcd00bd6	-0.025396269
47	0x3ce07b0f	0.027402429
48	0x3dc16fd2	0.09445156
49	0x3dfbf90b	0.123033606
50	0x3d1e41f2	0.03863711
51	0xbdd4b58a	-0.10386188
52	0xbdf07110	-0.11740315
53	0xbd310ffa	-0.043228127
54	0xbd7c1bc9	-0.061549935
55	0x3ca13cf2	0.019682381
56	0xbd0ff168	-0.035142332
57	0xbd94d0c3	-0.07266381
58	0xbdc2559a	-0.094889835
59	0x3d18453a	0.037175395
60	0x3de0d708	0.10978514
61	0xbd720d46	-0.05909469
62	0xbde0acd9	-0.10970468
63	0x3df611d0	0.12015116
64	0xbda63ef6	-0.081174776
65	0x3d954489	0.07288463
66	0x3ce6046a	0.028078277
67	0x3dc435c7	0.0958057
68	0xbd4f36f3	-0.050589513
69	0x3d7e70c0	0.062119246
70	0x3d95bd31	0.07311476
71	0x3d94a9d4	0.07258955
72	0xbdbaaa40	-0.09114504
73	0x3d205600	0.039144516
74	0x3d93d516	0.07218377
75	0xbdc821b7	-0.097720556
76	0x3d8375d1	0.06418956
77	0x3d1b86c1	0.03797031
78	0xbcb2f8f9	-0.021847235
79	0xbb06c64a	-0.0020564967
80	0x3d287d10	0.041134894
81	0xbdd14fc6	-0.10220294
82	0xbcf0709e	-0.029350575
83	0xbdad23c7	-0.084540896
84	0xbd17498e	-0.03693538
85	0xbd89915b	-0.067171775
86	0xbd4684ab	-0.048466366
87	0x3dcfdac0	0.10149145
88	0x3dc7241f	0.097236864
89	0x3db98b53	0.09059777
90	0x3dc4ed99	0.09615631
91	0xbda39265	-0.07986907
92	0xbdd6a00d	-0.10479746
93	0x3bc1f11f	0.0059186365
94	0xbdbb6868	-0.09150773
95	0x3def0d7c	0.11672494
96	0x3dbc75ad	0.092021324
97	0x3d088666	0.033331297
98	0x3d24dcb3	0.040249538
99	0xbd5f3d7e	-0.054502003
100	0x3bcefa30	0.006316446
101	0x3c67514a	0.014118502
102	0x3d177614	0.036977842
103	0x3d072d36	0.0330021
104	0x3dfc22ef	0.123113506
105	0xbd467e0d	-0.048460055
106	0x3d93598a	0.071948126
107	0x3cae8022	0.021301333
108	0xbdc63cd8	-0.09679574
109	0x3d8b10c8	0.0679031
110	0x3dcdf44b	0.10056361
111	0x3e03dd47	0.1287738
112	0x3d060bcb	0.03272609
113	0xbc971864	-0.018444248
114	0xbd470a21	-0.048593644
115	0x3dc69312	0.0969602
116	0xbda8dc04	-0.0824509
117	0xbd9202e2	-0.07129456
118	0x3df24239	0.11829037
119	0x398e89ba	0.00027186965
120	0x3d90b897	0.07066458
121	0x3cb5e2ea	0.022202928
122	0xbd0d1f98	-0.03445396
123	0x3cb38d7d	0.021918053
124	0x3d9e88d3	0.07740941
125	0xba24286c	-0.0006262127
126	0xbc5eab45	-0.0135906385
127	0xbce6ec9c	-0.028188996
128	0xbe000fdd	-0.12506051
129	0x3d010067	0.031494524
130	0xbd1fe144	-0.03903319
131	0xbddbe736	-0.10737459
132	0x3dd7d205	0.10538105
133	0x3d6d0410	0.057865202
134	0x3bcd4c50	0.0062652007
135	0xbd7fbdd4	-0.062436894
136	0xbc704212	-0.01466419
137	0x3da93820	0.08262658
138	0xbd231c38	-0.039821833
139	0x3d852668	0.06501466
140	0xbb1befc6	-0.002379404
141	0x3de96186	0.11395554
142	0xbdfc8a93	-0.123311184
143	0x3d2ef696	0.04271563
144	0xbe00fab9	-0.12595643
145	0x3df55b46	0.119803
146	0x3d5482f1	0.051882688
147	0x3dcf215e	0.10113786
148	0x3cdb6cdd	0.026785308
149	0x3e030075	0.12793143
150	0x3e026325	0.12733133
151	0xbc0ddc92	-0.008658545
152	0x3dd854af	0.10563027
153	0x3d0a7e85	0.033812065
154	0xbdd59119	-0.10428066
155	0x3d7cd44a	0.061725892
156	0x3cd09a3b	0.025464168
157	0x3d96ad8b	0.073573194
158	0x3d00310e	0.031296782
159	0x3c25a70b	0.010110627
160	0xbd9276d3	-0.0715157
161	0x3d26d84f	0.04073363
162	0xbd04a709	-0.03238586
163	0x3d3a58f3	0.045494985
164	0x3e019261	0.12653495
165	0x3df3fdf0	0.11913669
166	0x3cb4ed25	0.022085736
167	0xbc2082e3	-0.009796831
168	0xbcb91bfa	-0.022596348
169	0x3dd13826	0.102157876
170	0x3d876a22	0.0661204
171	0xbb58c86a	-0.003307844
172	0x3dfa3983	0.12218001
173	0x3c5a5dfe	0.013328074
174	0x3df7ced7	0.120999984
175	0xbdb26f89	-0.0871268
176	0xbc31b410	-0.010846153
177	0x3e0075d3	0.12544946
178	0x3dfeac35	0.1243519
179	0x3d0554dd	0.032551635
180	0xbd279fb5	-0.040923793
181	0xbd747390	-0.05968052
182	0x3c63f85c	0.013914194
183	0x3ceec2a0	0.029145539
184	0xbdd9ef4d	-0.10641346
185	0x3d742bc9	0.05961207
186	0x3da4fdaf	0.08056199
187	0x3dea0066	0.11425857
188	0xbbb9c961	-0.005669758
189	0xbdfc3874	-0.12315455
190	0xbcd2d8ef	-0.025738208
191	0x3bbe8b34	0.005814934
192	0xbce8a544	-0.028399117
193	0x3ddce0d5	0.10785071
194	0xbd3ae7a4	-0.045631066
195	0xbaa267b0	-0.001239052
196	0xbdb42336	-0.087957785
197	0x3c35f45a	0.011105621
198	0xbd2b8cc6	-0.0418823
199	0xbd941c3c	-0.07231948
200	0x3dcacdf7	0.09902566
201	0x3d6bd134	0.05757256
202	0xbdbf3db0	-0.09337938
203	0xbde25ced	-0.110528804
204	0x3dac07d8	0.083999336
205	0x3d0c3e04	0.03423883
206	0x3c9e7c93	0.019346511
207	0x3d8266be	0.06367253
208	0x3c8d0265	0.017213056
209	0x3da9da9a	0.08293648
210	0x3d3cd2a6	0.046099328
211	0x3db058f3	0.08610716
212	0xbdb13e48	-0.08654457
213	0xbdd6d4d9	-0.10489816
214	0xbd7d2ab4	-0.061808303
215	0x3dbad846	0.09123282
216	0x3c89979e	0.01679593
217	0x3e01e32f	0.1268432
218	0x3dc62fe2	0.09677102
219	0x3d000e72	0.031263776
220	0x3d24df58	0.04025206
221	0x3da3b48c	0.07993421
222	0x3c4e1eb7	0.012580565
223	0x3da9a6e8	0.08283788
224	0x3d3858be	0.045006506
225	0xbde40b6d	-0.11134992
226	0x3d83ea8a	0.06441219
227	0x3db96540	0.09052515
228	0xbcc2f391	-0.023797782
229	0x3d6cbc0b	0.05779652
230	0xbd2b7fe3	-0.04187001
231	0x3d6e5fbc	0.05819677
232	0xbddf9ff6	-0.10919182
233	0x3d0e40f5	0.034729917
234	0xbc844e12	-0.016150508
235	0x3d988c73	0.074486636
236	0x3df3d679	0.11906142
237	0xbc1bb035	-0.00950246
238	0x3cbe60ba	0.023239482
239	0x3c0641b4	0.008194376
240	0xbc4313b0	-0.011906549
241	0xbd27dca4	-0.040981904
242	0x3c91d325	0.017800877
243	0xbdbb35eb	-0.091411434
244	0xbdb47bd6	-0.08812682
245	0xbd31bbcc	-0.043391988
246	0xbd816f25	-0.06320027
247	0x3d963a3c	0.07335326
248	0xbc882147	-0.01661743
249	0x3df78f9b	0.120879374
250	0x3d9b5fc7	0.075866275
251	0x3d097fdb	0.033569198
252	0xbc512722	-0.012765678
253	0x3d8b0fec	0.06790146
254	0x3bec0fa1	0.0072040115
255	0x3d5de349	0.054171834

convnet.module.0.bias f4 [16]
0	0xbc1c887a	-0.009554023
1	0x3ce445c4	0.027865298
2	0x3bd16189	0.006389801
3	0xbd9f294c	-0.07771549
4	0xbdd8eaab	-0.10591634
5	0x3d986b80	0.07442379
6	0x3df01dde	0.11724447
7	0xbb3096f4	-0.0026945444
8	0xbdaa2c02	-0.08309175
9	0xbba216ec	-0.00494658
10	0xbd2023e0	-0.039096713
11	0x3d9fd6dd	0.07804654
12	0x3df5d5c4	0.12003663
13	0x3d915f8d	0.07098303
14	0x3d9bc478	0.07605833
15	0x3d15cb48	0.036570817

fcn.module.0.weight f4 [32, 32]
0	0xb95f3c20	-0.00021289336
1	0x399422b4	0.00028254616
2	0x3e37c7b3	0.17947273
3	0x3e2ffc4e	0.1718609
4	0xbe126f21	-0.14300205
5	0xbe1ebf1d	-0.15502591
6	0x3dadc5b7	0.08484977
7	0x3d9f0927	0.077654175
8	0x3e105154	0.14093524
9	0x3e1ecdd5	0.15508206
10	0x3e1a8be9	0.15092434
11	0xbd4a75fe	-0.049428932
12	0x3dab6f2b	0.08370813
13	0xbdc45c42	-0.09587909
14	0xbdec2e25	-0.11532239
15	0xbcd797b0	-0.026317447
16	0x3d52f532	0.051503368
17	0x3e0cc9d3	0.13748865
18	0xbdbad2bf	-0.09122228
19	0xbdd37b8f	-0.10326301
20	0xbe1dc911	-0.15408732
21	0x3c27423c	0.010208663
22	0x3d8be0bf	0.06829976
23	0xbdd40174	-0.1035184
24	0xbdbfeae0	-0.09370971
25	0x3d2fde22	0.04293645
26	0x3e2a5992	0.16635731
27	0xbc2131da	-0.009838546
28	0x3a8832c8	0.001039111
29	0x3d953d4e	0.072870836
30	0xbe26a2cb	-0.16273038
31	0x3da6497d	0.081194855
32	0xbe26e0e4	-0.16296726
33	0x3df99cbd	0.121880986
34	0xbe1523ae	-0.14564392
35	0x3de1b8f8	0.11021608
36	0xbd825bb3	-0.063651465
37	0xbcbfe285	-0.023423443
38	0xbc5f663d	-0.013635215
39	0x3e20040a	0.15626541
40	0xbe0a6fa7	-0.13519154
41	0x3caa82f9	0.020814406
42	0xbc05890d	-0.008150351
43	0x3d18c43d	0.037296522
44	0x3e3165a7	0.17323934
45	0x3d72aac3	0.059244882
46	0xbe173099	-0.14764632
47	0x3db5a9df	0.08870291
48	0xbd19da98	-0.037561983
49	0xbe2b8513	-0.16749983
50	0x3e0a90f7	0.13531862
51	0x3ddd9924	0.10820225
52	0xbe32b54d	-0.17451973
53	0xbdf6249d	-0.12018702
54	0x3e2036a1	0.1564584
55	0xbda486ab	-0.080334984
56	0x3e0a56a9	0.1350962
57	0x3e2fe031	0.17175366
58	0x3e2d84bd	0.16945167
59	0x3e0f986d	0.1402299
60	0x3e2bc614	0.1677478
61	0x3d840e1b	0.06448003
62	0x3da18676	0.078869745
63	0x39e31817	0.00043314762
64	0xbc08d98c	-0.0083526485
65	0xbe042c3a	-0.12907496
66	0xbdcf97cd	-0.101363756
67	0x3e06a52e	0.13148949
68	0xbd960f6e	-0.07327162
69	0x3d8efae5	0.06981448
70	0x3e0749b1	0.13211705
71	0x3d5aa92a	0.053383984
72	0xbda7ebf8	-0.08199304
73	0x3e2819d7	0.16416107
74	0xbe2e9563	-0.17049174
75	0xbd681152	-0.056657143
76	0x3dfd1b49	0.1235872
77	0x3d901a75	0.07036296
78	0xbdbfca07	-0.093647055
79	0xbe348bde	-0.1763148
80	0x3ddfbd2d	0.10924754
81	0x3ce065f2	0.027392361
82	0x3e25f6ab	0.16207378
83	0xbdbc68a1	-0.09199644
84	0xbd1e3fe0	-0.038635135
85	0xbe1924b0	-0.14955401
86	0xbe3967c6	-0.18105993
87	0x3e0ffbd3	0.14060907
88	0xbcf309a3	-0.029667681
89	0x3d972f66	0.073820874
90	0xbe225572	-0.15852907
91	0x3d0c9d6b	0.034329813
92	0xbc1ceb2d	-0.009577555
93	0x3df57fa7	0.119872384
94	0xbdc9359f	-0.098246805
95	0xbd66fbbd	-0.05639242
96	0xbd932be6	-0.07186107
97	0xbc82cb10	-0.015965968
98	0xbe160925	-0.14651926
99	0xbe047706	-0.12936029
100	0x3db4f99a	0.0883667
101	0x3e041173	0.12897281
102	0xbd4fea18	-0.05076036
103	0x3dd3f30e	0.103490934
104	0xbc93fec8	-0.018065825
105	0x3dfc5bd6	0.12322204
106	0xbdc9e6be	-0.09858464
107	0x3be819e0	0.0070831627
108	0x3dd6796e	0.104723796
109	0xbdb1953e	-0.08671044
110	0xbe08ca0c	-0.13358325
111	0xbc97cde0	-0.018530786
112	0x3e13424b	0.14380758
113	0xbda29262	-0.079380766
114	0xbe2130f8	-0.15741336
115	0x3d7f6c94	0.062359408
116	0xbe134e1f	-0.1438527
117	0xbc99e1b8	-0.018784389
118	0xbe319f27	-0.17345868
119	0x3dd76b3e	0.10518502
120	0xbdab859e	-0.08375095
121	0xbe347d7e	-0.17625996
122	0x3df4ac96	0.11946981
123	0x3d41edfc	0.0473461
124	0xbd01cc88	-0.031689197
125	0xbd4fcd70	-0.05073303
126	0xbde9ae81	-0.11410237
127	0xbd696a5e	-0.056986205
128	0x3dd18baa	0.10231717
129	0xbe1ee159	-0.15515651
130	0xbe102b47	-0.14079009
131	0x3d67e40e	0.056613974
132	0x3dda6281	0.106633194
133	0x3da81b36	0.08208315
134	0x3e30fd9d	0.17284246
135	0xbd25e908	-0.04050544
136	0x3cf16ee8	0.02947183
137	0x3ce5ca69	0.028050618
138	0xbd0eabcb	-0.034831803
139	0x3c345a50	0.01100786
140	0x3e1cd3f2	0.15315226
141	0xbe1ac562	-0.15114358
142	0xbd29e53e	-0.041478388
143	0x3bbf00eb	0.005828967
144	0x3da669cc	0.08125648
145	0xbe26d6f0	-0.1629293
146	0xbdf50099	-0.119630046
147	0xbd01e248	-0.03170994
148	0xbd7e17d5	-0.062034447
149	0xbe00ca35	-0.12577136
150	0x3da3aaf3	0.0799159
151	0xbd8ade15	-0.0678064
152	0x3e24a66a	0.16079107
153	0xbdac3593	-0.08408656
154	0x3dcdf543	0.100565456
155	0x3ddba7d8	0.10725373
156	0x3e250087	0.16113482
157	0xbd5572c1	-0.05211139
158	0xbdd4ae59	-0.10384817
159	0x3d8fca48	0.07021004
160	0x3cd6f34e	0.026239064
161	0xbd2e73a9	-0.04259077
162	0xbd6edd4a	-0.058316506
163	0x3e0b2834	0.13589555
164	0xbb592360	-0.0033132657
165	0x3e0ad420	0.13557482
166	0x3d6f7b7f	0.058467384
167	0xbe114557	-0.14186607
168	0x3d828abf	0.0637412
169	0x3dd077f3	0.101791285
170	0x3ddfab92	0.10921396
171	0x3bf192ba	0.0073722275
172	0xbcc0be28	-0.023528174
173	0xbe152c34	-0.14567643
174	0x3c498a0a	0.0123009775
175	0xbc6bdaf0	-0.0143954605
176	0xbbc70691	-0.006073781
177	0x3d8ed8ee	0.0697497
178	0xbd20e7d5	-0.039283592
179	0xbd4feac9	-0.050761018
180	0xbc4e4aaa	-0.0125910435
181	0xbe067d86	-0.13133821
182	0x3cede4ea	0.029039819
183	0x3e26a3d6	0.16273436
184	0xbdaae1ee	-0.08343874
185	0x3e03042d	0.12794562
186	0x3d138490	0.036015093
187	0xbd84fb9d	-0.06493304
188	0x3da8e83d	0.08247421
189	0xbb11e8d0	-0.0022264011
190	0xbdbfb5f4	-0.09360877
191	0x3da59de3	0.08086755
192	0xbdea167c	-0.1143007
193	0xbdda355f	-0.10654711
194	0x3cf70980	0.030155897
195	0x3e09d2f2	0.13459376
196	0x3d8c7687	0.06858545
197	0xbe04d7c8	-0.12972939
198	0x3d6789fe	0.056528084
199	0xbd8c4715	-0.06849495
200	0xbe24ed63	-0.16106181
201	0x3e290036	0.16503987
202	0xbdc6d072	-0.097077265
203	0x3da9b9cf	0.08287393
204	0xbe0d6127	-0.13806592
205	0xbda677c1	-0.0812831
206	0x3e337d5c	0.1752829
207	0x3ce72ec7	0.028220547
208	0xbc9c3e66	-0.019072723
209	0x3df30087	0.11865335
210	0x3cbaa000	0.022781372
211	0xbd2a48f8	-0.041573495
212	0x3e14827b	0.145029
213	0xbdf17771	-0.1179036
214	0xbe0e8cc6	-0.13920888
215	0xbe100887	-0.14065753
216	0x3dc85e29	0.097835846
217	0xbd88b370	-0.0667485
218	0xbe215182	-0.15753749
219	0xbe2e5275	-0.17023642
220	0x3df7b9c2	0.12095977
221	0x3c10da07	0.008841044
222	0x3dffd847	0.124924235
223	0xbdf01192	-0.11722101
224	0x3dc76f3f	0.097380154
225	0x3e118425	0.14210565
226	0x3e0a52f4	0.13508207
227	0xbe1c62fe	-0.15272138
228	0x3ddf7755	0.10911433
229	0x3e38bc5c	0.18040603
230	0x3df3e3f2	0.119087115
231	0xbd926665	-0.071484365
232	0x3e3399fd	0.1753921
233	0x3dce0143	0.100588344
234	0x3d14397c	0.036187634
235	0x3caf3e87	0.02139212
236	0xbdaf26b6	-0.085523054
237	0xbdc4e60c	-0.096141905
238	0x3deeac61	0.116539724
239	0x3cb44c8f	0.022009162
240	0xbe26617f	-0.1624813
241	0x3dd1c5c0	0.10242796
242	0x3e389d9f	0.18028878
243	0x3e0108fd	0.12601085
244	0xbd4a769e	-0.04942953
245	0xbd4f54c0	-0.050617933
246	0x3e13d753	0.14437608
247	0xbdad51e8	-0.08462888
248	0x3d681f84	0.05667068
249	0x3d5ba87e	0.053627484
250	0xbde5cdd5	-0.112209
251	0xbe28cca3	-0.16484313
252	0x3e358365	0.17725904
253	0x3da6a827	0.08137541
254	0x3cdb00c6	0.026733767
255	0x3debfa4c	0.1152235

fcn.module.0.bias f4 [32]
0	0xbd57980f	-0.05263525
1	0xbd82e31d	-0.06390975
2	0x3df0de52	0.11761154
3	0xbd9709ae	-0.07374893
4	0xbb5bc32b	-0.0033533077
5	0xbe10b11c	-0.14130062
6	0xbe08dd87	-0.13365756
7	0xbdd3135b	-0.10306426
8	0xbc886060	-0.016647518
9	0xbce7034c	-0.028199814
10	0xbe093cf1	-0.13402154
11	0x3db4e2fe	0.08832358
12	0x3df71c02	0.12065889
13	0x3e06d92e	0.13168785
14	0x3de312e5	0.11087588
15	0xbdf28f99	-0.11843795
16	0xbd583a4f	-0.052789982
17	0x3cfa0485	0.030519733
18	0xbe26570f	-0.16244148
19	0xbc869a8f	-0.016431121
20	0x3df7ff9a	0.12109299
21	0x3cbcda90	0.023053437
22	0x3df664a1	0.12030912
23	0xbde16507	-0.110055976
24	0x3df3c061	0.11901928
25	0xbdca7bf1	-0.09886921
26	0x3de8d1c3	0.11368134
27	0xbe31ee11	-0.17375971
28	0x3da4bf0c	0.08044252
29	0x3d462854	0.048378304
30	0xbe044dfd	-0.12920375
31	0x3d48f107	0.049057987

fcn.module.3.weight f4 [10, 32]
0	0xbd22a28a	-0.03970579
1	0x3d12e6d7	0.035864677
2	0xbc488003	-0.012237552
3	0x3dd1390e	0.102159604
4	0xbe1a3bbf	-0.15061854
5	0xbc78ba68	-0.015181161
6	0x3dcefc67	0.10106736
7	0x3d4798c4	0.048729673
8	0x3df157f4	0.11784354
9	0xbd8968e2	-0.06709458
10	0x3e1f0b01	0.15531541
11	0x3e226521	0.1585889
12	0x3cc2e8f3	0.02379272
13	0x3c6355ee	0.013875468
14	0xbca0224d	-0.019547606
15	0xbdbf8ead	-0.09353385
16	0x3cf572c4	0.029961951
17	0xbe0b7a2d	-0.13620825
18	0x3dd8e75f	0.105910055
19	0xbd924aaa	-0.07143147
20	0x3df7df2e	0.12103115
21	0xbde881b1	-0.11352862
22	0xbd8bbc97	-0.0682308
23	0xbde51c1c	-0.11187002
24	0x3dafcb53	0.08583703
25	0x3e27494f	0.16336559
26	0x3c97bd10	0.01852277
27	0xbd369f60	-0.044585586
28	0x3dce972b	0.10087427
29	0x3dce874a	0.10084398
30	0xbd78f7b8	-0.060783118
31	0x3da031b7	0.07821982
32	0x3e34496c	0.17606133
33	0x3d0e4ac0	0.034739256
34	0xbd141558	-0.036153167
35	0xbda1069a	-0.07862587
36	0xbe1e45a5	-0.15456255
37	0x3d0945cf	0.03351384
38	0xbe259ad4	-0.16172343
39	0xbd65ecc8	-0.056134015
40	0x3d6f385f	0.05840337
41	0xbdbac772	-0.091200724
42	0x3cea7cd8	0.028623983
43	0xbe183753	-0.14864855
44	0x3dd22750	0.102614045
45	0x3dc53d5b	0.09630843
46	0xbd3dcf9b	-0.046340566
47	0x3d966248	0.073429644
48	0x3e130f87	0.14361392
49	0x3e140287	0.14454089
50	0x3e2ded10	0.16984963
51	0xbccd6b81	-0.025075676
52	0xbccc9790	-0.024974614
53	0xbd17fd1f	-0.03710663
54	0xbe1b258b	-0.1515104
55	0x3dc9067e	0.098156914
56	0xbbfb7358	-0.007673662
57	0xbd75137c	-0.059833035
58	0xbd8e58e3	-0.069505475
59	0xbde5e082	-0.11224462
60	0xbdbed07e	-0.093171105
61	0xbe13aa3b	-0.14420407
62	0xbe231e40	-0.15929508
63	0xbcec5231	-0.028847786
64	0x3d9b3d52	0.07580055
65	0xbbadf512	-0.0053087557
66	0x3dbfe5bc	0.0936999
67	0xbd8d12f3	-0.0688838
68	0x3d3f82cd	0.0467556
69	0xbc6ca26b	-0.01444302
70	0xbdd7aac4	-0.10530618
71	0x3dd93bf6	0.1060714
72	0xbd6e98b0	-0.058251083
73	0x3d45ee1a	0.048322774
74	0xbc397af0	-0.0113208145
75	0xbdc6244b	-0.09674891
76	0x3d9f241b	0.077705584
77	0xbdbf3236	-0.09335749
78	0x3e041cf7	0.12901674
79	0xbd553d19	-0.05206022
80	0xbddfbe63	-0.10924985
81	0xbe251739	-0.1612214
82	0xbd0304bb	-0.031986933
83	0xbb36a90c	-0.0027871756
84	0xbbd62440	-0.006535083
85	0x3d839253	0.064243935
86	0x3e285176	0.16437325
87	0x3d9ef06e	0.07760702
88	0x3e1589c7	0.14603339
89	0xbe2fb6c5	-0.17159565
90	0x3e28391f	0.1642804
91	0x3c59ab30	0.013285443
92	0xbc6547dc	-0.013994183
93	0x3d9b3fae	0.07580505
94	0xbd4726f8	-0.048621148
95	0xbd4ccf23	-0.05000223
96	0x3df36fb0	0.11886537
97	0xbd8d0ab4	-0.06886807
98	0x3e384dcd	0.17998429
99	0xbdc1e9bf	-0.09468412
100	0xbd3167b5	-0.043311793
101	0x3e36e79a	0.17861786
102	0x3e2e2a95	0.17008431
103	0x3db9c6c3	0.09071114
104	0x3e13e154	0.14441425
105	0x3e01632f	0.12635492
106	0xbd93f35b	-0.07224151
107	0x3dc69a06	0.096973464
108	0xbe241f5c	-0.16027588
109	0xbe291420	-0.16511583
110	0x3df69b32	0.1204132
111	0x3d64a7ff	0.055824276
112	0x3d8e5373	0.069495104
113	0x3d64729c	0.055773363
114	0x3d89040f	0.06690227
115	0xbe2640d0	-0.16235662
116	0xbdfdbadc	-0.12389156
117	0x3e311539	0.17293252
118	0xbc85862a	-0.016299326
119	0x3daeb45a	0.08530493
120	0xbe204025	-0.15649469
121	0x3db36486	0.08759408
122	0xbe1838e0	-0.14865446
123	0xbe227398	-0.15864408
124	0xbe2aee69	-0.16692509
125	0x3dc959f2	0.09831609
126	0xbe038fd3	-0.12847833
127	0xbdf4c103	-0.119508766
128	0xbd07e89a	-0.03318081
129	0xbdc4b37f	-0.09604549
130	0xbdd93535	-0.106058516
131	0x3e0b77d9	0.13619937
132	0x3dc6cbb9	0.09706826
133	0xbdcedee2	-0.10101105
134	0x3d96d28a	0.07364376
135	0xbd00f28f	-0.031481322
136	0xbcdd367e	-0.027003523
137	0xbd6ab265	-0.057299037
138	0x3dc9c9f6	0.09852974
139	0xba288700	-0.0006428808
140	0x3dad4d0c	0.08461961
141	0xbda0484b	-0.07826289
142	0xbd8f2f09	-0.06991393
143	0x3e280bf9	0.16410817
144	0x3d549f6c	0.05190985
145	0x3da43822	0.08018519
146	0xbd017048	-0.03160122
147	0xbd73e7f9	-0.0595474
148	0xbe25839c	-0.16163486
149	0x3d41c5bd	0.04730772
150	0x3dcc08cb	0.099626146
151	0x39eaa000	0.00044751167
152	0x3e13f632	0.14449385
153	0xbe3259eb	-0.17417113
154	0xbdde3326	-0.108495995
155	0xbd923806	-0.07139592
156	0x3df90424	0.12158993
157	0x3dcb3a82	0.09923269
158	0xbd44cf06	-0.048048995
159	0x3e21af21	0.15789463
160	0xbd40a201	-0.0470295
161	0xbd951dc3	-0.07281067
162	0x3d85f30c	0.06540498
163	0x3df0219e	0.11725162
164	0x3e0014e2	0.12507966
165	0xbddab53e	-0.106791005
166	0x3d0c0f97	0.034194555
167	0x3e34cd79	0.17656507
168	0x3d7f17d1	0.062278572
169	0xbe21f7c1	-0.15817167
170	0xbe1cd37f	-0.15315054
171	0xbc3e7f20	-0.011626989
172	0x3d4dea9b	0.050272565
173	0x3dc5e8f0	0.0966357
174	0xbda94294	-0.08264652
175	0x3d840687	0.064465575
176	0xbc5a0083	-0.013305786
177	0xbbceee2f	-0.006315015
178	0xbd23292c	-0.039834186
179	0x3d995628	0.07487136
180	0xbc50cbe0	-0.01274392
181	0x3cc6690e	0.024220016
182	0xbdfd72ae	-0.12375389
183	0xbd875cf0	-0.06609523
184	0xbd9ae2ee	-0.07562815
185	0xbd684442	-0.05670572
186	0xbcd7f67b	-0.026362648
187	0xbd39fd40	-0.045407534
188	0xbda67647	-0.08128028
189	0x3d7e5e64	0.062101737
190	0x3e39cd74	0.1814478
191	0x3e2a6dff	0.16643523
192	0xbd101688	-0.035177737
193	0x3dc81024	0.097687036
194	0xbdcda66b	-0.10041507
195	0x3d10dbc4	0.035365835
196	0xbd79eee9	-0.061018858
197	0x3d7a5206	0.06111338
198	0xbd9fa681	-0.0779543
199	0x3e04a34d	0.1295292
200	0x3e211b3f	0.1573305
201	0xbde78a41	-0.11305667
202	0xbe23212a	-0.1593062
203	0xbc017a40	-0.007902682
204	0x3de5b804	0.11216739
205	0x3d652866	0.05594673
206	0x3debe3c8	0.11518055
207	0xbdb32d9e	-0.08748935
208	0x3e091521	0.13386966
209	0xbe214021	-0.1574712
210	0x3da9d354	0.08292261
211	0xbcaedd50	-0.021345764
212	0xbd85c8c6	-0.06532435
213	0xbe24c385	-0.1609021
214	0x3d87fd1f	0.06640076
215	0xbe03662a	-0.12831941
216	0x3e0a9eee	0.1353719
217	0x3ce399a8	0.02778323
218	0x3d00b4e6	0.03142252
219	0x3dcc15ce	0.099650964
220	0x3dfa452f	0.12220227
221	0x3e08064b	0.1328365
222	0x3d9a3418	0.07529467
223	0x3e0e495e	0.13895175
224	0xbe19ade2	-0.15007737
225	0x3e1b07f6	0.15139756
226	0xbe2562dc	-0.16150993
227	0xbd998800	-0.07496643
228	0x3dc79b96	0.097464725
229	0xbda7efa0	-0.08200002
230	0x3d0a9c9a	0.033840753
231	0xbd9eafcc	-0.07748374
232	0xbda1ce84	-0.07900718
233	0x3d97f537	0.07419818
234	0x3e274439	0.16334619
235	0xbd430bc4	-0.047618642
236	0xbe11896a	-0.14212576
237	0x3e2605bf	0.1621313
238	0x3d563f65	0.05230655
239	0x3e357117	0.17718922
240	0x3e35e6ac	0.17763776
241	0x3dcb8dfb	0.0993919
242	0x3e00c202	0.12574008
243	0xbded9ff5	-0.11602775
244	0x3e2dce15	0.16973145
245	0xbdaa4d84	-0.08315566
246	0x3de3be11	0.11120237
247	0xbe32b13c	-0.17450422
248	0x3c170a66	0.009218788
249	0xbde6cf99	-0.11270065
250	0xbce2a0c7	-0.027664555
251	0x3e15db7d	0.1463451
252	0x3d6eb65d	0.058279384
253	0x3cef50d8	0.029213354
254	0x3e0c0a2d	0.13675757
255	0x3e066c3e	0.13127229

fcn.module.3.bias f4 [10]
0	0xbdd8c4cc	-0.10584411
1	0x39f5991c	0.00046844117
2	0x3d95fc87	0.073235564
3	0x3d2b1987	0.04177239
4	0x3e07421c	0.13208812
5	0x3d855fce	0.06512414
6	0x3e21746e	0.1576707
7	0xbe220639	-0.15822686
8	0xbd0f219f	-0.034944173
9	0x3c5ae92e	0.013361258

exp_avg f4 [16, 4, 16]
0	0xbb1af1d9	-0.0023642688
1	0xba544c6d	-0.00080985465
2	0xba940f26	-0.0011296018
3	0xbb2c12c4	-0.0026256302
4	0xbb304504	-0.0026896605
5	0xbad6c320	-0.0016385056
6	0xbac8e29c	-0.0015326324
7	0xbb0dc88f	-0.0021634435
8	0xbac83c7c	-0.0015276815
9	0xba67a86f	-0.0008837049
10	0xba26a240	-0.00063565746
11	0xba85d073	-0.0010209217
12	0xbada0263	-0.0016632791
13	0xbb177f73	-0.0023116737
14	0xbb4fe430	-0.0031721704
15	0xba5f4616	-0.00085172185
16	0xba4403e9	-0.00074773893
17	0xba31d22f	-0.0006783334
18	0xbaf6d825	-0.0018832727
19	0xba790ac8	-0.0009500203
20	0xbb320c05	-0.0027167809
21	0xba1fd474	-0.00060970266
22	0xbb51e834	-0.0032029273
23	0xba921d90	-0.0011147726
24	0xbb397ac0	-0.0028301924
25	0xbb2ff675	-0.002684978
26	0xbb619502	-0.003442109
27	0xbad9f983	-0.0016630146
28	0xba4dd553	-0.0007851917
29	0xbb2aed97	-0.0026081556
30	0xbade10e5	-0.0016942291
31	0xbac5a9bd	-0.0015080493
32	0xba5b5d6e	-0.0008368109
33	0xbb234a61	-0.002491616
34	0xbaf9ba6f	-0.0019052754
35	0xbb039b99	-0.0020081757
36	0xba260c89	-0.00063342653
37	0xbb32b45a	-0.0027268142
38	0xba7bb4c6	-0.00096018275
39	0xbac8c533	-0.0015317559
40	0xba797df4	-0.00095173647
41	0xbadedcdd	-0.0017003078
42	0xbab7496e	-0.0013983676
43	0xbacddb4b	-0.0015705613
44	0xba298154	-0.000646611
45	0xba3d2d31	-0.0007216512
46	0xba70c18f	-0.0009184116
47	0xbac20a54	-0.0014804103
48	0xbb253724	-0.0025209868
49	0xbb232f4b	-0.0024900015
50	0xbacb60ed	-0.0015516557
51	0xba684117	-0.0008859797
52	0xb9e16941	-0.00042993765
53	0xbac3ec99	-0.0014947831
54	0xba4aea87	-0.0007740636
55	0xbad98ec8	-0.0016598338
56	0xba9811b3	-0.0011601954
57	0xba9d64ac	-0.0012008152
58	0xba823e19	-0.000993672
59	0xbb112eb4	-0.0022153081
60	0xbb5d2a79	-0.003374724
61	0xba5923fd	-0.0008283256
62	0xba339134	-0.0006849945
63	0xbb2c55c6	-0.0026296242
64	0xba1b0782	-0.00059138995
65	0xbabc04ab	-0.0014344653
66	0xba9bece5	-0.0011896162
67	0xbaa6ad02	-0.0012716355
68	0xba810221	-0.0009842553
69	0xbaed8411	-0.0018121024
70	0xba9f81ed	-0.0012169458
71	0xba63e7fc	-0.0008693931
72	0xb9d0b5c0	-0.00039808266
73	0xba5ab319	-0.00083427277
74	0xba81f109	-0.0009913753
75	0xba0d5f0a	-0.0005392885
76	0xbac86b3a	-0.0015290745
77	0xba754b57	-0.0009357235
78	0xba2333d3	-0.0006225679
79	0xba1f5fcd	-0.0006079644
80	0xba8bad16	-0.0010656442
81	0xb9c88b48	-0.00038250745
82	0xba99f95b	-0.0011747287
83	0xba1be865	-0.000594741
84	0xbaa88ed1	-0.0012859945
85	0xba093f14	-0.00052355346
86	0xb9d37d3d	-0.00040338366
87	0xbab65eec	-0.0013913787
88	0xba758413	-0.0009365689
89	0xbae01cda	-0.0017098442
90	0xbab9fc9d	-0.0014189665
91	0xba2e8229	-0.00066569686
92	0xb9d668d5	-0.00040895367
93	0xba833899	-0.0010011374
94	0xba4f649e	-0.00079114165
95	0xba837f49	-0.0010032441
96	0xbac4cce6	-0.0015014678
97	0xba9f4ca9	-0.0012153584
98	0xba67ebb4	-0.0008847073
99	0xb9fa0633	-0.00047688335
100	0xba9746d2	-0.0011541492
101	0xba687222	-0.0008867105
102	0xba504ef0	-0.0007946333
103	0xba5a3e9a	-0.00083253684
104	0xbad5911e	-0.0016293859
105	0xba0320ae	-0.0005002123
106	0xba9265b9	-0.0011169232
107	0xbac7602b	-0.0015211155
108	0xba27bc8b	-0.00063986395
109	0xbaa9466f	-0.0012914668
110	0xbacf2d57	-0.0015806359
111	0xbad90809	-0.0016558181
112	0xba634d43	-0.00086708757
113	0xba823039	-0.0009932584
114	0xba4b908a	-0.00077653734
115	0xbadc819d	-0.0016823296
116	0xba1d9938	-0.0006011906
117	0xba528f64	-0.0008032231
118	0xbad31ba8	-0.0016106265
119	0xba74644f	-0.00093228085
120	0xba8b23c6	-0.001061552
121	0xba809da2	-0.0009812603
122	0xba02a1ff	-0.0004983246
123	0xbaaa539d	-0.0012994889
124	0xbabdc0aa	-0.0014476974
125	0xba50ff51	-0.00079726154
126	0xba872acf	-0.001031244
127	0xba46da4f	-0.0007585631
128	0xb7dec916	-2.65581e-05
129	0x3916d7d5	0.00014385518
130	0x383c032f	4.4825658e-05
131	0x39029e9d	0.00012456854
132	0xb96cd0ce	-0.000225845
133	0xb880af70	-6.1361934e-05
134	0x37949149	1.7710629e-05
135	0xb8a25157	-7.739913e-05
136	0xb946f69f	-0.00018974625
137	0xb927656d	-0.00015964145
138	0x38771058	5.890461e-05
139	0xb93cd1d6	-0.00018007247
140	0xb95aba1a	-0.00020859428
141	0xb9a7eb98	-0.00032028253
142	0x393bcffb	0.00017911188
143	0xb9d84960	-0.000412534
144	0x379d5ebb	1.875997e-05
145	0xb99428fa	-0.0002825929
146	0xb89b0efd	-7.393768e-05
147	0xba058382	-0.00050931436
148	0x38a15449	7.6927776e-05
149	0xb8c5c915	-9.4311465e-05
150	0xba0d0008	-0.0005378728
151	0xb96afc9d	-0.00022410085
152	0xba0b7068	-0.0005319179
153	0xb8b9063a	-8.822647e-05
154	0x38a17e04	7.7005505e-05
155	0x375bdbd5	1.3104601e-05
156	0x3961adb9	0.00021522389
157	0xb9b06f37	-0.00033652197
158	0x3537c77f	6.846312e-07
159	0xb8708587	-5.7344816e-05
160	0xb804457f	-3.1535976e-05
161	0x3872be67	5.7874622e-05
162	0xb894dd9c	-7.098468e-05
163	0xb931cca1	-0.00016956266
164	0xb9fb3b70	-0.00047918735
165	0xba05d4ed	-0.0005105276
166	0x384ecde7	4.930599e-05
167	0x37f0533c	2.8648989e-05
168	0x38bd2b7a	9.0203204e-05
169	0xb98456da	-0.0002524171
170	0xb9b29301	-0.00034060332
171	0xb883bc88	-6.2816835e-05
172	0xba22ed45	-0.00062151655
173	0xb708ab2f	-8.1460885e-06
174	0xba31bd02	-0.00067801785
175	0x384e55e7	4.919423e-05
176	0xb9f7aa57	-0.00047238424
177	0xb9e1e46c	-0.00043085532
178	0xb9d7ceec	-0.00041162164
179	0x3832a2d1	4.259014e-05
180	0x38f41463	0.00011638624
181	0x3921fc9a	0.00015448258
182	0xb82b639e	-4.0862353e-05
183	0xb97a787a	-0.00023886739
184	0x38fb1e3e	0.00011974246
185	0xb73fd1e4	-1.1433356e-05
186	0xb9a0f837	-0.00030702513
187	0xb993d081	-0.00028193372
188	0x38d85c24	0.00010316845
189	0x3920acf3	0.00015323218
190	0xb762724b	-1.3497261e-05
191	0xb8bee971	-9.103388e-05
192	0xba31a444	-0.00067764916
193	0xbae600de	-0.0017547866
194	0xb9a4b4fb	-0.00031415359
195	0xba2aa59e	-0.0006509664
196	0xba69b372	-0.0008914984
197	0xba9c826d	-0.0011940725
198	0xba841887	-0.001007811
199	0xb9acb71b	-0.0003294282
200	0xbb03dade	-0.0020119469
201	0xba4637e2	-0.0007561428
202	0xb996e329	-0.00028779477
203	0xb9bcb9f8	-0.00035996712
204	0xba9c100e	-0.001190664
205	0xba604fae	-0.0008556795
206	0xba7d5522	-0.000966387
207	0xba703193	-0.00091626606
208	0xba767820	-0.00094020553
209	0xbaa629b9	-0.0012677229
210	0xba9c2ee6	-0.0011915832
211	0xbaa6334f	-0.0012680086
212	0xba6daf0a	-0.00090669154
213	0xb98c697e	-0.0002678148
214	0xba2fa067	-0.0006699622
215	0xba826045	-0.0009946903
216	0xba0e961a	-0.0005439237
217	0xbaa1a19e	-0.0012331491
218	0xbad1ce72	-0.001600696
219	0xba8e86ac	-0.0010873876
220	0xba20aa79	-0.0006128918
221	0xba91973d	-0.0011107695
222	0xb9e391d0	-0.00043405453
223	0xba9700cb	-0.0011520622
224	0xbaa55a46	-0.0012615405
225	0xb92c0f4e	-0.000164089
226	0xbaa6cc80	-0.0012725741
227	0xbab9f46d	-0.0014187224
228	0xba9b0fc8	-0.0011830265
229	0xbabb23ff	-0.0014277695
230	0xba8ee2f9	-0.0010901383
231	0xba64f184	-0.00087334984
232	0xb996cb8f	-0.00028761892
233	0xba0681ec	-0.0005131054
234	0xb9edb9e6	-0.00045342668
235	0xbab361cc	-0.0013685762
236	0xbab397f3	-0.0013701901
237	0xba0994f3	-0.00052483304
238	0xba813e7a	-0.0009860538
239	0xba3b4dea	-0.0007145094
240	0xba47aab4	-0.00076166843
241	0xb9ee4547	-0.00045446513
242	0xba622a55	-0.0008627524
243	0xb99f0d15	-0.0003033659
244	0xba2cf995	-0.000659847
245	0xba44fa0c	-0.00075140665
246	0xba64e439	-0.00087315176
247	0xbabd3703	-0.001443595
248	0xba511449	-0.000797574
249	0xba953f4c	-0.0011386662
250	0xbaaa481b	-0.001299146
251	0xba584db4	-0.0008251325
252	0xb9f50245	-0.00046731732
253	0xba96b446	-0.0011497817
254	0xbaa47053	-0.0012545682
255	0xba60fa8d	-0.0008582257

exp_avg_sq f4 [16, 4, 16]
0	0x341ac979	1.4415663e-07
1	0x329010f6	1.677152e-08
2	0x33114712	3.382508e-08
3	0x344dac6d	1.9154841e-07
4	0x34461a45	1.8449744e-07
5	0x3392ba1e	6.832509e-08
6	0x33861f7d	6.245589e-08
7	0x33f95b9d	1.16116304e-07
8	0x33815b03	6.0235855e-08
9	0x32ae93b3	2.0323432e-08
10	0x3259d5c4	1.2679667e-08
11	0x32f00a6c	2.7944417e-08
12	0x33968da0	7.010681e-08
13	0x34156c77	1.3916166e-07
14	0x34873e9a	2.5191258e-07
15	0x32a4a6be	1.9167938e-08
16	0x3299353c	1.7835752e-08
17	0x32608f5c	1.3071112e-08
18	0x33bf82d9	8.9179316e-08
19	0x32c74b50	2.3200897e-08
20	0x34459be7	1.8403772e-07
21	0x3247b784	1.1625051e-08
22	0x3487ab20	2.527022e-07
23	0x331230c3	3.4037622e-08
24	0x345455ce	1.9775254e-07
25	0x344c6deb	1.9038968e-07
26	0x349d8028	2.9336775e-07
27	0x33a17205	7.517887e-08
28	0x328879ac	1.5887814e-08
29	0x34363ff9	1.6973344e-07
30	0x3399c530	7.160486e-08
31	0x338066ea	5.9791844e-08
32	0x3298b108	1.7775633e-08
33	0x342ae6c1	1.5916432e-07
34	0x33c7eb1a	9.309424e-08
35	0x33dca63a	1.0274785e-07
36	0x323a63c8	1.0849313e-08
37	0x344c0f8b	1.9004635e-07
38	0x32c8a340	2.3357302e-08
39	0x33873c2b	6.297372e-08
40	0x32c7ce71	2.3260528e-08
41	0x339bab1d	7.248875e-08
42	0x3366974e	5.368866e-08
43	0x3394cc01	6.928895e-08
44	0x3243595e	1.1370814e-08
45	0x3271d15a	1.4075647e-08
46	0x32dd5fa8	2.5771286e-08
47	0x337a58ad	5.828831e-08
48	0x342b1532	1.5933327e-07
49	0x34281574	1.5654024e-07
50	0x338d8c4d	6.591345e-08
51	0x32aa390e	1.981655e-08
52	0x31adfb46	5.063529e-09
53	0x33739dda	5.672141e-08
54	0x328873e3	1.5885183e-08
55	0x3393a85f	6.8758474e-08
56	0x3312acf0	3.415056e-08
57	0x331fe927	3.7232123e-08
58	0x32dbedc8	2.5603086e-08
59	0x34037d84	1.2245988e-07
60	0x349957c2	2.8562323e-07
61	0x32a8e11f	1.9660147e-08
62	0x3268c116	1.354808e-08
63	0x343d4008	1.7625291e-07
64	0x323d10b3	1.1005045e-08
65	0x337759da	5.759089e-08
66	0x33482402	4.6598878e-08
67	0x3349c031	4.6973756e-08
68	0x32ef86b4	2.7884518e-08
69	0x33d83ef8	1.0069738e-07
70	0x3352b323	4.905736e-08
71	0x32d89dad	2.5217412e-08
72	0x319c8e17	4.5563513e-09
73	0x33195263	3.569802e-08
74	0x3345c5a9	4.6047408e-08
75	0x322a86f1	9.9259845e-09
76	0x3385e781	6.2354054e-08
77	0x32df9bd6	2.6031483e-08
78	0x32e097cc	2.6146061e-08
79	0x325efba5	1.2979318e-08
80	0x332cb025	4.0207073e-08
81	0x32120353	8.499074e-09
82	0x33169c88	3.506696e-08
83	0x321f64bd	9.277923e-09
84	0x3334c4e8	4.20886e-08
85	0x323cf64c	1.0999042e-08
86	0x31f73b35	7.195377e-09
87	0x3399b1e3	7.156975e-08
88	0x3323f337	3.8172598e-08
89	0x33b0e39f	8.237043e-08
90	0x337059a3	5.596088e-08
91	0x328a17ae	1.6076083e-08
92	0x31e416e8	6.6382775e-09
93	0x32efc503	2.7912852e-08
94	0x328d413c	1.6444226e-08
95	0x3348f040	4.6784635e-08
96	0x3398e1ff	7.11916e-08
97	0x333d73c0	4.4110266e-08
98	0x3334fcbd	4.213938e-08
99	0x3214cf62	8.661887e-09
100	0x3320a6ba	3.740454e-08
101	0x32d2fc9a	2.4562087e-08
102	0x32abba9d	1.9991882e-08
103	0x329daf9b	1.8357062e-08
104	0x33b673ce	8.4961e-08
105	0x320ea277	8.302428e-09
106	0x3323680f	3.8046036e-08
107	0x338a8725	6.4507084e-08
108	0x3254ea1b	1.23932535e-08
109	0x33552543	4.9626816e-08
110	0x33af6b83	8.168629e-08
111	0x33a7de1f	7.816947e-08
112	0x32b6c8ac	2.1278844e-08
113	0x32f9d016	2.9082042e-08
114	0x3298de36	1.7796179e-08
115	0x33c07440	8.9618425e-08
116	0x32c2fbb7	2.2699039e-08
117	0x32982d90	1.7715848e-08
118	0x33913d11	6.7631966e-08
119	0x32d05fc5	2.4257938e-08
120	0x32f1e9bd	2.8162384e-08
121	0x32d42521	2.4696932e-08
122	0x320e9222	8.298715e-09
123	0x336c73ee	5.505347e-08
124	0x33a57217	7.704164e-08
125	0x32e96624	2.7171218e-08
126	0x32ff621e	2.9730526e-08
127	0x32983017	1.7716998e-08
128	0x30cf087c	1.5063644e-09
129	0x31143f51	2.1572826e-09
130	0x31334987	2.6089724e-09
131	0x30906753	1.0506745e-09
132	0x3222300f	9.440568e-09
133	0x312eb9f3	2.5426032e-09
134	0x30a487e8	1.1971197e-09
135	0x30faba8e	1.8242916e-09
136	0x3116f2e9	2.1965951e-09
137	0x318b7cc3	4.059616e-09
138	0x30752db8	8.919545e-10
139	0x31db98b6	6.3911e-09
140	0x31a28ea1	4.7310356e-09
141	0x321d590c	9.15885e-09
142	0x310e4cc7	2.0707362e-09
143	0x32339742	1.0453563e-08
144	0x3037f948	6.692926e-10
145	0x3203b4ae	7.666285e-09
146	0x3135908c	2.6421132e-09
147	0x32815e8b	1.506057e-08
148	0x30c21b64	1.4123143e-09
149	0x31dbb163	6.3939054e-09
150	0x324233be	1.1304051e-08
151	0x317edd57	3.7087682e-09
152	0x32aaef13	1.9899323e-08
153	0x31697f3c	3.3978287e-09
154	0x30248c21	5.986199e-10
155	0x31390a8c	2.6927038e-09
156	0x3172cab4	3.5330858e-09
157	0x322d8d72	1.0102086e-08
158	0x313096eb	2.5697158e-09
159	0x31758412	3.5727266e-09
160	0x31b060e4	5.1332893e-09
161	0x3064ff11	8.330839e-10
162	0x319acd08	4.5052992e-09
163	0x320c9732	8.18345e-09
164	0x321ec829	9.242322e-09
165	0x3214e3b6	8.666509e-09
166	0x31320f56	2.5911127e-09
167	0x3107ee13	1.9780415e-09
168	0x304bc1e2	7.4126494e-10
169	0x31dd1d99	6.4353114e-09
170	0x31c69ede	5.7806195e-09
171	0x30a83fe9	1.2241773e-09
172	0x329b7556	1.8097733e-08
173	0x315a3db9	3.175826e-09
174	0x32c204c1	2.2586734e-08
175	0x30d301aa	1.5352744e-09
176	0x3244ecf9	1.1462583e-08
177	0x326892d1	1.35375595e-08
178	0x32154201	8.687949e-09
179	0x312debf6	2.5308942e-09
180	0x31075452	1.9693016e-09
181	0x3130873a	2.5688238e-09
182	0x3147493d	2.8999942e-09
183	0x3185b957	3.89188e-09
184	0x30da8641	1.5899745e-09
185	0x31735b6f	3.5413128e-09
186	0x3299b719	1.7894807e-08
187	0x31a0b4d4	4.6771707e-09
188	0x3032bf84	6.5028183e-10
189	0x30e6beec	1.6788966e-09
190	0x307d8fbd	9.224513e-10
191	0x30ab1288	1.2447154e-09
192	0x32754115	1.4275675e-08
193	0x33ad5f40	8.073266e-08
194	0x31abefba	5.0040088e-09
195	0x3246e4f9	1.1577179e-08
196	0x32c2436e	2.2615236e-08
197	0x332bd877	4.0010914e-08
198	0x32f3e59a	2.8393334e-08
199	0x315cb348	3.2116123e-09
200	0x33e2a5d6	1.05541105e-07
201	0x32959a30	1.7416e-08
202	0x314efd2e	3.0120861e-09
203	0x3194fc11	4.3360235e-09
204	0x334688f1	4.6225015e-08
205	0x32b51132	2.1078993e-08
206	0x32eb9e1b	2.7429499e-08
207	0x32f095c3	2.8007781e-08
208	0x32cf327d	2.4120931e-08
209	0x3339c03a	4.3248498e-08
210	0x33343ec6	4.1966608e-08
211	0x333a89f1	4.3431957e-08
212	0x32bac4c8	2.1742736e-08
213	0x31262f40	2.4183038e-09
214	0x328835ef	1.585701e-08
215	0x33153444	3.47393e-08
216	0x3207c4b6	7.902761e-09
217	0x332af452	3.9803417e-08
218	0x3390b94c	6.739228e-08
219	0x33082ece	3.1707536e-08
220	0x3238147f	1.071487e-08
221	0x331c413f	3.638092e-08
222	0x32396d59	1.079328e-08
223	0x33117b6e	3.3872702e-08
224	0x33382b41	4.2880178e-08
225	0x30bf7a06	1.393176e-09
226	0x333252a0	4.1519e-08
227	0x3380a026	5.989595e-08
228	0x33518ba3	4.8788603e-08
229	0x3367e4c2	5.3991933e-08
230	0x330c8239	3.2714727e-08
231	0x32bb761a	2.1823372e-08
232	0x31457fb9	2.8739875e-09
233	0x321119bd	8.445963e-09
234	0x31e0d114	6.5430275e-09
235	0x334a9cfc	4.7174566e-08
236	0x334ff207	4.8416066e-08
237	0x3236c4d5	1.0638549e-08
238	0x32f62f3b	2.8659647e-08
239	0x3268c6f9	1.35494185e-08
240	0x32831b4a	1.5262817e-08
241	0x31ecb3c8	6.8889427e-09
242	0x32aebf09	2.0343139e-08
243	0x3164c43c	3.3289913e-09
244	0x325bacb1	1.2786743e-08
245	0x3280e1a8	1.5003778e-08
246	0x32b2ae92	2.0801313e-08
247	0x336b44e4	5.4777857e-08
248	0x3294e3e6	1.7333104e-08
249	0x33135b1c	3.4308968e-08
250	0x334f37a0	4.8246534e-08
251	0x32bbe30e	2.1872918e-08
252	0x31def806	6.4892474e-09
253	0x3311666c	3.3853595e-08
254	0x3330cfc4	4.1167155e-08
255	0x32c0be21	2.2438202e-08

exp_avg f4 [16]
0	0xbbd4009e	-0.0064698
1	0xbb83e92e	-0.0040256
2	0xba0624fc	-0.00051172054
3	0xbb6e9ec6	-0.0036410554
4	0xbbe63b3f	-0.0070261057
5	0xbb2c2dcb	-0.0026272412
6	0xbb4cc3ad	-0.0031244562
7	0x3b28d822	0.002576359
8	0xbb2d3e26	-0.0026434748
9	0xbbc88005	-0.0061187767
10	0xba4a4ced	-0.00077171513
11	0x3c31f937	0.01086264
12	0xba550e43	-0.00081274303
13	0xbbee840b	-0.0072789243
14	0xbc541ec6	-0.01294679
15	0xbc1d3cc7	-0.00959701

exp_avg_sq f4 [16]
0	0x358baa0b	1.0405796e-06
1	0x34f97098	4.6461787e-07
2	0x330168c1	3.0130426e-08
3	0x34b59a00	3.3825927e-07
4	0x35c3205d	1.4538051e-06
5	0x346b1efe	2.1897355e-07
6	0x34880f24	2.534299e-07
7	0x3480db2e	2.4001332e-07
8	0x34458270	1.8394508e-07
9	0x358a4e20	1.0304539e-06
10	0x3306ee4b	3.1416032e-08
11	0x3658963c	3.2273956e-06
12	0x33a4f2fa	7.681042e-08
13	0x35be20ba	1.4165628e-06
14	0x369dc0cf	4.7014105e-06
15	0x362924f7	2.5204479e-06

exp_avg f4 [32, 32]
0	0xbb887fba	-0.004165617
1	0xbb9ae1b1	-0.0047266115
2	0xbbc0ab91	-0.0058798273
3	0xbb7144c9	-0.003681468
4	0xbb3768c4	-0.002798603
5	0xbb8d6d2d	-0.0043159933
6	0xbba3d1c3	-0.004999371
7	0xbb744e7e	-0.003727823
8	0xbb8c5f0c	-0.0042837914
9	0xbbb87ac6	-0.00562987
10	0xbb260a84	-0.0025335858
11	0xbb770207	-0.0037690417
12	0xbb3cb30e	-0.0028793248
13	0xbb8f4218	-0.0043718927
14	0xbbcf3846	-0.006323847
15	0xbb9fa16c	-0.004871538
16	0xba0fbd6d	-0.0005483244
17	0xba96b510	-0.0011498053
18	0xbaf2d2de	-0.0018525978
19	0xba4336c2	-0.0007446819
20	0xb9708b94	-0.0002294018
21	0xba7577d9	-0.0009363867
22	0xba6e58b3	-0.00090921967
23	0xba13e17b	-0.0005641204
24	0xba6f082a	-0.0009118343
25	0xbac78bb9	-0.0015224136
26	0xb979b570	-0.00023814081
27	0xba2c3974	-0.00065698405
28	0xb989d53a	-0.00026289542
29	0xba5e69c1	-0.00084843865
30	0xbb179c0e	-0.0023133787
31	0xba918fa0	-0.0011105426
32	0xb98adc17	-0.0002648539
33	0xb9dbc47a	-0.00041917322
34	0xba0a574a	-0.00052772893
35	0xb9a293ce	-0.0003100917
36	0xb90b933f	-0.00013310926
37	0xb9dcd2b9	-0.0004211867
38	0xba02ca95	-0.00049892935
39	0xb98441f3	-0.00025226138
40	0xb9f874cf	-0.00047389275
41	0xb9f345bb	-0.00046400525
42	0xb9672281	-0.0002204273
43	0xb99f9d81	-0.00030444193
44	0xb985378e	-0.00025409128
45	0xb9cbad2c	-0.000388482
46	0xba022e02	-0.0004965962
47	0xb9e1f3b3	-0.00043096914
48	0xb817c89d	-3.618804e-05
49	0xb9143044	-0.0001413236
50	0xb917f0de	-0.00014490212
51	0xb8827361	-6.220374e-05
52	0xb76c6fa3	-1.4092689e-05
53	0xb8e65b98	-0.00010984315
54	0xb8ad66c5	-8.268425e-05
55	0xb7d89ce9	-2.5822274e-05
56	0xb8bf22e8	-9.1140915e-05
57	0xb9074876	-0.00012901597
58	0xb791d3b5	-1.738393e-05
59	0xb8351b18	-4.3178996e-05
60	0xb7b032aa	-2.1004427e-05
61	0xb8cc4819	-9.740907e-05
62	0xb95b5567	-0.00020917282
63	0xb8ed98ce	-0.00011329503
64	0x3b1fb01a	0.002436644
65	0x3b32c6ab	0.002727906
66	0x3b678277	0.0035325566
67	0x3b0901d3	0.0020905628
68	0x3ab860d9	0.0014066949
69	0x3b2d4c96	0.0026443354
70	0x3b4c7d51	0.0031202624
71	0x3b190405	0.0023348343
72	0x3b2dbb33	0.0026509285
73	0x3b62ea86	0.003462465
74	0x3ac41317	0.0014959302
75	0x3b258fcd	0.0025262714
76	0x3af5524c	0.0018716543
77	0x3b28b0f1	0.002574023
78	0x3b764970	0.0037580393
79	0x3b349ef7	0.002756057
80	0x39967d18	0.00028703432
81	0x3a28a847	0.00064337667
82	0x3a9228b5	0.0011151048
83	0x39c67b8f	0.0003785756
84	0x38db2d45	0.00010451166
85	0x3a0e46e3	0.0005427433
86	0x3a0716a2	0.0005153214
87	0x39c77dc0	0.0003804993
88	0x3a0e2e8e	0.00054238073
89	0x3a66201c	0.00087785884
90	0x390b913d	0.00013310178
91	0x39f509e4	0.0004673741
92	0x392d0208	0.00016499322
93	0x39f8f829	0.0004748714
94	0x3aa8a7f7	0.001286744
95	0x3a1f4020	0.0006074924
96	0x00000000	0.0
97	0x00000000	0.0
98	0x00000000	0.0
99	0x00000000	0.0
100	0x00000000	0.0
101	0x00000000	0.0
102	0x00000000	0.0
103	0x00000000	0.0
104	0x00000000	0.0
105	0x00000000	0.0
106	0x00000000	0.0
107	0x00000000	0.0
108	0x00000000	0.0
109	0x00000000	0.0
110	0x00000000	0.0
111	0x00000000	0.0
112	0x00000000	0.0
113	0x00000000	0.0
114	0x00000000	0.0
115	0x00000000	0.0
116	0x00000000	0.0
117	0x00000000	0.0
118	0x00000000	0.0
119	0x00000000	0.0
120	0x00000000	0.0
121	0x00000000	0.0
122	0x00000000	0.0
123	0x00000000	0.0
124	0x00000000	0.0
125	0x00000000	0.0
126	0x00000000	0.0
127	0x00000000	0.0
128	0xb988dec1	-0.00026105906
129	0xb939f276	-0.00017733299
130	0xb9723b5c	-0.00023101032
131	0xb94f5915	-0.00019774244
132	0xb93f5849	-0.00018248068
133	0xb96914b6	-0.00022228327
134	0xb982f0e7	-0.00024975018
135	0xb91d94da	-0.00015028138
136	0xb92966c7	-0.00016155383
137	0xb9884843	-0.0002599378
138	0xb90423eb	-0.00012601881
139	0xb85e0e15	-5.294204e-05
140	0xb8bf5f29	-9.125315e-05
141	0xb938b6b6	-0.00017615673
142	0xb99b8955	-0.00029666224
143	0xb98a8bb4	-0.00026425498
144	0xb82a3dd0	-4.0588726e-05
145	0xb835a482	-4.3306973e-05
146	0xb8af15fa	-8.348744e-05
147	0xb840c4b2	-4.5959554e-05
148	0xb7a8f24b	-2.0139987e-05
149	0xb8183faa	-3.6298916e-05
150	0xb84de2f6	-4.9087183e-05
151	0xb7c4b5fe	-2.3449767e-05
152	0xb821866f	-3.8510592e-05
153	0xb88fa632	-6.849728e-05
154	0xb73adb4f	-1.1137526e-05
155	0xb75bfbc9	-1.31120405e-05
156	0xb6c594ab	-5.8883647e-06
157	0xb80b22f6	-3.3172742e-05
158	0xb8cec2db	-9.85914e-05
159	0xb8509176	-4.9726536e-05
160	0x3b5bb403	0.0033524043
161	0x3b80b0d8	0.0039273314
162	0x3b9ed121	0.0048467075
163	0x3b47dd6d	0.003049697
164	0x3b009401	0.0019619467
165	0x3b689ab7	0.0035492608
166	0x3b86f2df	0.004118308
167	0x3b474b14	0.003040974
168	0x3b7117a5	0.0036787775
169	0x3b981f00	0.0046423674
170	0x3b126f0f	0.0022344028
171	0x3b55e0d6	0.0032635233
172	0x3b2111fd	0.0024577372
173	0x3b62bb1e	0.0034596394
174	0x3baacfe6	0.0052127717
175	0x3b81b697	0.003958534
176	0x39d98ee6	0.00041495933
177	0x3a752f3f	0.00093530485
178	0x3aca188e	0.0015418695
179	0x3a1bcf1d	0.0005943643
180	0x391857be	0.00014528536
181	0x3a412267	0.0007367492
182	0x3a42fa98	0.0007437854
183	0x39ffa730	0.00048761955
184	0x3a4654d5	0.00075657415
185	0x3aa4cb5a	0.001257281
186	0x3960ee96	0.00021451185
187	0x3a16afe2	0.00057482545
188	0x3951e27f	0.0002001617
189	0x3a3ce1ba	0.0007205267
190	0x3af0ce3f	0.0018372013
191	0x3a6d44b5	0.00090510707
192	0xb7c3d28f	-2.334386e-05
193	0xb802c369	-3.1176405e-05
194	0xb82d86d5	-4.1371986e-05
195	0xb81cbb1c	-3.7367558e-05
196	0xb7b1d358	-2.1198459e-05
197	0xb7ece462	-2.8239741e-05
198	0xb837d111	-4.382531e-05
199	0xb80413ae	-3.148958e-05
200	0xb80687c3	-3.2074528e-05
201	0xb86121f9	-5.367582e-05
202	0xb762f462	-1.35275495e-05
203	0xb80f9e99	-3.4241562e-05
204	0xb7c0f968	-2.3004322e-05
205	0xb7d1a125	-2.498978e-05
206	0xb8720949	-5.7705944e-05
207	0xb82592ec	-3.9475897e-05
208	0xb6975c32	-4.5108836e-06
209	0xb71080a0	-8.613017e-06
210	0xb765dfda	-1.3701583e-05
211	0xb6e14126	-6.713107e-06
212	0xb6326ec3	-2.6588539e-06
213	0xb70cabfa	-8.384692e-06
214	0xb70f53a4	-8.542938e-06
215	0xb687c1c5	-4.0458713e-06
216	0xb6fc352f	-7.5163766e-06
217	0xb760d2a7	-1.3400487e-05
218	0xb5cbb014	-1.5175924e-06
219	0xb6b9be73	-5.535601e-06
220	0xb621acc9	-2.4091444e-06
221	0xb6987470	-4.543508e-06
222	0xb79b41e0	-1.8508115e-05
223	0xb70b80f7	-8.315073e-06
224	0xba0e846f	-0.0005436604
225	0xba139c9a	-0.00056309404
226	0xba5ed5a8	-0.0008500465
227	0xba06d302	-0.0005143137
228	0xb9e5984a	-0.00043791748
229	0xba2b0f8d	-0.00065254496
230	0xba1cb272	-0.0005977518
231	0xba2a0bde	-0.00064867537
232	0xba1d8df0	-0.0006010225
233	0xba372e16	-0.00069877633
234	0xb9ed1723	-0.000452214
235	0xba22fab1	-0.00062171655
236	0xb9bdc1bb	-0.0003619323
237	0xba1c2f87	-0.000595801
238	0xba807de2	-0.0009803141
239	0xba3ff271	-0.00073221984
240	0xb8a69fba	-7.945248e-05
241	0xb93cae97	-0.00017994117
242	0xb98148b4	-0.00024658965
243	0xb8bd3e2f	-9.023805e-05
244	0xb8022cb4	-3.103605e-05
245	0xb9447878	-0.00018736895
246	0xb90abc67	-0.00013230891
247	0xb8b67fb6	-8.702224e-05
248	0xb8f07305	-0.00011465516
249	0xb958d622	-0.00020679136
250	0xb801ef0a	-3.097862e-05
251	0xb8f7854e	-0.00011802708
252	0xb83a40c7	-4.4406184e-05
253	0xb8d4b565	-0.00010142735
254	0xb9b49372	-0.0003444213
255	0xb92414d2	-0.00015648015
