tests/_logs/test_fit/multitask/checkpoints/epoch=0-step=6.ckpt (torch, 36777 bytes, 18 tensors)

convnet.module.0.weight f4 [16, 4, 16]
-0.095276535 0.001384597 0.08454414 -0.11502203 -0.11465816 0.032813337 -0.06476668 0.097786404
0.12837693 -0.06887501 -0.09754191 -0.011790486 0.110731214 0.0018495898 0.015659578 -0.050848417
-0.055747855 -0.033873376 0.0910809 -0.086004436 0.12436433 -0.0061299517 -0.017509967 0.08692489
0.12658902 -0.03622068 -0.016256906 0.06378781 -0.005387808 -0.060032275 -0.117775835 -0.057161666
0.03384323 0.08876323 0.12716629 -0.050406177 -0.015636794 -0.043902095 0.06531311 -0.08208696
0.12391351 -0.10499502 0.077558845 -0.01574347 0.07303574 0.08887057 0.119372666 -0.029198864
-0.07628013 0.09568568 0.047167882 0.027692841 -0.059350837 0.11306061 0.055993967 0.012966826
-0.062039595 0.042861346 -0.09245823 0.035901237 -0.098227255 -0.021146907 -0.022601282 -0.024961902
-0.11857912 -0.12438831 -0.039077383 0.013825052 0.08075007 0.10939239 0.024929103 -0.11713973
-0.13087079 -0.056925926 -0.07520045 0.0060128975 -0.04840688 -0.086232744 -0.10815506 0.023451861
0.09590389 -0.07221861 -0.123121 0.10639519 -0.09429696 0.059113525 0.014762879 0.08218904
-0.06419719 0.048460916 0.059690837 0.059540182 -0.10442122 0.02582328 0.058784056 -0.11100075
0.05060928 0.024193067 -0.035078477 -0.015266428 0.027751569 -0.11543146 -0.043058686 -0.09805265
-0.05060408 -0.079946585 -0.0611946 0.08794439 0.08402519 0.07699769 0.08248331 -0.09302213
-0.118048005 -0.007739993 -0.104997024 0.103218235 0.07837258 0.01991157 0.026791774 -0.067550965
-0.0073751775 0.000614665 0.023399182 0.019304179 0.1094989 -0.06174647 0.058684915 0.0077553233
-0.09632059 0.05990539 0.09311567 0.11952072 0.024043849 -0.0190728 -0.048626307 0.089916654
-0.08202087 -0.0711768 0.11109829 -0.0064910627 0.06724012 0.021244116 -0.03820699 0.018705728
0.068265416 -0.00028657285 -0.018289195 -0.028368736 -0.11710456 0.03099584 -0.03554972 -0.09426898
0.103280015 0.065834634 0.009849298 -0.058979668 -0.015594375 0.07819073 -0.033789605 0.059069775
0.0034430274 0.111564 -0.11080159 0.039955135 -0.11500586 0.11336874 0.049711514 0.09390841
0.036143523 0.121925965 0.11951903 -0.0104977125 0.09709083 0.032880213 -0.091592334 0.05949996
0.03063028 0.07017127 0.03483098 0.011567681 -0.07187382 0.05168535 -0.030978583 0.04896243
0.11789596 0.114812985 0.029660273 -0.011983376 -0.014696831 0.09924066 0.05985233 0.0017056377
0.10982465 0.0069015496 0.10900516 -0.09124129 -0.023127886 0.11418156 0.112081714 0.023246668
-0.04080909 -0.05987198 0.006472482 0.017438212 -0.10666166 0.051462665 0.0704374 0.1026869
-0.008408396 -0.12212302 -0.031968553 -0.0038514647 -0.04151332 0.0943678 -0.05797323 -0.014160401
-0.101369396 -0.002144975 -0.055040997 -0.084116474 0.0853395 0.044926696 -0.10595212 -0.12288245
0.07119046 0.020711757 0.0062529324 0.05080644 0.0038106875 0.0697342 0.033118762 0.072727986
-0.09956431 -0.11774171 -0.07475462 0.078346945 0.003377202 0.1133063 0.083345994 0.017818071
0.027143702 0.06675276 0.0028630267 0.06927045 0.03141258 -0.12189305 0.05105468 0.077481836
-0.036945425 0.044256132 -0.055114437 0.044930078 -0.12078834 0.021534262 -0.0292936 0.061023396
00000000: 5820 c3bd 5e7b b53a 7a25 ad3d ac90 ebbd
00000010: e6d1 eabd 4767 063d 65a4 84bd 3d44 c83d
00000020: 3e75 033e 570e 8dbd 0ec4 c7bd e22c 41bc
00000030: 0cc7 e23d ef6d f23a 8448 803c 6e46 50bd
00000040: dd57 64bd cfbe 0abd 9f88 ba3d 1823 b0bd
00000050: bab2 fe3d c3dd c8bb 1071 8fbc ad05 b23d
00000060: 8da0 013e 235c 14bd 342d 85bc 2fa3 823d
00000070: 368c b0bb 67e4 75bd 7534 f1bd 5a22 6abd
00000080: 339f 0a3d 7fc9 b53d e137 023e b576 4ebd
00000090: bc18 80bc afd2 33bd e1c2 853d 351d a8bd
000000a0: 5ec6 fd3d a107 d7bd 2cd7 9e3d 73f8 80bc
000000b0: c393 953d c601 b63d a879 f43d 7532 efbc
000000c0: c238 9cbd dbf6 c33d 1c33 413d 19dc e23c
000000d0: dd19 73bd 528c e73d ee59 653d cf72 543c
000000e0: 3b1d 7ebd 618f 2f3d be5a bdbd 2d0d 133d
000000f0: 5f2b c9bd 473c adbc 5326 b9bc e77c ccbc
00000100: 9cd9 f2bd 4cbf febd 9b0f 20bd 7982 623c
00000110: 4b60 a53d 1e09 e03d 1e38 cc3c f4e6 efbd
00000120: fe02 06be 292b 69bd b202 9abd d707 c53b
00000130: 4b46 46bd cb9a b0bd 6680 ddbd 1e1e c03c
00000140: 4269 c43d 5ae7 93bd dd26 fcbd b9e5 d93d
00000150: c41e c1bd 0621 723d 01e0 713c ba52 a83d
00000160: d179 83bd f47e 463d 617e 743d 68e0 733d
00000170: cbda d5bd 588b d33c 8dc7 703d 5c54 e3bd
00000180: ad4b 4f3d 8a30 c63c 73ae 0fbd 0a20 7abc
00000190: 4257 e33c 5467 ecbd 4e5e 30bd d4cf c8bd
000001a0: 3946 4fbd 09bb a3bd 30a7 7abd 301c b43d
000001b0: 6615 ac3d f7b0 9d3d 02ed a83d 6382 bebd
000001c0: 27c3 f1bd c49f fdbb ae08 d7bd 1564 d33d
000001d0: ce81 a03d 971d a33c 6c7a db3c 2958 8abd
000001e0: 79ab f1bb 7821 213a a4af bf3c cc23 9e3c
000001f0: f640 e03d dee9 7cbd 985f 703d 5e20 fe3b
00000200: bb43 c5bd 5b5f 753d 6eb3 be3d 47c7 f43d
00000210: 9bf7 c43c 903e 9cbc 612c 47bd 3926 b83d
00000220: 8ffa a7bd 24c5 91bd 8087 e33d fbb2 d4bb
00000230: 30b5 893d 2408 ae3c ef7e 1cbd c13c 993c
00000240: bdce 8b3d 283f 96b9 39d3 95bc 8d65 e8bc
00000250: 84d4 efbd fdea fd3c 959c 11bd 1810 c1bd
00000260: 7984 d33d 4fd4 863d f35e 213c aa94 71bd
00000270: 8d7f 7fbc 7622 a03d f866 0abd 26f3 713d
00000280: 6aa4 613b ab7b e43d f2eb e2bd ffa7 233d
00000290: 3188 ebbd df2d e83d 4d9e 4b3d 0d53 c03d
000002a0: 3b0b 143d 52b4 f93d 65c6 f43d 99fe 2bbc
000002b0: 8fd7 c63d 67ad 063d c394 bbbd 3bb6 733d
000002c0: 5aec fa3c f4b5 8f3d eeaa 0e3d 5f86 3d3c
000002d0: 9532 93bd 04b4 533d ccc6 fdbc d48c 483d
000002e0: 7073 f13d 1223 eb3d 1afa f23c ec55 44bc
000002f0: faca 70bc b03e cb3d b727 753d b48f df3a
00000300: bfeb e03d 6526 e23b 193e df3d b7dc babd
00000310: b176 bdbc 06d8 e93d 198b e53d cc6f be3c
00000320: 6f27 27bd 523c 75bd 1d17 d43b 95da 8e3c
00000330: 6e71 dabd 84ca 523d 7c41 903d 824d d23d
00000340: 5ec3 09bc a21b fabd 75f1 02bd db68 7cbb
00000350: df09 2abd e843 c13d 5675 6dbd 0701 68bc
00000360: c29a cfbd b592 0cbb ab72 61bd 4245 acbd
00000370: 7ac6 ae3d 0e05 383d 6dfd d8bd cba9 fbbd
00000380: 4ecc 913d b4ab a93c 66e5 cc3b 6a1a 503d
00000390: babc 793b ced0 8e3d 8aa7 073d 69f2 943d
000003a0: 5fe8 cbbd 9122 f1bd f318 99bd 5d74 a03d
000003b0: 0c54 5d3b 220d e83d 4eb1 aa3d 34f7 913c
000003c0: 785c de3c acb5 883d 9ea1 3b3b aadd 8d3d
000003d0: 7aaa 003d 10a3 f9bd b61e 513d ccae 9e3d
000003e0: 1654 17bd eb45 353d adbf 61bd 9a08 383d
000003f0: e15f f7bd 9f68 b03c 22f9 efbc abf3 793d

convnet.module.0.bias f4 [16]
-0.03839963 -0.04403547 0.05998054 -0.08493914 0.047370873 -0.030622704 -0.00525486 -0.085181214
-0.039132677 0.004653039 0.10887415 0.021554016 -0.07704082 0.022542458 -0.09686869 0.046473943
00000000: ee48 1dbd 895e 34bd 28ae 753d 92f4 adbd
00000010: f607 423d 77dc fabc f630 acbb 7d73 aebd
00000020: 9649 20bd 8578 983b 69f9 de3d 0c92 b03c
00000030: 94c7 9dbd f6aa b83c 1763 c6bd 765b 3e3d

fcn.module.0.weight f4 [32, 32]
-0.066892214 -0.15759324 -0.06909224 -0.09807435 -0.023474663 0.029626265 0.0034405142 -0.1197668
-0.15950485 0.09575443 0.15603624 0.0054261684 -0.12724726 -0.016665429 -0.06380603 0.120155916
0.17284445 0.09050842 0.09778364 0.041847795 -0.007225737 -0.006718397 0.17249604 0.1648572
-0.15000287 -0.16202262 0.07786058 0.070690885 0.13394533 0.14807905 0.1439331 -0.056362703
0.07391294 -0.10566535 -0.12515411 -0.036161438 0.041636445 0.12764128 -0.10102853 -0.113115914
-0.16391806 0.00037138586 0.058452066 -0.11322057 -0.10355653 0.03308478 0.1565034 -0.0195246
-0.008703497 0.06304887 -0.17257658 0.07134789 -0.16455069 0.11988949 -0.14742628 0.10858286
-0.065103464 -0.025907462 -0.016067049 0.15495792 -0.13809612 0.01884458 -0.010536153 0.035115585
0.18136102 0.06735976 -0.139684 0.096716 -0.029546537 -0.16037762 0.14327593 0.1159122
-0.16832429 -0.112954035 0.1647068 -0.07205557 0.14302547 0.17991398 0.17749493 0.14835404
0.17509995 0.072239086 0.086704746 0.0077461223 0.0048924317 -0.11577601 -0.08806334 0.14481036
-0.059829973 0.08327888 0.1456586 0.06654675 -0.06873853 0.17759328 -0.15719959 -0.043330267
0.13678974 0.083491474 -0.08050026 -0.16318418 0.12252405 0.04053647 0.1751931 -0.07875598
-0.025421666 -0.13634144 -0.16785868 0.15364811 -0.016387992 0.08705911 -0.14532617 0.047360558
0.0033105384 0.13305776 -0.08512452 -0.04316387 -0.06505653 -0.0092622675 -0.13971823 -0.12262182
0.09504993 0.13570647 -0.044126187 0.11021696 -0.011287922 0.12983586 -0.091904715 0.013786573
0.104723796 -0.08671044 -0.13358325 -0.018530786 0.14380758 -0.079380766 -0.15741336 0.062359408
-0.1438527 -0.018784389 -0.17345868 0.10518502 -0.08375095 -0.17625996 0.11946981 0.0473461
-0.031689197 -0.05073303 -0.11410237 -0.056986205 0.10421355 -0.15364736 -0.13919187 0.057839572
0.108554885 0.08323406 0.17417641 -0.038836345 0.031349793 0.029678062 -0.033094868 0.013361707
0.15812124 -0.14359142 -0.03384026 0.0112853935 0.08914698 -0.15579882 -0.112224355 -0.024490632
-0.053666886 -0.11811377 0.08441413 -0.05966158 0.16817929 -0.07934798 0.10547111 0.11579384
0.16950348 -0.045041513 -0.09622668 0.07758656 0.03915127 -0.02962698 -0.045382068 0.14876002
0.009496099 0.14835197 0.07123653 -0.12908916 0.07665216 0.1144834 0.12198791 0.020179315
-0.016661048 -0.13883331 0.01915969 -0.0075422376 0.0008225441 0.0766343 -0.03243272 -0.04383689
-0.0058124065 -0.12446238 0.035924584 0.1695023 -0.07654416 0.1348406 0.04294777 -0.05821173
0.089260206 0.00469473 -0.086720556 0.08779733 -0.11532363 -0.10766048 0.029098526 0.1335329
0.06759958 -0.13077368 0.055403247 -0.06959079 -0.16216324 0.16394784 -0.09809369 0.08185716
-0.13909237 -0.08235054 0.1741954 0.027144045 -0.020159423 0.11753674 0.021755844 -0.042697355
0.14396428 -0.11897132 -0.14031775 -0.14174601 0.09670751 -0.067826904 -0.15862414 -0.17127483
0.119985774 0.0077394247 0.123852745 -0.11828235 0.092793986 0.13787232 0.13014878 -0.15757242
0.10409568 0.17636602 0.11479764 -0.076648824 0.17070322 0.09612827 0.03047517 0.016462997
00000000: c9fe 88bd 1f60 21be 3b80 8dbd 34db c8bd
00000010: f04d c0bc c8b2 f23c 407a 613b 4c48 f5bd
00000020: 3d55 23be e61a c43d f7c7 1f3e 00ce b13b
00000030: 1b4d 02be f085 88bc bcac 82bd 4e14 f63d
00000040: 23fe 303e 7a5c b93d ca42 c83d 9868 2b3d
00000050: e0c5 ecbb 0026 dcbb cda2 303e 53d0 283e
00000060: 5a9a 19be 42e9 25be 5e75 9f3d 62c6 903d
00000070: f728 093e 09a2 173e 3363 133e 94dc 66bd
00000080: ab5f 973d 1367 d8bd 6628 00be 041e 14bd
00000090: fa8a 2a3d 65b4 023e 0ce8 cebd 51a9 e7bd
000000a0: 23da 27be 91b6 c239 6f6b 6f3d 30e0 e7bd
000000b0: 7215 d4bd e883 073d 6d42 203e 0ef2 9fbc
000000c0: 1d99 0ebc c41f 813d eab7 30be d81e 923d
000000d0: fa7f 28be 9f88 f53d eaf6 16be b160 de3d
000000e0: f754 85bd e33b d4bc 0b9f 83bc 4aad 1e3e
000000f0: 1269 0dbe f35f 9a3c d49f 2cbc 5cd5 0f3d
00000100: b4b6 393e eaf3 893d 5309 0fbe 0a13 c63d
00000110: 940b f2bc 083a 24be edb6 123e 6063 ed3d
00000120: 345d 2cbe 7254 e7bd e6a8 283e df91 93bd
00000130: 4575 123e 5f3b 383e 3bc1 353e 1fea 173e
00000140: 674d 333e 16f2 933d 4292 b13d 2fd3 fd3b
00000150: b150 a03b f91b edbd 8d5a b4bd 2b49 143e
00000160: 4610 75bd 1e8e aa3d 8727 153e aa49 883d
00000170: c9c6 8cbd 03db 353e eef8 20be 147b 31bd
00000180: 9c12 0c3e 94fd aa3d 52dd a4bd c119 27be
00000190: e4ed fa3d 9209 263d d265 333e d14a a1bd
000001a0: 1941 d0bc 179d 0bbe 25e3 2bbe ee55 1d3e
000001b0: 1c40 86bc 0c4c b23d 62d0 14be 25fd 413d
000001c0: 9ef5 583b 4b40 083e c455 aebd 99cc 30bd
000001d0: 5c3c 85bd c4c0 17bc 4c12 0fbe 2621 fbbd
000001e0: 8aa9 c23d a3f6 0a3e a9bd 34bd 6eb9 e13d
000001f0: faf0 38bc b1f3 043e 8a38 bcbd 14e1 613c
00000200: 6e79 d63d 3e95 b1bd 0cca 08be e0cd 97bc
00000210: 4b42 133e 6292 a2bd f830 21be 946c 7f3d
00000220: 1f4e 13be b8e1 99bc 279f 31be 3e6b d73d
00000230: 9e85 abbd 7e7d 34be 96ac f43d fced 413d
00000240: 88cc 01bd 70cd 4fbd 81ae e9bd 5e6a 69bd
00000250: ea6d d53d bc55 1dbe 5088 0ebe 30e9 6c3d
00000260: 0652 de3d 9e76 aa3d 4d5b 323e dc12 1fbd
00000270: a468 003d 681f f33c 7c8e 07bd 10eb 5a3c
00000280: 89ea 213e a109 13be 169c 0abd 5fe6 383c
00000290: b192 b63d ba89 1fbe e2d5 e5bd 94a0 c8bc
000002a0: cfd1 5bbd a2e5 f1bd 51e1 ac3d b35f 74bd
000002b0: 3137 2c3e 3281 a2bd 3d01 d83d 5225 ed3d
000002c0: 5292 2d3e 737d 38bd 7e12 c5bd b4e5 9e3d
000002d0: 155d 203d 48b4 f2bc 8ce2 39bd 8c54 183e
000002e0: 8795 1b3c 94e9 173e 75e4 913d f32f 04be
000002f0: cffb 9c3d 4676 ea3d ccd4 f93d 174f a53c
00000300: c07c 88bc 522a 0ebe c8f4 9c3c e024 f7bb
00000310: 00a0 573a 72f2 9c3d 2cd8 04bd 508e 33bd
00000320: 0076 bebb 22e6 febd a825 133d 0392 2d3e
00000330: 2fc3 9cbd a713 0a3e 00ea 2f3d 6c6f 6ebd
00000340: 0ece b63d 40d6 993b 8c9a b1bd 16cf b33d
00000350: cc2e ecbd 197d dcbd 0860 ee3c d9bc 083e
00000360: a671 8a3d 89e9 05be 84ee 623d 9e85 8ebd
00000370: 1f0e 26be f1e1 273e 58e5 c8bd baa4 a73d
00000380: 3b6e 0ebe 66a7 a8bd 4760 323e 305d de3c
00000390: 6025 a5bc 1ab7 f03d 5039 b23c 6ce3 2ebd
000003a0: 5f6b 133e 3ca7 f3bd 75af 0fbe de25 11be
000003b0: 960e c63d d5e8 8abd 5e6e 22be ab62 2fbe
000003c0: 1abb f53d 009b fd3b 82a6 fd3d 043e f2bd
000003d0: c60a be3d 672e 0d3e b945 053e aa5a 21be
000003e0: 1e30 d53d 4b99 343e 061b eb3d 0ffa 9cbd
000003f0: d3cc 2e3e e6de c43d 10a7 f93c 68dd 863c

fcn.module.0.bias f4 [32]
-0.10636543 0.12259848 -0.020085966 0.17464697 -0.12686032 -0.07365947 -0.06709413 -0.10105712
0.1350498 -0.019993892 -0.1705076 -0.02267176 0.1471909 -0.03342576 -0.13704401 -0.045418587
0.011553052 0.1551744 0.06223336 0.16087967 -0.059051402 -0.0629801 0.11714844 -0.067045994
-0.0016663224 -0.13445249 -0.13470872 -0.108116694 -0.016555673 -0.032474086 -0.13396983 0.087279245
00000000: 1ed6 d9bd e914 fb3d 538b a4bc a8d6 323e
00000010: ace7 01be c7da 96bd a668 89bd 09f7 cebd
00000020: 7f4a 0a3e 3bca a3bc 8b99 2ebe 20ba b9bc
00000030: 36b9 163e 73e9 08bd 4455 0cbe d708 3abd
00000040: 0349 3d3c 0ae6 1e3e 68e8 7e3d a4bd 243e
00000050: e2df 71bd b6fb 80bd 85eb ef3d 694f 89bd
00000060: 8068 daba eaad 09be 15f1 09be 496c ddbd
00000070: c39f 87bc 8c03 05bd 632f 09be 76bf b23d

fcn.module.3.weight f4 [10, 32]
0.12440069 0.1273425 0.11092139 -0.11898283 -0.059673302 0.029194538 -0.16940881 -0.01017566
0.12772758 0.036505632 0.12634481 -0.110055976 0.118876934 -0.092015386 0.12646931 -0.16799508
0.09303947 0.05542623 -0.11787096 0.049443774 -0.040188845 0.029416561 -0.01155993 0.10875544
-0.15681714 -0.02200234 0.09847109 0.041708946 0.11778431 -0.062988855 0.16220331 0.16227336
0.01690586 0.009039078 -0.01948828 -0.09431928 0.022946477 -0.13737684 0.09888299 -0.07742859
0.12763304 -0.11347304 -0.07325803 -0.11187002 0.085552566 0.17019512 0.017765379 -0.03895166
0.10077561 0.10785174 -0.05929683 0.07811695 0.17543356 0.028542534 -0.035504773 -0.07227797
-0.16043463 0.026797786 -0.16313073 -0.06309086 0.05838807 -0.087758005 0.035473883 -0.14858104
0.09581907 0.09130331 -0.046255354 0.07292786 0.1367041 0.14331445 0.1628033 -0.031007588
-0.018230105 -0.036917444 -0.15674077 0.098156914 -0.007873014 -0.052936118 -0.070091896 -0.10643602
-0.09304163 -0.13716754 -0.15748163 -0.028788012 0.075398035 -0.011699498 0.09431076 -0.062480364
0.040727004 -0.021337405 -0.10747392 0.099043205 -0.058291018 0.048910834 -0.0043829274 -0.092847645
0.07078087 -0.09823591 0.12898584 -0.052820977 -0.11625527 -0.16633022 -0.03898196 -0.008662477
0.00028709404 0.0642141 0.15934698 0.07760702 0.14592656 -0.16466779 0.16353008 0.01916455
-0.013914592 0.082843766 -0.04734144 -0.049998097 0.11846924 -0.07509919 0.18088302 -0.088121265
-0.04909368 0.17190017 0.169454 0.0836962 0.14429632 0.12722328 -0.06524851 0.09800253
-0.16718154 -0.1697397 0.12044731 0.055465788 0.062484816 0.054872103 0.05988878 -0.16818865
-0.11718439 0.17294967 -0.021520302 0.08530493 -0.15669298 0.09447301 -0.14942601 -0.15281813
-0.16678675 0.10536885 -0.1267207 -0.11951079 -0.033393156 -0.101986945 -0.10528471 0.14270158
0.09111835 -0.1076727 0.072740704 -0.038391232 -0.026897002 -0.056371037 0.10546367 0.0030958666
0.077864155 -0.08454268 -0.06980159 0.16339813 0.04502 0.07888993 -0.038586423 -0.0655618
-0.1547558 0.04742233 0.09430839 0.00044751167 0.1442848 -0.16727802 -0.10917103 -0.06543238
0.12172351 0.106281616 -0.04596772 0.158006 -0.04745996 -0.079054676 0.066211656 0.12349798
0.11922549 -0.1136475 0.032325596 0.16965847 0.0622537 -0.15388092 -0.14617349 -0.0075511234
0.043447986 0.09161625 -0.08254394 0.064026445 -0.020246968 -0.0073873065 -0.04673697 0.06924854
-0.005994618 0.02427652 -0.1288174 -0.06609523 -0.07578353 -0.04981408 -0.027060043 -0.039571628
-0.08116147 0.06915564 0.18290286 0.16648573 -0.024640897 0.10413124 -0.08986757 0.04168947
-0.056521684 0.067575574 -0.07893586 0.13641755 0.17120376 -0.10871671 -0.15235294 -0.004163541
0.11835204 0.06315381 0.1290703 -0.07461966 0.14046983 -0.15577547 0.088912204 -0.016404942
-0.058525912 -0.15284583 0.06904389 -0.12831941 0.14847209 0.03472165 0.044140607 0.10549022
0.13592392 0.13984956 0.077746026 0.15277405 -0.15088001 0.14508884 -0.1607532 -0.068945326
0.091526255 -0.088803895 0.031409577 -0.08449449 -0.07902514 0.07084025 0.17022137 -0.044182833
00000000: cac5 fe3d 1366 023e c12a e33d 45ad f3bd
00000010: fe6b 74bd 6229 ef3c 8179 2dbe d0b7 26bc
00000020: 05cb 023e ee86 153d 8960 013e 0765 e1bd
00000030: c075 f33d 9072 bcbd 2c81 013e e706 2cbe
00000040: 7a8b be3d 9d06 633d 5466 f1bd 8e85 4a3d
00000050: 0f9d 24bd 00fb f03c dc65 3dbc 2cbb de3d
00000060: ac94 20be 403e b4bc 36ab c93d 00d7 2a3d
00000070: e638 f13d 4d00 81bd a018 263e fd2a 263e
00000080: 287e 8a3c a418 143c e3a5 9fbc 772a c1bd
00000090: 40fa bb3c 84ac 0cbe 2a83 ca3d e192 9ebd
000000a0: 3cb2 023e 8e64 e8bd 4e08 96bd 1c1c e5bd
000000b0: 2f36 af3d a147 2e3e b388 913c c78b 1fbd
000000c0: 7163 ce3d 60e1 dc3d 3ce1 72bd c8fb 9f3d
000000d0: dba4 333e 08d2 e93c 746d 11bd 7906 94bd
000000e0: fa48 24be 0887 db3c be0b 27be c835 81bd
000000f0: 5428 6f3d 78ba b3bd 104d 113d a125 18be
00000100: ca3c c43d 3bfd ba3d 4176 3dbd 345b 953d
00000110: 29fc 0b3e 06c1 123e e9b5 263e a003 febc
00000120: 4d57 95bc bf36 17bd a780 20be 7e06 c93d
00000130: d0fd 00bc 8bd3 58bd 578c 8fbd 21fb d9bd
00000140: 9c8c bebd a675 0cbe dd42 21be d6d4 ebbc
00000150: 496a 9a3d 40af 3fbc 0026 c13d 69eb 7fbd
00000160: 5cd1 263d c8cb aebc 491b dcbd 2ad7 ca3d
00000170: 90c2 6ebd ba56 483d a99e 8fbb e826 bebd
00000180: 90f5 903d e92f c9bd dd14 043e cf5a 58bd
00000190: 3e17 eebd 7852 2abe 8cab 1fbd 10ed 0dbc
000001a0: 1c85 9639 af82 833d db2b 233e 6ef0 9e3d
000001b0: c66d 153e ac9e 28be 6e74 273e f9fe 9c3c
000001c0: 07fa 63bc fea9 a93d 19e9 41bd ceca 4cbd
000001d0: 00a0 f23d 9bcd 99bd 6639 393e ec78 b4bd
000001e0: 7416 49bd 9906 303e 5985 2d3e ea68 ab3d
000001f0: 6ac2 133e d246 023e 03a1 85bd 8db5 c83d
00000200: a331 2bbe 3ed0 2dbe 14ad f63d 1830 633d
00000210: 14f0 7f3d 92c1 603d f04d 753d a539 2cbe
00000220: 5ffe efbd b819 313e 584b b0bc 5ab4 ae3d
00000230: 2074 20be 117b c13d 2203 19be 5b7c 1cbe
00000240: 25ca 2abe a0cb d73d 12c3 01be 13c2 f4bd
00000250: 43c7 08bd 88de d0bd 839f d7bd 5d20 123e
00000260: 429c ba3d 8183 dcbd 14f9 943d 2040 1dbd
00000270: 1a57 dcbc 51e5 66bd 56fd d73d 06e4 4a3b
00000280: 3e77 9f3d b624 adbd 23f4 8ebd d751 273e
00000290: e466 383d 0b91 a13d cc0c 1ebd 4445 86bd
000002a0: 4e78 1ebe eb3d 423d c224 c13d 00a0 ea39
000002b0: 65bf 133e ee4a 2bbe 1095 dfbd 6901 86bd
000002c0: 2d4a f93d 2daa d93d a648 3cbd 53cc 213e
000002d0: 6065 42bd 6be7 a1bd fa99 873d 82ec fc3d
000002e0: 7e2c f43d 05c0 e8bd d867 043d f3ba 2d3e
000002f0: bcfd 7e3d f692 1dbe 81ae 15be 6a6f f7bb
00000300: 84f6 313d 4da1 bb3d cc0c a9bd 4c20 833d
00000310: f8dc a5bc 3811 f2bb 446f 3fbd 2ed2 8d3d
00000320: 806e c4bb 8ddf c63c b5e8 03be f05c 87bd
00000330: 6534 9bbd d909 4cbd 06ad ddbc dc15 22bd
00000340: fc37 a6bd 79a1 8d3d e34a 3b3e 3c7b 2a3e
00000350: b5db c9bc c242 d53d 7d0c b8bd 94c2 2a3d
00000360: 4883 67bd 1065 8a3d 20a9 a1bd 0bb1 0b3e
00000370: 0a50 2f3e dea6 debd 6902 1cbe 506e 88bb
00000380: 8e62 f23d c956 813d 012b 043e 31d2 98bd
00000390: 53d7 0f3e 9b83 1fbe 9a17 b63d a863 86bc
000003a0: deb8 6fbd 9e83 1cbe e266 8d3d 2a66 03be
000003b0: 1109 183e 4a38 0e3d c8cc 343d 420b d83d
000003c0: a42f 0b3e b934 0f3e 4f39 9f3d cd70 1c3e
000003d0: 4a80 1abe 2b92 143e 7d9c 24be 3533 8dbd
000003e0: 1e72 bb3d d1de b5bd 54a7 003d 720b adbd
000003f0: efd7 a1bd b114 913d 834e 2e3e 0ff9 34bd

fcn.module.3.bias f4 [10]
-0.017054722 0.12825327 0.1256351 0.09413717 -0.12546267 0.07055963 -0.040178347 0.07439508
0.14241469 0.18086733
00000000: 58b6 8bbc d354 033e 7da6 003e fdca c03d
00000010: 4979 00be 9181 903d 0d92 24bd 735c 983d
00000020: 28d5 113e 4935 393e

exp_avg f4 [16, 4, 16]
-0.00089399406 -0.00076716545 -0.0014211618 -0.0004213719 -0.00036018426 -0.0016319716 -0.000640618 -0.002955534
-0.0022007907 -0.0009370339 -0.0007794643 -0.0011116258 -0.002841837 -0.0013845443 -0.0013699308 -0.0012605082
-0.0012500224 -0.00038075304 -0.0018313767 -0.0008253701 -0.004458733 -0.00067200384 -0.00116086 -0.0021052244
-0.0015502679 -0.0012653004 -0.0015179146 -0.0023631128 -0.00082326215 -0.0004956848 1.1394071e-05 -0.0016712575
-0.0028285065 -0.0021394228 -0.0018612628 -0.0012378321 -0.00089743425 -0.00044241137 -0.0022022368 -0.0004447079
-0.0021426403 -0.00058072887 -0.0033730115 -0.0011565388 -0.0021592 -0.0033115996 -0.0036561347 -0.0013751574
-0.0011071129 -0.0027922941 -0.00096583494 -0.003595062 -0.00036328455 -0.0033332494 -0.0020759215 -0.00057417
-0.00018593716 -0.0032965727 -0.00040924584 -0.0014483585 -0.00025533728 -0.0008878076 -0.0010649652 -0.0017727128
0.0007165865 0.0010900325 0.0025698745 0.0013313653 0.0030062923 0.0035502573 0.0025055057 0.0009978596
0.0011405788 0.0016682078 0.0012890629 0.0014404433 0.00092628127 0.0010949693 0.00056322746 0.003128682
0.0040142583 0.0012712856 0.0013090448 0.0030796062 0.00074099563 0.0022499065 0.0017876637 0.004325039
0.0019468117 0.0033731982 0.0032816764 0.002322747 0.00061893486 0.0024429539 0.0022348657 0.0010782112
0.0026735722 0.003283933 0.0028494364 0.0011421904 0.001656475 0.00053411623 0.0015033401 0.0013264446
0.0022079304 0.0011326802 0.0013636084 0.0027024776 0.0035026467 0.0036852262 0.003350301 0.0011206915
0.0008041018 0.0025632677 0.0014801631 0.0026553576 0.0028047564 0.0018742392 0.002412009 0.0015591757
0.0029131977 0.0020344327 0.0022741714 0.0017428509 0.0031606555 0.00098537 0.002060124 0.0028809346
-0.0007071555 -0.00026780015 -0.00044966905 -0.0004101412 -0.0002558979 -0.0006262851 -0.0006764451 -0.0007247317
-0.00064848363 -0.0005635755 -0.0005982342 -0.00043454563 -0.0004650527 -0.00056427997 -0.00028183623 -0.0005351971
-0.00036499673 -0.0006376491 -0.00054957723 -0.0006109095 -0.0006925662 -0.0003099727 -0.00050812145 -0.00057349465
-0.0006780213 -0.0005108479 -0.0006352259 -0.00066536845 -0.0006782741 -0.0003909471 -0.00042885053 -0.00039268992
-0.0005264448 -0.00057364337 -0.00055689586 -0.00045312574 -0.00055607746 -0.0004026861 -0.0004876414 -0.00020895546
-0.00041843954 -0.0002454368 -0.00014425513 -0.0005306946 -0.00028880642 -0.0005862624 -0.0006309237 -0.0004142639
-0.0004064371 -0.0005259414 -0.0004488916 -0.00053085753 -0.0005004924 -0.00066609017 -0.000332826 -0.00049785216
-0.00026008952 -0.00068517367 -0.00062731875 -0.0003744251 -0.00057290064 -0.00046354442 -0.00066342345 -0.00066288316
0.0030106332 0.0017801856 0.0038330639 0.00055502815 0.0013594566 0.0027044981 0.0036813405 0.0012277799
0.0023031153 0.00093845924 0.002774165 0.0015697947 0.000752263 0.0016371927 0.0027870843 0.0033937918
0.0010568246 0.0003109822 0.0011837742 0.0016034215 0.0016028847 0.002984455 0.00059368944 0.0011699913
0.0013075419 0.0026427873 0.0019900193 0.00032172824 0.0045581274 0.0014106632 0.00050327147 0.0002672921
0.0022409307 0.0020821919 0.0012856097 0.0025839452 0.0019039449 0.0018475214 0.0016682865 0.0024236185
0.0013537424 0.00064239465 0.0011971036 0.003509549 0.0017638657 0.0033323471 0.0035230669 0.001743259
0.0013024298 0.0034374592 0.0013083711 0.0028684237 0.0027445322 7.434355e-05 0.0016675014 0.0027894285
0.0026464188 0.0033871774 0.00164953 0.002209746 0.0005365618 0.0012306153 0.0007973953 0.0022064755
00000000: ed5a 6aba 9a1b 49ba 4746 baba 94eb dcb9
00000010: 1dd7 bcb9 e1e7 d5ba 25ef 27ba a2b1 41bb
00000020: 243b 10bb 48a3 75ba f754 4cba f9b3 91ba
00000030: 1d3e 3abb 9979 b5ba 408f b3ba a337 a5ba
00000040: cbd7 a3ba cf9f c7b9 ce0a f0ba a65d 58ba
00000050: 901a 92bb 6a29 30ba ff27 98ba cef7 09bb
00000060: 5c32 cbba 70d8 a5ba c3f4 c6ba 74de 1abb
00000070: 30d0 57ba d8f0 01ba 2a29 3f37 190e dbba
00000080: 775e 39bb 8f35 0cbb 9ef5 f3ba c13e a2ba
00000090: cb41 6bba 73f3 e7b9 6753 10bb af27 e9b9
000000a0: 8a6b 0cbb 0e3c 18ba be0d 5dbb 0197 97ba
000000b0: 5d81 0dbb 6c07 59bb c39b 6fbb a03e b4ba
000000c0: 8b1c 91ba ecfe 36bb 1630 7dba 229b 6bbb
000000d0: 3a77 beb9 a572 5abb 2f0c 08bb e583 16ba
000000e0: 20f8 42b9 500b 58bb 0c90 d6b9 d9d6 bdba
000000f0: cade 85b9 c2bb 68ba 4d96 8bba 5f5a e8ba
00000100: 4ed9 3b3a 6cdf 8e3a 576b 283b 3581 ae3a
00000110: 3705 453b 6fab 683b 6933 243b 9dca 823a
00000120: 797f 953a c4a7 da3a c6f5 a83a 42cd bc3a
00000130: afd1 723a 1385 8f3a 8ea5 133a 930a 4d3b
00000140: 0a8a 833b 44a1 a63a 4194 ab3a 38d3 493b
00000150: 603f 423a 2b73 133b 0a50 ea3a 0fb9 8d3b
00000160: 292c ff3a e010 5d3b 6511 573b 3a39 183b
00000170: 0440 223a f719 203b d376 123b c452 8d3a
00000180: 1937 2f3b 4137 573b 9cbd 3a3b 8db5 953a
00000190: 141e d93a ef03 0c3a b90b c53a 18dc ad3a
000001a0: edb2 103b 7176 943a 1bbb b23a 0d1c 313b
000001b0: a98c 653b d683 713b b990 5b3b 2be4 923a
000001c0: 5cca 523a 7ffc 273b 0802 c23a 8205 2e3b
000001d0: 01d0 373b 08a9 f53a cc12 1e3b 415d cc3a
000001e0: 59eb 3e3b 1e54 053b 440a 153b 5f70 e43a
000001f0: 0023 4f3b 8827 813a 2503 073b 10ce 3c3b
00000200: 6760 39ba 8767 8cb9 8fc1 ebb9 3808 d7b9
00000210: 092a 86b9 482d 24ba 7653 31ba ecfb 3dba
00000220: 00ff 29ba e9bc 13ba d1d2 1cba bad3 e3b9
00000230: 51d2 f3b9 30ec 13ba 6bc3 93b9 784c 0cba
00000240: 085d bfb9 e827 27ba 8111 10ba 7125 20ba
00000250: 558d 35ba d583 a2b9 7433 05ba 9356 16ba
00000260: 3dbd 31ba 6cea 05ba 4a85 26ba 1f6c 2eba
00000270: 34ce 31ba 08f8 ccb9 58d7 e0b9 f3e1 cdb9
00000280: 1d01 0aba 8e60 16ba a6fc 11ba 8291 edb9
00000290: bac5 11ba 9d1f d3b9 1faa ffb9 0e1b 5bb9
000002a0: 0162 dbb9 f8ad 80b9 3143 17b9 501e 0bba
000002b0: f16a 97b9 67af 19ba 9364 25ba 8f31 d9b9
000002c0: 1017 d5b9 54df 09ba 3659 ebb9 3f29 0bba
000002d0: 7a33 03ba 8e9c 2eba 267f aeb9 4b82 02ba
000002e0: a05c 88b9 3a9d 33ba a672 24ba 7c4e c4b9
000002f0: b62e 16ba e107 f3b9 98e9 2dba 56c5 2dba
00000300: 0b4e 453b 1e55 e93a 2434 7b3b 4f7f 113a
00000310: cb2f b23a f33d 313b a542 713b 75ed a03a
00000320: ddef 163b ef02 763a c4ce 353b 92c1 cd3a
00000330: 8433 453a 1297 d63a 84a7 363b 616a 5e3b
00000340: 2685 8a3a 530b a339 df28 9b3a e629 d23a
00000350: e317 d23a d996 433b d3a1 1b3a 655a 993a
00000360: d361 ab3a 9d32 2d3b fc6a 023b a2ad a839
00000370: 585c 953b 01e6 b83a faed 033a 5723 8c39
00000380: 94dc 123b 6275 083b e781 a83a 6857 293b
00000390: ca8d f93a 8828 f23a 68aa da3a 92d5 1e3b
000003a0: 0f70 b13a 6066 283a 22e8 9c3a 7600 663b
000003b0: 8331 e73a 8263 5a3b 41e3 663b 117e e43a
000003c0: 4bb6 aa3a ff46 613b a67d ab3a 2afc 3b3b
000003d0: 9cdd 333b e4e8 9b38 1090 da3a d8ce 363b
000003e0: 8a6f 2d3b 68fb 5d3b 0b35 d83a 63d1 103b
000003f0: 0ea8 0c3a 994c a13a 4b08 513a 849a 103b

exp_avg_sq f4 [16, 4, 16]
2.1507194e-08 2.0119463e-08 5.4654354e-08 8.873327e-09 3.6532986e-09 7.38221e-08 1.5863057e-08 2.2167144e-07
1.2806929e-07 2.5746107e-08 1.7583925e-08 3.3218733e-08 2.085005e-07 5.4694347e-08 4.7630348e-08 5.389549e-08
4.9409888e-08 7.851709e-09 8.808951e-08 1.8744721e-08 5.18128e-07 1.7186412e-08 3.766954e-08 1.265881e-07
7.5182086e-08 4.495943e-08 7.539371e-08 1.5359208e-07 1.7190143e-08 9.07751e-09 1.379377e-09 7.112075e-08
2.1872512e-07 1.2641961e-07 9.1857146e-08 4.94641e-08 2.0803858e-08 9.248154e-09 1.2920974e-07 8.186583e-09
1.185837e-07 9.879899e-09 2.8717827e-07 3.7944147e-08 1.2028478e-07 2.7456537e-07 3.5546668e-07 4.8692044e-08
3.5386822e-08 1.9389806e-07 2.8292739e-08 3.253053e-07 4.4244497e-09 2.752398e-07 1.2023709e-07 1.1785441e-08
1.1610244e-09 2.8057707e-07 6.825303e-09 5.7884105e-08 3.3345184e-09 2.1889536e-08 3.623097e-08 7.982325e-08
1.5226183e-08 3.8919083e-08 1.8969048e-07 6.4700345e-08 2.6239246e-07 4.0372302e-07 1.8060197e-07 3.3707728e-08
3.963684e-08 8.753513e-08 4.706355e-08 7.1595906e-08 3.55973e-08 3.6003097e-08 1.2783979e-08 3.0766086e-07
4.6109326e-07 5.7703176e-08 5.9057594e-08 2.796435e-07 1.8615154e-08 1.4815053e-07 1.1306405e-07 5.5632063e-07
1.2205724e-07 3.3791756e-07 3.298364e-07 1.5718744e-07 1.1953606e-08 2.0074324e-07 1.6433327e-07 3.777352e-08
2.3455141e-07 2.9584788e-07 2.3808445e-07 4.0215205e-08 1.0054179e-07 1.0814419e-08 7.3133904e-08 5.7995287e-08
1.5626814e-07 4.257857e-08 6.637394e-08 2.2629585e-07 3.5433334e-07 3.805892e-07 3.170548e-07 4.0729123e-08
2.273885e-08 2.0781115e-07 7.203316e-08 2.1018947e-07 2.2572749e-07 1.00779445e-07 1.6207518e-07 7.195446e-08
2.4603304e-07 1.2805936e-07 1.5548196e-07 9.070042e-08 3.1364422e-07 3.530706e-08 1.262376e-07 2.3954146e-07
1.2824281e-08 8.488732e-09 1.5468103e-08 2.5176035e-08 1.7050382e-08 1.213963e-08 1.2888235e-08 2.4213708e-08
1.1625326e-08 9.632395e-09 1.8408224e-08 1.0767778e-08 7.0111197e-09 9.356146e-09 3.4886518e-09 9.5798995e-09
2.021709e-08 1.08282014e-08 1.0566657e-08 1.106235e-08 1.5279852e-08 6.9698594e-09 8.225883e-09 9.89288e-09
2.3695508e-08 8.025576e-09 1.17033565e-08 1.1867989e-08 1.4125062e-08 1.2051307e-08 9.341571e-09 1.3961111e-08
9.9816075e-09 1.3001434e-08 8.772728e-09 7.674117e-09 8.445349e-09 1.3395518e-08 1.671923e-08 1.1479531e-08
4.9253384e-09 1.186674e-08 9.638299e-09 1.1850691e-08 1.948941e-08 1.4026883e-08 1.1189888e-08 9.234174e-09
7.008891e-09 9.737689e-09 6.6069807e-09 8.950388e-09 1.3428905e-08 1.2339626e-08 4.0814867e-09 6.7507058e-09
1.41855665e-08 1.7515012e-08 1.113863e-08 1.069944e-08 9.065802e-09 1.01683675e-08 2.548588e-08 1.2637494e-08
2.793588e-07 1.097472e-07 5.046429e-07 1.7162387e-08 7.213307e-08 2.3073238e-07 4.2923918e-07 6.2774966e-08
2.0909151e-07 5.53536e-08 2.3317867e-07 8.482348e-08 3.0277786e-08 8.890793e-08 2.8450359e-07 3.7686257e-07
5.428924e-08 1.0618925e-08 5.0049838e-08 1.06501375e-07 8.817254e-08 3.2946423e-07 1.3723133e-08 7.819141e-08
6.888332e-08 2.3860008e-07 1.423784e-07 1.3633658e-08 6.593165e-07 9.512225e-08 1.0255723e-08 7.59931e-09
1.7263176e-07 1.650481e-07 5.8474466e-08 2.3061762e-07 1.3631892e-07 1.2544322e-07 1.1292908e-07 2.119476e-07
8.278497e-08 2.0630836e-08 6.439087e-08 3.77748e-07 1.346868e-07 3.714773e-07 4.155057e-07 1.0272362e-07
7.5621074e-08 3.7045257e-07 6.9996965e-08 2.5618633e-07 2.472743e-07 3.004038e-09 1.1037915e-07 2.457549e-07
2.2177733e-07 3.5323853e-07 1.1222434e-07 1.8352249e-07 1.3122167e-08 5.453555e-08 3.0284234e-08 1.8045375e-07
00000000: d2be b832 2bd3 ac32 19bd 6a33 4e71 1832
00000010: 820d 7b31 2188 9e33 3b43 8832 9504 6e34
00000020: 6b83 0934 4a28 dd32 760b 9732 62ac 0e33
00000030: 2ee0 5f34 12e9 6a33 1f92 4c33 b87a 6733
00000040: bf36 5433 2ee4 0632 b82b bd33 1404 a132
00000050: 7c15 0b35 52a1 9332 19ca 2133 46ec 0734
00000060: ca73 a133 6b19 4133 21e8 a133 12eb 2434
00000070: 86a9 9332 50f3 1b32 8394 bd30 0cbb 9833
00000080: b4da 6a34 f5bd 0734 0043 c533 5a72 5433
00000090: 2bb4 b232 d0e1 1e32 e7bc 0a34 f9a4 0c32
000000a0: 14a8 fe33 41bc 2932 7b2d 9a34 08f8 2233
000000b0: a127 0134 fa67 9334 f8d6 be34 7821 5133
000000c0: 39fc 1733 4b32 5034 6408 f332 9fa5 ae34
000000d0: df05 9831 acc4 9334 851a 0134 eb78 4a32
000000e0: ea91 9f30 38a2 9634 0084 ea31 3f9c 7833
000000f0: 7825 6531 9907 bc32 5f9c 1b33 4c6b ab33
00000100: bbca 8232 fc27 2733 b9ad 4b34 64f1 8a33
00000110: f2de 8c34 45bf d834 7eeb 4134 0ac6 1033
00000120: 2b3d 2a33 f2fa bb33 ec22 4a33 44c0 9933
00000130: a5e3 1833 d3a1 1a33 89a0 5b32 962c a534
00000140: 2d8c f734 50d5 7733 83a6 7d33 e921 9634
00000150: 28e7 9f32 4f13 1f34 9ecd f233 1056 1535
00000160: d70e 0334 096b b534 5f14 b134 5bc7 2834
00000170: 845c 4d32 e28b 5734 9673 3034 6d3c 2233
00000180: 00d9 7b34 06d5 9e34 28a4 7f34 16b9 2c33
00000190: 6fe9 d733 51ca 3932 ca0d 9d33 7e16 7933
000001a0: a9ca 2734 a2df 3633 7689 8e33 bbfb 7234
000001b0: 343b be34 c853 cc34 ae37 aa34 25ee 2e33
000001c0: 4353 c332 b222 5f34 a6b0 9a33 71b0 6134
000001d0: 805f 7234 166c d833 e306 2e34 6285 9a33
000001e0: 8616 8434 b080 0934 8ef2 2634 15c7 c233
000001f0: ef62 a834 86a4 1733 ed8b 0734 549a 8034
00000200: c951 5c32 d7d5 1132 b8de 8432 b042 d832
00000210: 3076 9232 a88e 5032 0f6b 5d32 82fe cf32
00000220: b9b8 4732 b97b 2532 1d20 9e32 30fd 3832
00000230: 76e6 f031 c4bc 2032 03bd 6f31 d894 2432
00000240: daa9 ad32 ef06 3a32 a688 3532 bb0c 3e32
00000250: c040 8332 887b ef31 d151 0d32 59f5 2932
00000260: f98a cb32 dbe0 0932 e80f 4932 f8e3 4b32
00000270: aeaa 7232 350a 4f32 aa7c 2032 9ed9 6f32
00000280: 937b 2b32 e95c 5f32 deb6 1632 20d7 0332
00000290: 0a17 1132 1c22 6632 fa9d 8f32 8337 4532
000002a0: bc3b a931 79de 4b32 b095 2532 e497 4b32
000002b0: aa69 a732 e2fa 7032 a63d 4032 54a4 1e32
000002c0: dbd2 f031 cf4a 2732 9e03 e331 39c4 1932
000002d0: f3b4 6632 40fe 5332 233d 8c31 d6f3 e731
000002e0: c8b4 7332 eb73 9632 365c 3f32 a2d0 3732
000002f0: d2bf 1b32 f4b0 2e32 0bec da32 491c 5932
00000300: c8fa 9534 29ae eb33 cc76 0735 7d6c 9332
00000310: 93e7 9a33 3cbf 7734 2f72 e634 e7ce 8633
00000320: a382 6034 edbd 6d33 aa5f 7a34 3428 b633
00000330: c70a 0233 a7ed be33 e0bd 9834 9953 ca34
00000340: a72b 6933 876e 3632 61f6 5633 c0b5 e433
00000350: 5e59 bd33 38e1 b034 fac2 6b32 2fea a733
00000360: 01ed 9333 f218 8034 ade0 1834 7639 6a32
00000370: e3fb 3035 0346 cc33 2631 3032 1e8e 0232
00000380: a85c 3934 1438 3134 5b25 7b33 b09f 7734
00000390: 0f5f 1234 92b1 0634 6b83 f233 b693 6334
000003a0: 85c7 b133 b037 b132 4147 8a33 4acd ca34
000003b0: 6d9e 1034 746f c734 ab12 df34 e898 dc33
000003c0: 2065 a233 9de2 c634 3d51 9633 fb89 8934
000003d0: 1fc1 8434 986f 4e31 9409 ed33 4cf0 8334
000003e0: b021 6e34 bca4 bd34 fcff f033 470e 4534
000003f0: e76f 6132 793a 6a33 de11 0233 c0c2 4134

exp_avg f4 [16]
-0.006079645 0.008208513 -0.002005029 0.0076108263 0.00065813033 0.0036924954 0.003602836 0.0009600838
0.000797097 -0.0022814334 -0.0030161613 0.0061217034 0.013105095 -0.002101133 0.0027050516 0.001451687
00000000: c237 c7bb 007d 063c ce66 03bb 3d64 f93b
00000010: 6186 2c3a cbfd 713b 8f1d 6c3b 22ae 7b3a
00000020: 46f4 503a 1a84 15bb caaa 45bb 9298 c83b
00000030: c1b6 563c 2ab3 09bb 3c47 313b 8846 be3a

exp_avg_sq f4 [16]
9.339902e-07 2.0232878e-06 1.2876909e-07 2.0156424e-06 1.1580067e-07 6.1090606e-07 3.44696e-07 7.012413e-08
3.7457937e-08 1.6792845e-07 2.8028614e-07 1.1160711e-06 5.072194e-06 1.8166483e-07 2.381648e-07 9.05478e-08
00000000: 51b7 7a35 d2c7 0736 c743 0a34 7944 0736
00000010: 17ae f833 25fd 2335 a80e b934 2697 9633
00000020: 70e1 2033 d24f 3434 3c7a 9634 e9cb 9535
00000030: d131 aa36 a60f 4334 3eba 7f34 2e73 c233

exp_avg f4 [32, 32]
0.0 0.0 0.0 0.0 0.0 0.0 0.0 0.0
0.0 0.0 0.0 0.0 0.0 0.0 0.0 0.0
0.0 0.0 0.0 0.0 0.0 0.0 0.0 0.0
0.0 0.0 0.0 0.0 0.0 0.0 0.0 0.0
6.9454395e-06 4.306853e-06 9.125315e-06 7.4735544e-06 5.2182722e-06 8.73943e-06 8.666275e-06 4.130002e-06
6.01492e-06 1.1098909e-05 7.0078413e-06 2.9614175e-06 2.649456e-06 5.4388343e-06 9.524491e-06 7.832725e-06
5.19846e-07 6.0348464e-07 3.4821019e-06 1.6741222e-06 1.7280747e-07 1.0582311e-06 5.971097e-07 5.231406e-07
8.3941444e-07 3.9001375e-06 1.2197657e-06 4.8060406e-07 2.0648073e-07 7.9415247e-07 2.098497e-06 2.928608e-06
-0.0059013623 -0.0045286417 -0.009501023 -0.006388284 -0.0042004664 -0.0060476265 -0.0054205726 -0.005228696
-0.0060835257 -0.010930089 -0.006585022 -0.004134337 -0.0035829663 -0.005212803 -0.0065801605 -0.009577609
-0.00077051244 -0.0003876621 -0.0032053315 -0.0011778175 -0.00036620515 -0.000794589 -0.0005730956 -0.0006649067
-0.0008894552 -0.003670365 -0.0012187519 -0.00044156378 -0.00025206388 -0.0005221153 -0.0010941206 -0.002711656
-0.00252905 -0.0018631221 -0.0035008565 -0.002196524 -0.0015535889 -0.0023230384 -0.0021591396 -0.0018780058
-0.0021343231 -0.0040270146 -0.002480171 -0.0017490089 -0.0013402893 -0.002269401 -0.002205908 -0.00368108
-0.00033420307 -0.0001580221 -0.0012129521 -0.00038899208 -0.00012052352 -0.00029736245 -0.00019814473 -0.00022842031
-0.00029608764 -0.0014295905 -0.0004831929 -0.0001720739 -9.494489e-05 -0.00021884707 -0.0003915905 -0.0010032881
0.0 0.0 0.0 0.0 0.0 0.0 0.0 0.0
0.0 0.0 0.0 0.0 0.0 0.0 0.0 0.0
0.0 0.0 0.0 0.0 0.0 0.0 0.0 0.0
0.0 0.0 0.0 0.0 0.0 0.0 0.0 0.0
-0.00076033035 -0.00045926604 -0.0010695198 -0.0007093444 -0.00052924844 -0.0005920674 -0.0004942558 -0.0006008415
-0.00067887583 -0.0011710892 -0.0007438265 -0.0004588684 -0.0005036409 -0.00059716846 -0.00084456784 -0.0010961517
-0.000113387745 -4.09792e-05 -0.00038199418 -0.00012750352 -3.6578494e-05 -7.370859e-05 -4.8129277e-05 -7.509847e-05
-9.536432e-05 -0.00042769007 -0.00013963875 -4.7277987e-05 -2.558521e-05 -7.0453716e-05 -0.00013061248 -0.00030184948
0.0 0.0 0.0 0.0 0.0 0.0 0.0 0.0
0.0 0.0 0.0 0.0 0.0 0.0 0.0 0.0
0.0 0.0 0.0 0.0 0.0 0.0 0.0 0.0
0.0 0.0 0.0 0.0 0.0 0.0 0.0 0.0
0.0 0.0 0.0 0.0 0.0 0.0 0.0 0.0
0.0 0.0 0.0 0.0 0.0 0.0 0.0 0.0
0.0 0.0 0.0 0.0 0.0 0.0 0.0 0.0
0.0 0.0 0.0 0.0 0.0 0.0 0.0 0.0
00000000: 0000 0000 0000 0000 0000 0000 0000 0000
00000010: 0000 0000 0000 0000 0000 0000 0000 0000
00000020: 0000 0000 0000 0000 0000 0000 0000 0000
00000030: 0000 0000 0000 0000 0000 0000 0000 0000
00000040: 0000 0000 0000 0000 0000 0000 0000 0000
00000050: 0000 0000 0000 0000 0000 0000 0000 0000
00000060: 0000 0000 0000 0000 0000 0000 0000 0000
00000070: 0000 0000 0000 0000 0000 0000 0000 0000
00000080: df0c e936 9683 9036 ee18 1937 58c5 fa36
00000090: 9e18 af36 919f 1237 5e65 1137 7294 8a36
000000a0: c5d3 c936 7435 3a37 e624 eb36 c4bc 4636
000000b0: 4fcd 3136 3b7f b636 61cb 1f37 4c69 0337
000000c0: 8c8b 0b35 26ff 2135 0eae 6936 67b2 e035
000000d0: f58c 3934 8b08 8e35 1149 2035 f36d 0c35
000000e0: 1f54 6135 eddd 8236 d5b6 a335 dc02 0135
000000f0: feb4 5d34 be2d 5535 e7d3 0c36 1a89 4436
00000100: 3760 c1bb 0065 94bb 2eaa 1bbc cf54 d1bb
00000110: 11a4 89bb 2b2b c6bb 0f9f b1bb 7b55 abbb
00000120: 5058 c7bb 1e14 33bc 2bc7 d7bb 5579 87bb
00000130: 33d0 6abb 29d0 aabb 639e d7bb 67eb 1cbc
00000140: 37fc 49ba 203f cbb9 8a10 52bb ff60 9aba
00000150: 39ff bfb9 f74b 50ba cb3b 16ba 224d 2eba
00000160: 542a 69ba 828a 70bb 87be 9fba b081 e7b9
00000170: 7127 84b9 91de 08ba 9868 8fba 0ab6 31bb
00000180: 6bbe 25bb 0134 f4ba a06e 65bb 8ff3 0fbb
00000190: cba1 cbba 1e3e 18bb 5a80 0dbb 6b27 f6ba
000001a0: 00e0 0bbb 0cf5 83bb 5d8a 22bb 003f e5ba
000001b0: a5ac afba 3bba 14bb ff90 10bb 463e 71bb
000001c0: fa37 afb9 bcb2 25b9 ebfb 9eba a2f1 cbb9
000001d0: 92c1 fcb8 50e7 9bb9 12c5 4fb9 1c84 6fb9
000001e0: 363c 9bb9 1961 bbba 0e55 fdb9 bc6e 34b9
000001f0: 261d c7b8 507a 65b9 634e cdb9 c380 83ba
00000200: 0000 0000 0000 0000 0000 0000 0000 0000
00000210: 0000 0000 0000 0000 0000 0000 0000 0000
00000220: 0000 0000 0000 0000 0000 0000 0000 0000
00000230: 0000 0000 0000 0000 0000 0000 0000 0000
00000240: 0000 0000 0000 0000 0000 0000 0000 0000
00000250: 0000 0000 0000 0000 0000 0000 0000 0000
00000260: 0000 0000 0000 0000 0000 0000 0000 0000
00000270: 0000 0000 0000 0000 0000 0000 0000 0000
00000280: e850 47ba a5c9 f0b9 212f 8cba 4cf3 39ba
00000290: 43bd 0aba f834 1bba f290 01ba ca81 1dba
000002a0: 96f6 31ba 3c7f 99ba 5afd 42ba 4694 f0b9
000002b0: c506 04ba 4c8b 1cba fd65 5dba bfac 8fba
000002c0: 95ca edb8 15e1 2bb8 6446 c8b9 77b2 05b9
000002d0: dc6b 19b8 ff93 9ab8 6bde 49b8 2f7e 9db8
000002e0: 54fe c7b8 973b e0b9 fe6b 12b9 5a4c 46b8
000002f0: d29f d6b7 8dc0 93b8 05f5 08b9 8d41 9eb9
00000300: 0000 0000 0000 0000 0000 0000 0000 0000
00000310: 0000 0000 0000 0000 0000 0000 0000 0000
00000320: 0000 0000 0000 0000 0000 0000 0000 0000
00000330: 0000 0000 0000 0000 0000 0000 0000 0000
00000340: 0000 0000 0000 0000 0000 0000 0000 0000
00000350: 0000 0000 0000 0000 0000 0000 0000 0000
00000360: 0000 0000 0000 0000 0000 0000 0000 0000
00000370: 0000 0000 0000 0000 0000 0000 0000 0000
00000380: 0000 0000 0000 0000 0000 0000 0000 0000
00000390: 0000 0000 0000 0000 0000 0000 0000 0000
000003a0: 0000 0000 0000 0000 0000 0000 0000 0000
000003b0: 0000 0000 0000 0000 0000 0000 0000 0000
000003c0: 0000 0000 0000 0000 0000 0000 0000 0000
000003d0: 0000 0000 0000 0000 0000 0000 0000 0000
000003e0: 0000 0000 0000 0000 0000 0000 0000 0000
000003f0: 0000 0000 0000 0000 0000 0000 0000 0000

exp_avg_sq f4 [32, 32]
0.0 0.0 0.0 0.0 0.0 0.0 0.0 0.0
0.0 0.0 0.0 0.0 0.0 0.0 0.0 0.0
0.0 0.0 0.0 0.0 0.0 0.0 0.0 0.0
0.0 0.0 0.0 0.0 0.0 0.0 0.0 0.0
1.3765818e-11 5.293253e-12 2.376283e-11 1.5938846e-11 7.770624e-12 2.1795598e-11 2.143223e-11 4.867466e-12
1.0324335e-11 3.515306e-11 1.4014285e-11 2.5026595e-12 2.0031613e-12 8.441393e-12 2.5887256e-11 1.750766e-11
7.711733e-14 1.03928544e-13 3.460074e-12 7.997916e-13 8.521724e-15 3.1956818e-13 1.0174444e-13 7.809789e-14
2.0107374e-13 4.3407257e-12 4.2457598e-13 6.591395e-14 1.21663865e-14 1.7997419e-13 1.2566642e-12 2.4475131e-12
8.932493e-07 5.6364786e-07 2.390811e-06 1.1151315e-06 4.840854e-07 1.0123138e-06 8.053568e-07 7.468562e-07
9.850182e-07 3.1979291e-06 1.1192133e-06 4.761427e-07 3.6110015e-07 7.198539e-07 1.1859315e-06 2.4878923e-06
1.4749964e-08 4.4557567e-09 2.681562e-07 4.0080728e-08 3.9412615e-09 1.89532e-08 9.772108e-09 1.26728645e-08
2.1359517e-08 3.51939e-07 3.7544655e-08 6.0739174e-09 2.0256616e-09 7.1429933e-09 3.463077e-08 2.0263967e-07
1.6539998e-07 9.010985e-08 3.1834716e-07 1.2454993e-07 6.258032e-08 1.4065847e-07 1.2205943e-07 9.1099785e-08
1.20106e-07 4.1950966e-07 1.6071209e-07 7.867074e-08 4.635512e-08 1.329566e-07 1.2680503e-07 3.5184308e-07
3.0430811e-09 6.5144257e-10 3.8532328e-08 3.8884695e-09 3.7218692e-10 2.3016846e-09 1.0196057e-09 1.3480392e-09
2.2830478e-09 5.2773885e-08 6.1457444e-09 7.767566e-10 2.3579597e-10 1.2603887e-09 3.983681e-09 2.6251481e-08
0.0 0.0 0.0 0.0 0.0 0.0 0.0 0.0
0.0 0.0 0.0 0.0 0.0 0.0 0.0 0.0
0.0 0.0 0.0 0.0 0.0 0.0 0.0 0.0
0.0 0.0 0.0 0.0 0.0 0.0 0.0 0.0
1.7647235e-08 6.410146e-09 3.481315e-08 1.5588716e-08 8.370147e-09 1.0198433e-08 7.448276e-09 1.090358e-08
1.39964325e-08 4.1783835e-08 1.7217047e-08 6.1667893e-09 7.508102e-09 1.094285e-08 2.2282544e-08 3.5376267e-08
4.123168e-10 5.0592277e-11 4.5072523e-09 4.9195237e-10 4.1319198e-11 1.5435211e-10 7.003782e-11 1.6732865e-10
2.8489633e-10 5.6031135e-09 6.1953537e-10 6.487728e-11 1.8945732e-11 1.5341774e-10 5.129297e-10 2.7064149e-09
0.0 0.0 0.0 0.0 0.0 0.0 0.0 0.0
0.0 0.0 0.0 0.0 0.0 0.0 0.0 0.0
0.0 0.0 0.0 0.0 0.0 0.0 0.0 0.0
0.0 0.0 0.0 0.0 0.0 0.0 0.0 0.0
0.0 0.0 0.0 0.0 0.0 0.0 0.0 0.0
0.0 0.0 0.0 0.0 0.0 0.0 0.0 0.0
0.0 0.0 0.0 0.0 0.0 0.0 0.0 0.0
0.0 0.0 0.0 0.0 0.0 0.0 0.0 0.0
00000000: 0000 0000 0000 0000 0000 0000 0000 0000
00000010: 0000 0000 0000 0000 0000 0000 0000 0000
00000020: 0000 0000 0000 0000 0000 0000 0000 0000
00000030: 0000 0000 0000 0000 0000 0000 0000 0000
00000040: 0000 0000 0000 0000 0000 0000 0000 0000
00000050: 0000 0000 0000 0000 0000 0000 0000 0000
00000060: 0000 0000 0000 0000 0000 0000 0000 0000
00000070: 0000 0000 0000 0000 0000 0000 0000 0000
00000080: bc2b 722d 623d ba2c 2305 d12d 1733 8c2d
00000090: c8b3 082d 53b7 bf2d 1785 bc2d 3c42 ab2c
000000a0: aca0 352d d49a 1a2e bb8a 762d e81b 302c
000000b0: bff5 0c2c a880 142d ebb4 e32d bfff 992d
000000c0: 1da7 ad29 ba06 ea29 277b 732c 0f1f 612b
000000d0: 8483 1928 a1e6 b32a ad1b e529 5edc af29
000000e0: 8f63 622a c8b9 982c d903 ef2a ce6c 9429
000000f0: 8e2b 5b28 07a2 4a2a 19dc b02b 7a3a 2c2c
00000100: a0c7 6f35 964d 1735 d271 2036 a0ab 9535
00000110: 18f2 0135 d6de 8735 b32f 5835 917b 4835
00000120: f834 8435 019c 5636 e037 9635 8ea0 ff34
00000130: 3add c134 fc3b 4135 4c2c 9f35 aaf5 2636
00000140: 0767 7d32 4019 9931 1cf7 8f34 3a25 2c33
00000150: b46b 8731 87ce a232 2fe2 2732 d9b7 5932
00000160: 137a b732 21f2 bc34 c940 2133 beb2 d031
00000170: d133 0b31 6f6e f531 efbc 1433 2b95 5934
00000180: cd98 3134 6a82 c133 4de9 aa34 06bc 0534
00000190: e563 8633 e807 1734 710f 0334 a3a2 c333
000001a0: 7cf6 0034 f838 e134 3490 2c34 b2f1 a833
000001b0: fe17 4733 d5c2 0e34 e727 0834 f2e4 bc34
000001c0: 731e 5131 3211 3330 be7e 2533 579b 8531
000001d0: a79c cc2f aa2b 1e31 3022 8c30 ea45 b930
000001e0: cde3 1c31 80a9 6233 8a2a d331 6383 5530
000001f0: 55a1 812f fc39 ad30 d4e0 8831 9e7f e132
00000200: 0000 0000 0000 0000 0000 0000 0000 0000
00000210: 0000 0000 0000 0000 0000 0000 0000 0000
00000220: 0000 0000 0000 0000 0000 0000 0000 0000
00000230: 0000 0000 0000 0000 0000 0000 0000 0000
00000240: 0000 0000 0000 0000 0000 0000 0000 0000
00000250: 0000 0000 0000 0000 0000 0000 0000 0000
00000260: 0000 0000 0000 0000 0000 0000 0000 0000
00000270: 0000 0000 0000 0000 0000 0000 0000 0000
00000280: ae96 9732 3e40 dc31 7785 1533 f3e7 8532
00000290: 4ccc 0f32 2f35 2f32 bbeb ff31 7452 3b32
000002a0: f674 7032 d075 3333 b0e4 9332 a7e3 d331
000002b0: fbfc 0032 2aff 3b32 d567 bf32 9ef0 1733
000002c0: 6eac e22f d781 5e2e 36de 9a31 123a 0730
000002d0: 48b9 352e 42b6 292f ca03 9a2e d4fa 372f
000002e0: 989f 9c2f 8285 c031 ed4b 2a30 a9aa 8e2e
000002f0: ffa5 a62d 41af 282f 38fe 0c30 c1fb 3931
00000300: 0000 0000 0000 0000 0000 0000 0000 0000
00000310: 0000 0000 0000 0000 0000 0000 0000 0000
00000320: 0000 0000 0000 0000 0000 0000 0000 0000
00000330: 0000 0000 0000 0000 0000 0000 0000 0000
00000340: 0000 0000 0000 0000 0000 0000 0000 0000
00000350: 0000 0000 0000 0000 0000 0000 0000 0000
00000360: 0000 0000 0000 0000 0000 0000 0000 0000
00000370: 0000 0000 0000 0000 0000 0000 0000 0000
00000380: 0000 0000 0000 0000 0000 0000 0000 0000
00000390: 0000 0000 0000 0000 0000 0000 0000 0000
000003a0: 0000 0000 0000 0000 0000 0000 0000 0000
000003b0: 0000 0000 0000 0000 0000 0000 0000 0000
000003c0: 0000 0000 0000 0000 0000 0000 0000 0000
000003d0: 0000 0000 0000 0000 0000 0000 0000 0000
000003e0: 0000 0000 0000 0000 0000 0000 0000 0000
000003f0: 0000 0000 0000 0000 0000 0000 0000 0000

exp_avg f4 [32]
0.0 8.61172e-06 -0.008702041 -0.003313472 0.0 -0.0009935864 0.0 0.0
0.0112186195 -0.0069191726 0.0 0.0 -0.00030588795 0.013452415 0.00817741 0.012451088
0.0121809095 -0.018606737 0.012617479 -0.0061111464 -0.00107151 0.0 0.009848342 -0.0064183013
0.0 0.0 0.0 0.0 -0.012803046 3.39051e-05 -0.00047720518 -1.373963e-05
00000000: 0000 0000 0e7b 1037 0193 0ebc d626 59bb
00000010: 0000 0000 3a3b 82ba 0000 0000 0000 0000
00000020: 4dce 373c 3aba e2bb 0000 0000 0000 0000
00000030: 965f a0b9 8567 5c3c 8bfa 053c a6ff 4b3c
00000040: 7092 473c 286d 98bc 8bb9 4e3c 0340 c8bb
00000050: e971 8cba 0000 0000 f15a 213c 9d50 d2bb
00000060: 0000 0000 0000 0000 0000 0000 0000 0000
00000070: dec3 51bc 5335 0e38 6531 fab9 4383 66b7

exp_avg_sq f4 [32]
0.0 2.1163247e-11 2.009654e-06 2.842662e-07 0.0 2.9855556e-08 0.0 0.0
3.6614533e-06 1.2292749e-06 0.0 0.0 6.750148e-08 4.9279774e-06 2.61762e-06 6.827492e-06
4.1764692e-06 9.001642e-06 4.486882e-06 9.4224947e-07 4.675711e-08 0.0 2.6940654e-06 1.0858485e-06
0.0 0.0 0.0 0.0 4.3494406e-06 2.3943722e-10 9.010874e-08 1.1030337e-10
00000000: 0000 0000 6527 ba2d 98dd 0636 409d 9834
00000010: 0000 0000 883a 0033 0000 0000 0000 0000
00000020: 4ab7 7536 90fd a435 0000 0000 0000 0000
00000030: 55f5 9033 015b a536 5faa 2f36 b617 e536
00000040: 9923 8c36 c205 1737 068e 9636 e4ee 7c35
00000050: fcd1 4833 0000 0000 b1cb 3436 78bd 9135
00000060: 0000 0000 0000 0000 0000 0000 0000 0000
00000070: 69f1 9136 cba1 832f ce81 c133 478f f22e
